./run_experiments.py 
Running: python3 main.py -m MLP -ef wav -ntt 10 -bs 4 -hc 16 -lr 0.0001 -dr 0 -st -wtr -esp 30 -trd test_1
b'Train/Val dataset: DEAPDataset(960) | Test dataset: DEAPDataset(320)\nDevice: cuda\nNumber of classes: 32\nMLP(\n  (lin1): Linear(in_features=7552, out_features=16, bias=True)\n  (lin2): Linear(in_features=16, out_features=8, bias=True)\n  (lin3): Linear(in_features=8, out_features=4, bias=True)\n  (lin4): Linear(in_features=4, out_features=32, bias=True)\n  (act): Softmax(dim=-1)\n)\nModel parameter count: 121180\nTrain dataset: DEAPDataset(800) | Validation dataset: DEAPDataset(160)\nTraining...\n--Finished training--\nTraining time (s): 347.38\nTotal epochs: 693 ; Model picked from epoch 663\nAverage time per epoch: 0.50\n\n--Testing--\nTest loss: 2.61180\nTest acc: 0.909  \nTest F1: 0.909 \nTest precision: 0.909\nTest recall: 0.909\n'
Running: python3 main.py -m MLP -ef wav -ntt 10 -bs 16 -hc 16 -lr 0.0001 -dr 0 -st -wtr -esp 30 -trd test_1
b'Train/Val dataset: DEAPDataset(960) | Test dataset: DEAPDataset(320)\nDevice: cuda\nNumber of classes: 32\nMLP(\n  (lin1): Linear(in_features=7552, out_features=16, bias=True)\n  (lin2): Linear(in_features=16, out_features=8, bias=True)\n  (lin3): Linear(in_features=8, out_features=4, bias=True)\n  (lin4): Linear(in_features=4, out_features=32, bias=True)\n  (act): Softmax(dim=-1)\n)\nModel parameter count: 121180\nTrain dataset: DEAPDataset(800) | Validation dataset: DEAPDataset(160)\nTraining...\n--Finished training--\nTraining time (s): 72.45\nTotal epochs: 425 ; Model picked from epoch 395\nAverage time per epoch: 0.17\n\n--Testing--\nTest loss: 2.64411\nTest acc: 0.884  \nTest F1: 0.884 \nTest precision: 0.884\nTest recall: 0.884\n'
…
  File "/home/carlos/anaconda3/envs/torch/lib/python3.8/site-packages/torch_geometric/data/data.py", line 132, in <listcomp>
    keys = [key for key in self.__dict__.keys() if self[key] is not None]
  File "/home/carlos/anaconda3/envs/torch/lib/python3.8/site-packages/torch_geometric/data/data.py", line 123, in __getitem__
    return getattr(self, key, None)
KeyboardInterrupt
(torch) ➜  participant_classification git:(main) ✗ ./run_experiments.py
Running: python3 main.py -m MLP -ef wav -ntt 10 -bs 4 -hc 16 -lr 0.0001 -dr 0 -st -wtr -esp 30 -trd test_1
b'Train/Val dataset: DEAPDataset(960) | Test dataset: DEAPDataset(320)\nDevice: cuda\nNumber of classes: 32\nMLP(\n  (lin1): Linear(in_features=7552, out_features=16, bias=True)\n  (lin2): Linear(in_features=16, out_features=8, bias=True)\n  (lin3): Linear(in_features=8, out_features=4, bias=True)\n  (lin4): Linear(in_features=4, out_features=32, bias=True)\n  (act): Softmax(dim=-1)\n)\nModel parameter count: 121180\nTrain dataset: DEAPDataset(800) | Validation dataset: DEAPDataset(160)\nTraining...\n--Finished training--\nTraining time (s): 272.33\nTotal epochs: 308 ; Model picked from epoch 278\nAverage time per epoch: 0.88\n\n--Testing--\nTest loss: 2.72032\nTest acc: 0.797  \nTest F1: 0.797 \nTest precision: 0.797\nTest recall: 0.797\n'
Running: python3 main.py -m MLP -ef wav -ntt 10 -bs 16 -hc 16 -lr 0.0001 -dr 0 -st -wtr -esp 30 -trd test_1
b'Train/Val dataset: DEAPDataset(960) | Test dataset: DEAPDataset(320)\nDevice: cuda\nNumber of classes: 32\nMLP(\n  (lin1): Linear(in_features=7552, out_features=16, bias=True)\n  (lin2): Linear(in_features=16, out_features=8, bias=True)\n  (lin3): Linear(in_features=8, out_features=4, bias=True)\n  (lin4): Linear(in_features=4, out_features=32, bias=True)\n  (act): Softmax(dim=-1)\n)\nModel parameter count: 121180\nTrain dataset: DEAPDataset(800) | Validation dataset: DEAPDataset(160)\nTraining...\n--Finished training--\nTraining time (s): 117.70\nTotal epochs: 402 ; Model picked from epoch 372\nAverage time per epoch: 0.29\n\n--Testing--\nTest loss: 2.70368\nTest acc: 0.816  \nTest F1: 0.816 \nTest precision: 0.816\nTest recall: 0.816\n'
Running: python3 main.py -m MLP -ef wav -ntt 10 -bs 4 -hc 16 -lr 0.0001 -dr 0.4 -st -wtr -esp 30 -trd test_1
b'Train/Val dataset: DEAPDataset(960) | Test dataset: DEAPDataset(320)\nDevice: cuda\nNumber of classes: 32\nMLP(\n  (lin1): Linear(in_features=7552, out_features=16, bias=True)\n  (lin2): Linear(in_features=16, out_features=8, bias=True)\n  (lin3): Linear(in_features=8, out_features=4, bias=True)\n  (lin4): Linear(in_features=4, out_features=32, bias=True)\n  (act): Softmax(dim=-1)\n)\nModel parameter count: 121180\nTrain dataset: DEAPDataset(800) | Validation dataset: DEAPDataset(160)\nTraining...\n--Finished training--\nTraining time (s): 647.51\nTotal epochs: 630 ; Model picked from epoch 600\nAverage time per epoch: 1.03\n\n--Testing--\nTest loss: 2.81503\nTest acc: 0.791  \nTest F1: 0.791 \nTest precision: 0.791\nTest recall: 0.791\n'
Running: python3 main.py -m MLP -ef wav -ntt 10 -bs 16 -hc 16 -lr 0.0001 -dr 0.4 -st -wtr -esp 30 -trd test_1
b'Train/Val dataset: DEAPDataset(960) | Test dataset: DEAPDataset(320)\nDevice: cuda\nNumber of classes: 32\nMLP(\n  (lin1): Linear(in_features=7552, out_features=16, bias=True)\n  (lin2): Linear(in_features=16, out_features=8, bias=True)\n  (lin3): Linear(in_features=8, out_features=4, bias=True)\n  (lin4): Linear(in_features=4, out_features=32, bias=True)\n  (act): Softmax(dim=-1)\n)\nModel parameter count: 121180\nTrain dataset: DEAPDataset(800) | Validation dataset: DEAPDataset(160)\nTraining...\n--Finished training--\nTraining time (s): 230.93\nTotal epochs: 759 ; Model picked from epoch 729\nAverage time per epoch: 0.30\n\n--Testing--\nTest loss: 2.72888\nTest acc: 0.931  \nTest F1: 0.931 \nTest precision: 0.931\nTest recall: 0.931\n'
Running: python3 main.py -m MLP -ef wav -ntt 10 -bs 4 -hc 16 -lr 0.0045 -dr 0 -st -wtr -esp 30 -trd test_1
b'Train/Val dataset: DEAPDataset(960) | Test dataset: DEAPDataset(320)\nDevice: cuda\nNumber of classes: 32\nMLP(\n  (lin1): Linear(in_features=7552, out_features=16, bias=True)\n  (lin2): Linear(in_features=16, out_features=8, bias=True)\n  (lin3): Linear(in_features=8, out_features=4, bias=True)\n  (lin4): Linear(in_features=4, out_features=32, bias=True)\n  (act): Softmax(dim=-1)\n)\nModel parameter count: 121180\nTrain dataset: DEAPDataset(800) | Validation dataset: DEAPDataset(160)\nTraining...\n--Finished training--\nTraining time (s): 31.80\nTotal epochs: 33 ; Model picked from epoch 3\nAverage time per epoch: 0.96\n\n--Testing--\nTest loss: 3.30070\nTest acc: 0.184  \nTest F1: 0.184 \nTest precision: 0.184\nTest recall: 0.184\n'
Running: python3 main.py -m MLP -ef wav -ntt 10 -bs 16 -hc 16 -lr 0.0045 -dr 0 -st -wtr -esp 30 -trd test_1
b'Train/Val dataset: DEAPDataset(960) | Test dataset: DEAPDataset(320)\nDevice: cuda\nNumber of classes: 32\nMLP(\n  (lin1): Linear(in_features=7552, out_features=16, bias=True)\n  (lin2): Linear(in_features=16, out_features=8, bias=True)\n  (lin3): Linear(in_features=8, out_features=4, bias=True)\n  (lin4): Linear(in_features=4, out_features=32, bias=True)\n  (act): Softmax(dim=-1)\n)\nModel parameter count: 121180\nTrain dataset: DEAPDataset(800) | Validation dataset: DEAPDataset(160)\nTraining...\n--Finished training--\nTraining time (s): 13.17\nTotal epochs: 45 ; Model picked from epoch 15\nAverage time per epoch: 0.29\n\n--Testing--\nTest loss: 3.11353\nTest acc: 0.403  \nTest F1: 0.403 \nTest precision: 0.403\nTest recall: 0.403\n'
Running: python3 main.py -m MLP -ef wav -ntt 10 -bs 4 -hc 16 -lr 0.0045 -dr 0.4 -st -wtr -esp 30 -trd test_1
b'Train/Val dataset: DEAPDataset(960) | Test dataset: DEAPDataset(320)\nDevice: cuda\nNumber of classes: 32\nMLP(\n  (lin1): Linear(in_features=7552, out_features=16, bias=True)\n  (lin2): Linear(in_features=16, out_features=8, bias=True)\n  (lin3): Linear(in_features=8, out_features=4, bias=True)\n  (lin4): Linear(in_features=4, out_features=32, bias=True)\n  (act): Softmax(dim=-1)\n)\nModel parameter count: 121180\nTrain dataset: DEAPDataset(800) | Validation dataset: DEAPDataset(160)\nTraining...\n--Finished training--\nTraining time (s): 39.08\nTotal epochs: 42 ; Model picked from epoch 12\nAverage time per epoch: 0.93\n\n--Testing--\nTest loss: 3.29927\nTest acc: 0.209  \nTest F1: 0.209 \nTest precision: 0.209\nTest recall: 0.209\n'
Running: python3 main.py -m MLP -ef wav -ntt 10 -bs 16 -hc 16 -lr 0.0045 -dr 0.4 -st -wtr -esp 30 -trd test_1
b'Train/Val dataset: DEAPDataset(960) | Test dataset: DEAPDataset(320)\nDevice: cuda\nNumber of classes: 32\nMLP(\n  (lin1): Linear(in_features=7552, out_features=16, bias=True)\n  (lin2): Linear(in_features=16, out_features=8, bias=True)\n  (lin3): Linear(in_features=8, out_features=4, bias=True)\n  (lin4): Linear(in_features=4, out_features=32, bias=True)\n  (act): Softmax(dim=-1)\n)\nModel parameter count: 121180\nTrain dataset: DEAPDataset(800) | Validation dataset: DEAPDataset(160)\nTraining...\n--Finished training--\nTraining time (s): 15.28\nTotal epochs: 50 ; Model picked from epoch 20\nAverage time per epoch: 0.31\n\n--Testing--\nTest loss: 3.16670\nTest acc: 0.403  \nTest F1: 0.403 \nTest precision: 0.403\nTest recall: 0.403\n'
Running: python3 main.py -m MLP -ef wav -ntt 10 -bs 4 -hc 16 -lr 0.009 -dr 0 -st -wtr -esp 30 -trd test_1
b'Train/Val dataset: DEAPDataset(960) | Test dataset: DEAPDataset(320)\nDevice: cuda\nNumber of classes: 32\nMLP(\n  (lin1): Linear(in_features=7552, out_features=16, bias=True)\n  (lin2): Linear(in_features=16, out_features=8, bias=True)\n  (lin3): Linear(in_features=8, out_features=4, bias=True)\n  (lin4): Linear(in_features=4, out_features=32, bias=True)\n  (act): Softmax(dim=-1)\n)\nModel parameter count: 121180\nTrain dataset: DEAPDataset(800) | Validation dataset: DEAPDataset(160)\nTraining...\n--Finished training--\nTraining time (s): 31.07\nTotal epochs: 32 ; Model picked from epoch 2\nAverage time per epoch: 0.97\n\n--Testing--\nTest loss: 3.36777\nTest acc: 0.156  \nTest F1: 0.156 \nTest precision: 0.156\nTest recall: 0.156\n'
Running: python3 main.py -m MLP -ef wav -ntt 10 -bs 16 -hc 16 -lr 0.009 -dr 0 -st -wtr -esp 30 -trd test_1
b'Train/Val dataset: DEAPDataset(960) | Test dataset: DEAPDataset(320)\nDevice: cuda\nNumber of classes: 32\nMLP(\n  (lin1): Linear(in_features=7552, out_features=16, bias=True)\n  (lin2): Linear(in_features=16, out_features=8, bias=True)\n  (lin3): Linear(in_features=8, out_features=4, bias=True)\n  (lin4): Linear(in_features=4, out_features=32, bias=True)\n  (act): Softmax(dim=-1)\n)\nModel parameter count: 121180\nTrain dataset: DEAPDataset(800) | Validation dataset: DEAPDataset(160)\nTraining...\n--Finished training--\nTraining time (s): 9.39\nTotal epochs: 34 ; Model picked from epoch 4\nAverage time per epoch: 0.28\n\n--Testing--\nTest loss: 3.26555\nTest acc: 0.250  \nTest F1: 0.250 \nTest precision: 0.250\nTest recall: 0.250\n'
Running: python3 main.py -m MLP -ef wav -ntt 10 -bs 4 -hc 16 -lr 0.009 -dr 0.4 -st -wtr -esp 30 -trd test_1
b'Train/Val dataset: DEAPDataset(960) | Test dataset: DEAPDataset(320)\nDevice: cuda\nNumber of classes: 32\nMLP(\n  (lin1): Linear(in_features=7552, out_features=16, bias=True)\n  (lin2): Linear(in_features=16, out_features=8, bias=True)\n  (lin3): Linear(in_features=8, out_features=4, bias=True)\n  (lin4): Linear(in_features=4, out_features=32, bias=True)\n  (act): Softmax(dim=-1)\n)\nModel parameter count: 121180\nTrain dataset: DEAPDataset(800) | Validation dataset: DEAPDataset(160)\nTraining...\n--Finished training--\nTraining time (s): 30.55\nTotal epochs: 31 ; Model picked from epoch 1\nAverage time per epoch: 0.99\n\n--Testing--\nTest loss: 3.44083\nTest acc: 0.059  \nTest F1: 0.059 \nTest precision: 0.059\nTest recall: 0.059\n'
Running: python3 main.py -m MLP -ef wav -ntt 10 -bs 16 -hc 16 -lr 0.009 -dr 0.4 -st -wtr -esp 30 -trd test_1
b'Train/Val dataset: DEAPDataset(960) | Test dataset: DEAPDataset(320)\nDevice: cuda\nNumber of classes: 32\nMLP(\n  (lin1): Linear(in_features=7552, out_features=16, bias=True)\n  (lin2): Linear(in_features=16, out_features=8, bias=True)\n  (lin3): Linear(in_features=8, out_features=4, bias=True)\n  (lin4): Linear(in_features=4, out_features=32, bias=True)\n  (act): Softmax(dim=-1)\n)\nModel parameter count: 121180\nTrain dataset: DEAPDataset(800) | Validation dataset: DEAPDataset(160)\nTraining...\n--Finished training--\nTraining time (s): 10.32\nTotal epochs: 34 ; Model picked from epoch 4\nAverage time per epoch: 0.30\n\n--Testing--\nTest loss: 3.35062\nTest acc: 0.191  \nTest F1: 0.191 \nTest precision: 0.191\nTest recall: 0.191\n'
Running: python3 main.py -m MLP -ef wav -ntt 10 -bs 4 -hc 64 -lr 0.0001 -dr 0 -st -wtr -esp 30 -trd test_1
b'Train/Val dataset: DEAPDataset(960) | Test dataset: DEAPDataset(320)\nDevice: cuda\nNumber of classes: 32\nMLP(\n  (lin1): Linear(in_features=7552, out_features=64, bias=True)\n  (lin2): Linear(in_features=64, out_features=32, bias=True)\n  (lin3): Linear(in_features=32, out_features=16, bias=True)\n  (lin4): Linear(in_features=16, out_features=32, bias=True)\n  (act): Softmax(dim=-1)\n)\nModel parameter count: 486544\nTrain dataset: DEAPDataset(800) | Validation dataset: DEAPDataset(160)\nTraining...\n--Finished training--\nTraining time (s): 108.98\nTotal epochs: 102 ; Model picked from epoch 72\nAverage time per epoch: 1.07\n\n--Testing--\nTest loss: 2.55253\nTest acc: 0.966  \nTest F1: 0.966 \nTest precision: 0.966\nTest recall: 0.966\n'
Running: python3 main.py -m MLP -ef wav -ntt 10 -bs 16 -hc 64 -lr 0.0001 -dr 0 -st -wtr -esp 30 -trd test_1
b'Train/Val dataset: DEAPDataset(960) | Test dataset: DEAPDataset(320)\nDevice: cuda\nNumber of classes: 32\nMLP(\n  (lin1): Linear(in_features=7552, out_features=64, bias=True)\n  (lin2): Linear(in_features=64, out_features=32, bias=True)\n  (lin3): Linear(in_features=32, out_features=16, bias=True)\n  (lin4): Linear(in_features=16, out_features=32, bias=True)\n  (act): Softmax(dim=-1)\n)\nModel parameter count: 486544\nTrain dataset: DEAPDataset(800) | Validation dataset: DEAPDataset(160)\nTraining...\n--Finished training--\nTraining time (s): 33.98\nTotal epochs: 111 ; Model picked from epoch 81\nAverage time per epoch: 0.31\n\n--Testing--\nTest loss: 2.64445\nTest acc: 0.872  \nTest F1: 0.872 \nTest precision: 0.872\nTest recall: 0.872\n'
Running: python3 main.py -m MLP -ef wav -ntt 10 -bs 4 -hc 64 -lr 0.0001 -dr 0.4 -st -wtr -esp 30 -trd test_1
b'Train/Val dataset: DEAPDataset(960) | Test dataset: DEAPDataset(320)\nDevice: cuda\nNumber of classes: 32\nMLP(\n  (lin1): Linear(in_features=7552, out_features=64, bias=True)\n  (lin2): Linear(in_features=64, out_features=32, bias=True)\n  (lin3): Linear(in_features=32, out_features=16, bias=True)\n  (lin4): Linear(in_features=16, out_features=32, bias=True)\n  (act): Softmax(dim=-1)\n)\nModel parameter count: 486544\nTrain dataset: DEAPDataset(800) | Validation dataset: DEAPDataset(160)\nTraining...\n--Finished training--\nTraining time (s): 144.33\nTotal epochs: 131 ; Model picked from epoch 101\nAverage time per epoch: 1.10\n\n--Testing--\nTest loss: 2.55490\nTest acc: 0.966  \nTest F1: 0.966 \nTest precision: 0.966\nTest recall: 0.966\n'
Running: python3 main.py -m MLP -ef wav -ntt 10 -bs 16 -hc 64 -lr 0.0001 -dr 0.4 -st -wtr -esp 30 -trd test_1
b'Train/Val dataset: DEAPDataset(960) | Test dataset: DEAPDataset(320)\nDevice: cuda\nNumber of classes: 32\nMLP(\n  (lin1): Linear(in_features=7552, out_features=64, bias=True)\n  (lin2): Linear(in_features=64, out_features=32, bias=True)\n  (lin3): Linear(in_features=32, out_features=16, bias=True)\n  (lin4): Linear(in_features=16, out_features=32, bias=True)\n  (act): Softmax(dim=-1)\n)\nModel parameter count: 486544\nTrain dataset: DEAPDataset(800) | Validation dataset: DEAPDataset(160)\nTraining...\n--Finished training--\nTraining time (s): 59.17\nTotal epochs: 197 ; Model picked from epoch 167\nAverage time per epoch: 0.30\n\n--Testing--\nTest loss: 2.55219\nTest acc: 0.966  \nTest F1: 0.966 \nTest precision: 0.966\nTest recall: 0.966\n'
Running: python3 main.py -m MLP -ef wav -ntt 10 -bs 4 -hc 64 -lr 0.0045 -dr 0 -st -wtr -esp 30 -trd test_1
b'Train/Val dataset: DEAPDataset(960) | Test dataset: DEAPDataset(320)\nDevice: cuda\nNumber of classes: 32\nMLP(\n  (lin1): Linear(in_features=7552, out_features=64, bias=True)\n  (lin2): Linear(in_features=64, out_features=32, bias=True)\n  (lin3): Linear(in_features=32, out_features=16, bias=True)\n  (lin4): Linear(in_features=16, out_features=32, bias=True)\n  (act): Softmax(dim=-1)\n)\nModel parameter count: 486544\nTrain dataset: DEAPDataset(800) | Validation dataset: DEAPDataset(160)\nTraining...\n--Finished training--\nTraining time (s): 31.86\nTotal epochs: 31 ; Model picked from epoch 1\nAverage time per epoch: 1.03\n\n--Testing--\nTest loss: 3.22162\nTest acc: 0.291  \nTest F1: 0.291 \nTest precision: 0.291\nTest recall: 0.291\n'
Running: python3 main.py -m MLP -ef wav -ntt 10 -bs 16 -hc 64 -lr 0.0045 -dr 0 -st -wtr -esp 30 -trd test_1
b'Train/Val dataset: DEAPDataset(960) | Test dataset: DEAPDataset(320)\nDevice: cuda\nNumber of classes: 32\nMLP(\n  (lin1): Linear(in_features=7552, out_features=64, bias=True)\n  (lin2): Linear(in_features=64, out_features=32, bias=True)\n  (lin3): Linear(in_features=32, out_features=16, bias=True)\n  (lin4): Linear(in_features=16, out_features=32, bias=True)\n  (act): Softmax(dim=-1)\n)\nModel parameter count: 486544\nTrain dataset: DEAPDataset(800) | Validation dataset: DEAPDataset(160)\nTraining...\n--Finished training--\nTraining time (s): 10.48\nTotal epochs: 37 ; Model picked from epoch 7\nAverage time per epoch: 0.28\n\n--Testing--\nTest loss: 2.77024\nTest acc: 0.747  \nTest F1: 0.747 \nTest precision: 0.747\nTest recall: 0.747\n'
Running: python3 main.py -m MLP -ef wav -ntt 10 -bs 4 -hc 64 -lr 0.0045 -dr 0.4 -st -wtr -esp 30 -trd test_1
b'Train/Val dataset: DEAPDataset(960) | Test dataset: DEAPDataset(320)\nDevice: cuda\nNumber of classes: 32\nMLP(\n  (lin1): Linear(in_features=7552, out_features=64, bias=True)\n  (lin2): Linear(in_features=64, out_features=32, bias=True)\n  (lin3): Linear(in_features=32, out_features=16, bias=True)\n  (lin4): Linear(in_features=16, out_features=32, bias=True)\n  (act): Softmax(dim=-1)\n)\nModel parameter count: 486544\nTrain dataset: DEAPDataset(800) | Validation dataset: DEAPDataset(160)\nTraining...\n--Finished training--\nTraining time (s): 31.25\nTotal epochs: 31 ; Model picked from epoch 1\nAverage time per epoch: 1.01\n\n--Testing--\nTest loss: 3.28050\nTest acc: 0.216  \nTest F1: 0.216 \nTest precision: 0.216\nTest recall: 0.216\n'
Running: python3 main.py -m MLP -ef wav -ntt 10 -bs 16 -hc 64 -lr 0.0045 -dr 0.4 -st -wtr -esp 30 -trd test_1
b'Train/Val dataset: DEAPDataset(960) | Test dataset: DEAPDataset(320)\nDevice: cuda\nNumber of classes: 32\nMLP(\n  (lin1): Linear(in_features=7552, out_features=64, bias=True)\n  (lin2): Linear(in_features=64, out_features=32, bias=True)\n  (lin3): Linear(in_features=32, out_features=16, bias=True)\n  (lin4): Linear(in_features=16, out_features=32, bias=True)\n  (act): Softmax(dim=-1)\n)\nModel parameter count: 486544\nTrain dataset: DEAPDataset(800) | Validation dataset: DEAPDataset(160)\nTraining...\n--Finished training--\nTraining time (s): 12.00\nTotal epochs: 41 ; Model picked from epoch 11\nAverage time per epoch: 0.29\n\n--Testing--\nTest loss: 3.04349\nTest acc: 0.472  \nTest F1: 0.472 \nTest precision: 0.472\nTest recall: 0.472\n'
Running: python3 main.py -m MLP -ef wav -ntt 10 -bs 4 -hc 64 -lr 0.009 -dr 0 -st -wtr -esp 30 -trd test_1
b'Train/Val dataset: DEAPDataset(960) | Test dataset: DEAPDataset(320)\nDevice: cuda\nNumber of classes: 32\nMLP(\n  (lin1): Linear(in_features=7552, out_features=64, bias=True)\n  (lin2): Linear(in_features=64, out_features=32, bias=True)\n  (lin3): Linear(in_features=32, out_features=16, bias=True)\n  (lin4): Linear(in_features=16, out_features=32, bias=True)\n  (act): Softmax(dim=-1)\n)\nModel parameter count: 486544\nTrain dataset: DEAPDataset(800) | Validation dataset: DEAPDataset(160)\nTraining...\n--Finished training--\nTraining time (s): 30.37\nTotal epochs: 32 ; Model picked from epoch 2\nAverage time per epoch: 0.95\n\n--Testing--\nTest loss: 3.42418\nTest acc: 0.094  \nTest F1: 0.094 \nTest precision: 0.094\nTest recall: 0.094\n'
Running: python3 main.py -m MLP -ef wav -ntt 10 -bs 16 -hc 64 -lr 0.009 -dr 0 -st -wtr -esp 30 -trd test_1
b'Train/Val dataset: DEAPDataset(960) | Test dataset: DEAPDataset(320)\nDevice: cuda\nNumber of classes: 32\nMLP(\n  (lin1): Linear(in_features=7552, out_features=64, bias=True)\n  (lin2): Linear(in_features=64, out_features=32, bias=True)\n  (lin3): Linear(in_features=32, out_features=16, bias=True)\n  (lin4): Linear(in_features=16, out_features=32, bias=True)\n  (act): Softmax(dim=-1)\n)\nModel parameter count: 486544\nTrain dataset: DEAPDataset(800) | Validation dataset: DEAPDataset(160)\nTraining...\n--Finished training--\nTraining time (s): 9.47\nTotal epochs: 33 ; Model picked from epoch 3\nAverage time per epoch: 0.29\n\n--Testing--\nTest loss: 3.23538\nTest acc: 0.281  \nTest F1: 0.281 \nTest precision: 0.281\nTest recall: 0.281\n'
Running: python3 main.py -m MLP -ef wav -ntt 10 -bs 4 -hc 64 -lr 0.009 -dr 0.4 -st -wtr -esp 30 -trd test_1
b'Train/Val dataset: DEAPDataset(960) | Test dataset: DEAPDataset(320)\nDevice: cuda\nNumber of classes: 32\nMLP(\n  (lin1): Linear(in_features=7552, out_features=64, bias=True)\n  (lin2): Linear(in_features=64, out_features=32, bias=True)\n  (lin3): Linear(in_features=32, out_features=16, bias=True)\n  (lin4): Linear(in_features=16, out_features=32, bias=True)\n  (act): Softmax(dim=-1)\n)\nModel parameter count: 486544\nTrain dataset: DEAPDataset(800) | Validation dataset: DEAPDataset(160)\nTraining...\n--Finished training--\nTraining time (s): 36.17\nTotal epochs: 36 ; Model picked from epoch 6\nAverage time per epoch: 1.00\n\n--Testing--\nTest loss: 3.43992\nTest acc: 0.078  \nTest F1: 0.078 \nTest precision: 0.078\nTest recall: 0.078\n'
Running: python3 main.py -m MLP -ef wav -ntt 10 -bs 16 -hc 64 -lr 0.009 -dr 0.4 -st -wtr -esp 30 -trd test_1
b'Train/Val dataset: DEAPDataset(960) | Test dataset: DEAPDataset(320)\nDevice: cuda\nNumber of classes: 32\nMLP(\n  (lin1): Linear(in_features=7552, out_features=64, bias=True)\n  (lin2): Linear(in_features=64, out_features=32, bias=True)\n  (lin3): Linear(in_features=32, out_features=16, bias=True)\n  (lin4): Linear(in_features=16, out_features=32, bias=True)\n  (act): Softmax(dim=-1)\n)\nModel parameter count: 486544\nTrain dataset: DEAPDataset(800) | Validation dataset: DEAPDataset(160)\nTraining...\n--Finished training--\nTraining time (s): 11.53\nTotal epochs: 36 ; Model picked from epoch 6\nAverage time per epoch: 0.32\n\n--Testing--\nTest loss: 3.25951\nTest acc: 0.250  \nTest F1: 0.250 \nTest precision: 0.250\nTest recall: 0.250\n'
Running: python3 main.py -m MLP -ef wav -ntt 10 -bs 4 -hc 128 -lr 0.0001 -dr 0 -st -wtr -esp 30 -trd test_1
b'Train/Val dataset: DEAPDataset(960) | Test dataset: DEAPDataset(320)\nDevice: cuda\nNumber of classes: 32\nMLP(\n  (lin1): Linear(in_features=7552, out_features=128, bias=True)\n  (lin2): Linear(in_features=128, out_features=64, bias=True)\n  (lin3): Linear(in_features=64, out_features=32, bias=True)\n  (lin4): Linear(in_features=32, out_features=32, bias=True)\n  (act): Softmax(dim=-1)\n)\nModel parameter count: 978176\nTrain dataset: DEAPDataset(800) | Validation dataset: DEAPDataset(160)\nTraining...\n--Finished training--\nTraining time (s): 132.96\nTotal epochs: 129 ; Model picked from epoch 99\nAverage time per epoch: 1.03\n\n--Testing--\nTest loss: 2.52115\nTest acc: 0.997  \nTest F1: 0.997 \nTest precision: 0.997\nTest recall: 0.997\n'
Running: python3 main.py -m MLP -ef wav -ntt 10 -bs 16 -hc 128 -lr 0.0001 -dr 0 -st -wtr -esp 30 -trd test_1
b'Train/Val dataset: DEAPDataset(960) | Test dataset: DEAPDataset(320)\nDevice: cuda\nNumber of classes: 32\nMLP(\n  (lin1): Linear(in_features=7552, out_features=128, bias=True)\n  (lin2): Linear(in_features=128, out_features=64, bias=True)\n  (lin3): Linear(in_features=64, out_features=32, bias=True)\n  (lin4): Linear(in_features=32, out_features=32, bias=True)\n  (act): Softmax(dim=-1)\n)\nModel parameter count: 978176\nTrain dataset: DEAPDataset(800) | Validation dataset: DEAPDataset(160)\nTraining...\n--Finished training--\nTraining time (s): 23.53\nTotal epochs: 77 ; Model picked from epoch 47\nAverage time per epoch: 0.31\n\n--Testing--\nTest loss: 2.61330\nTest acc: 0.903  \nTest F1: 0.903 \nTest precision: 0.903\nTest recall: 0.903\n'
Running: python3 main.py -m MLP -ef wav -ntt 10 -bs 4 -hc 128 -lr 0.0001 -dr 0.4 -st -wtr -esp 30 -trd test_1
b'Train/Val dataset: DEAPDataset(960) | Test dataset: DEAPDataset(320)\nDevice: cuda\nNumber of classes: 32\nMLP(\n  (lin1): Linear(in_features=7552, out_features=128, bias=True)\n  (lin2): Linear(in_features=128, out_features=64, bias=True)\n  (lin3): Linear(in_features=64, out_features=32, bias=True)\n  (lin4): Linear(in_features=32, out_features=32, bias=True)\n  (act): Softmax(dim=-1)\n)\nModel parameter count: 978176\nTrain dataset: DEAPDataset(800) | Validation dataset: DEAPDataset(160)\nTraining...\n--Finished training--\nTraining time (s): 113.50\nTotal epochs: 105 ; Model picked from epoch 75\nAverage time per epoch: 1.08\n\n--Testing--\nTest loss: 2.52117\nTest acc: 0.997  \nTest F1: 0.997 \nTest precision: 0.997\nTest recall: 0.997\n'
Running: python3 main.py -m MLP -ef wav -ntt 10 -bs 16 -hc 128 -lr 0.0001 -dr 0.4 -st -wtr -esp 30 -trd test_1
b'Train/Val dataset: DEAPDataset(960) | Test dataset: DEAPDataset(320)\nDevice: cuda\nNumber of classes: 32\nMLP(\n  (lin1): Linear(in_features=7552, out_features=128, bias=True)\n  (lin2): Linear(in_features=128, out_features=64, bias=True)\n  (lin3): Linear(in_features=64, out_features=32, bias=True)\n  (lin4): Linear(in_features=32, out_features=32, bias=True)\n  (act): Softmax(dim=-1)\n)\nModel parameter count: 978176\nTrain dataset: DEAPDataset(800) | Validation dataset: DEAPDataset(160)\nTraining...\n--Finished training--\nTraining time (s): 17.45\nTotal epochs: 57 ; Model picked from epoch 27\nAverage time per epoch: 0.31\n\n--Testing--\nTest loss: 2.55214\nTest acc: 0.966  \nTest F1: 0.966 \nTest precision: 0.966\nTest recall: 0.966\n'
Running: python3 main.py -m MLP -ef wav -ntt 10 -bs 4 -hc 128 -lr 0.0045 -dr 0 -st -wtr -esp 30 -trd test_1
b'Train/Val dataset: DEAPDataset(960) | Test dataset: DEAPDataset(320)\nDevice: cuda\nNumber of classes: 32\nMLP(\n  (lin1): Linear(in_features=7552, out_features=128, bias=True)\n  (lin2): Linear(in_features=128, out_features=64, bias=True)\n  (lin3): Linear(in_features=64, out_features=32, bias=True)\n  (lin4): Linear(in_features=32, out_features=32, bias=True)\n  (act): Softmax(dim=-1)\n)\nModel parameter count: 978176\nTrain dataset: DEAPDataset(800) | Validation dataset: DEAPDataset(160)\nTraining...\n--Finished training--\nTraining time (s): 33.71\nTotal epochs: 33 ; Model picked from epoch 3\nAverage time per epoch: 1.02\n\n--Testing--\nTest loss: 3.30194\nTest acc: 0.216  \nTest F1: 0.216 \nTest precision: 0.216\nTest recall: 0.216\n'
Running: python3 main.py -m MLP -ef wav -ntt 10 -bs 16 -hc 128 -lr 0.0045 -dr 0 -st -wtr -esp 30 -trd test_1
b'Train/Val dataset: DEAPDataset(960) | Test dataset: DEAPDataset(320)\nDevice: cuda\nNumber of classes: 32\nMLP(\n  (lin1): Linear(in_features=7552, out_features=128, bias=True)\n  (lin2): Linear(in_features=128, out_features=64, bias=True)\n  (lin3): Linear(in_features=64, out_features=32, bias=True)\n  (lin4): Linear(in_features=32, out_features=32, bias=True)\n  (act): Softmax(dim=-1)\n)\nModel parameter count: 978176\nTrain dataset: DEAPDataset(800) | Validation dataset: DEAPDataset(160)\nTraining...\n--Finished training--\nTraining time (s): 9.86\nTotal epochs: 32 ; Model picked from epoch 2\nAverage time per epoch: 0.31\n\n--Testing--\nTest loss: 2.91185\nTest acc: 0.609  \nTest F1: 0.609 \nTest precision: 0.609\nTest recall: 0.609\n'
Running: python3 main.py -m MLP -ef wav -ntt 10 -bs 4 -hc 128 -lr 0.0045 -dr 0.4 -st -wtr -esp 30 -trd test_1
b'Train/Val dataset: DEAPDataset(960) | Test dataset: DEAPDataset(320)\nDevice: cuda\nNumber of classes: 32\nMLP(\n  (lin1): Linear(in_features=7552, out_features=128, bias=True)\n  (lin2): Linear(in_features=128, out_features=64, bias=True)\n  (lin3): Linear(in_features=64, out_features=32, bias=True)\n  (lin4): Linear(in_features=32, out_features=32, bias=True)\n  (act): Softmax(dim=-1)\n)\nModel parameter count: 978176\nTrain dataset: DEAPDataset(800) | Validation dataset: DEAPDataset(160)\nTraining...\n--Finished training--\nTraining time (s): 31.26\nTotal epochs: 32 ; Model picked from epoch 2\nAverage time per epoch: 0.98\n\n--Testing--\nTest loss: 3.32992\nTest acc: 0.188  \nTest F1: 0.188 \nTest precision: 0.188\nTest recall: 0.188\n'
Running: python3 main.py -m MLP -ef wav -ntt 10 -bs 16 -hc 128 -lr 0.0045 -dr 0.4 -st -wtr -esp 30 -trd test_1
b'Train/Val dataset: DEAPDataset(960) | Test dataset: DEAPDataset(320)\nDevice: cuda\nNumber of classes: 32\nMLP(\n  (lin1): Linear(in_features=7552, out_features=128, bias=True)\n  (lin2): Linear(in_features=128, out_features=64, bias=True)\n  (lin3): Linear(in_features=64, out_features=32, bias=True)\n  (lin4): Linear(in_features=32, out_features=32, bias=True)\n  (act): Softmax(dim=-1)\n)\nModel parameter count: 978176\nTrain dataset: DEAPDataset(800) | Validation dataset: DEAPDataset(160)\nTraining...\n--Finished training--\nTraining time (s): 10.80\nTotal epochs: 38 ; Model picked from epoch 8\nAverage time per epoch: 0.28\n\n--Testing--\nTest loss: 2.99258\nTest acc: 0.525  \nTest F1: 0.525 \nTest precision: 0.525\nTest recall: 0.525\n'
Running: python3 main.py -m MLP -ef wav -ntt 10 -bs 4 -hc 128 -lr 0.009 -dr 0 -st -wtr -esp 30 -trd test_1
b'Train/Val dataset: DEAPDataset(960) | Test dataset: DEAPDataset(320)\nDevice: cuda\nNumber of classes: 32\nMLP(\n  (lin1): Linear(in_features=7552, out_features=128, bias=True)\n  (lin2): Linear(in_features=128, out_features=64, bias=True)\n  (lin3): Linear(in_features=64, out_features=32, bias=True)\n  (lin4): Linear(in_features=32, out_features=32, bias=True)\n  (act): Softmax(dim=-1)\n)\nModel parameter count: 978176\nTrain dataset: DEAPDataset(800) | Validation dataset: DEAPDataset(160)\nTraining...\n--Finished training--\nTraining time (s): 30.18\nTotal epochs: 31 ; Model picked from epoch 1\nAverage time per epoch: 0.97\n\n--Testing--\nTest loss: 3.48679\nTest acc: 0.031  \nTest F1: 0.031 \nTest precision: 0.031\nTest recall: 0.031\n'
Running: python3 main.py -m MLP -ef wav -ntt 10 -bs 16 -hc 128 -lr 0.009 -dr 0 -st -wtr -esp 30 -trd test_1
b'Train/Val dataset: DEAPDataset(960) | Test dataset: DEAPDataset(320)\nDevice: cuda\nNumber of classes: 32\nMLP(\n  (lin1): Linear(in_features=7552, out_features=128, bias=True)\n  (lin2): Linear(in_features=128, out_features=64, bias=True)\n  (lin3): Linear(in_features=64, out_features=32, bias=True)\n  (lin4): Linear(in_features=32, out_features=32, bias=True)\n  (act): Softmax(dim=-1)\n)\nModel parameter count: 978176\nTrain dataset: DEAPDataset(800) | Validation dataset: DEAPDataset(160)\nTraining...\n--Finished training--\nTraining time (s): 9.27\nTotal epochs: 31 ; Model picked from epoch 1\nAverage time per epoch: 0.30\n\n--Testing--\nTest loss: 3.30076\nTest acc: 0.216  \nTest F1: 0.216 \nTest precision: 0.216\nTest recall: 0.216\n'
Running: python3 main.py -m MLP -ef wav -ntt 10 -bs 4 -hc 128 -lr 0.009 -dr 0.4 -st -wtr -esp 30 -trd test_1
b'Train/Val dataset: DEAPDataset(960) | Test dataset: DEAPDataset(320)\nDevice: cuda\nNumber of classes: 32\nMLP(\n  (lin1): Linear(in_features=7552, out_features=128, bias=True)\n  (lin2): Linear(in_features=128, out_features=64, bias=True)\n  (lin3): Linear(in_features=64, out_features=32, bias=True)\n  (lin4): Linear(in_features=32, out_features=32, bias=True)\n  (act): Softmax(dim=-1)\n)\nModel parameter count: 978176\nTrain dataset: DEAPDataset(800) | Validation dataset: DEAPDataset(160)\nTraining...\n--Finished training--\nTraining time (s): 33.75\nTotal epochs: 33 ; Model picked from epoch 3\nAverage time per epoch: 1.02\n\n--Testing--\nTest loss: 3.44650\nTest acc: 0.072  \nTest F1: 0.072 \nTest precision: 0.072\nTest recall: 0.072\n'
Running: python3 main.py -m MLP -ef wav -ntt 10 -bs 16 -hc 128 -lr 0.009 -dr 0.4 -st -wtr -esp 30 -trd test_1
b'Train/Val dataset: DEAPDataset(960) | Test dataset: DEAPDataset(320)\nDevice: cuda\nNumber of classes: 32\nMLP(\n  (lin1): Linear(in_features=7552, out_features=128, bias=True)\n  (lin2): Linear(in_features=128, out_features=64, bias=True)\n  (lin3): Linear(in_features=64, out_features=32, bias=True)\n  (lin4): Linear(in_features=32, out_features=32, bias=True)\n  (act): Softmax(dim=-1)\n)\nModel parameter count: 978176\nTrain dataset: DEAPDataset(800) | Validation dataset: DEAPDataset(160)\nTraining...\n--Finished training--\nTraining time (s): 9.32\nTotal epochs: 31 ; Model picked from epoch 1\nAverage time per epoch: 0.30\n\n--Testing--\nTest loss: 3.32968\nTest acc: 0.188  \nTest F1: 0.188 \nTest precision: 0.188\nTest recall: 0.188\n'
Running: python3 main.py -m MLP -ef wav -ntt 30 -bs 4 -hc 16 -lr 0.0001 -dr 0 -st -wtr -esp 30 -trd test_1
b'Train/Val dataset: DEAPDataset(320) | Test dataset: DEAPDataset(960)\nDevice: cuda\nNumber of classes: 32\nMLP(\n  (lin1): Linear(in_features=7552, out_features=16, bias=True)\n  (lin2): Linear(in_features=16, out_features=8, bias=True)\n  (lin3): Linear(in_features=8, out_features=4, bias=True)\n  (lin4): Linear(in_features=4, out_features=32, bias=True)\n  (act): Softmax(dim=-1)\n)\nModel parameter count: 121180\nTrain dataset: DEAPDataset(160) | Validation dataset: DEAPDataset(160)\nTraining...\n--Finished training--\nTraining time (s): 133.88\nTotal epochs: 466 ; Model picked from epoch 436\nAverage time per epoch: 0.29\n\n--Testing--\nTest loss: 2.82901\nTest acc: 0.697  \nTest F1: 0.697 \nTest precision: 0.697\nTest recall: 0.697\n'
Running: python3 main.py -m MLP -ef wav -ntt 30 -bs 16 -hc 16 -lr 0.0001 -dr 0 -st -wtr -esp 30 -trd test_1
b'Train/Val dataset: DEAPDataset(320) | Test dataset: DEAPDataset(960)\nDevice: cuda\nNumber of classes: 32\nMLP(\n  (lin1): Linear(in_features=7552, out_features=16, bias=True)\n  (lin2): Linear(in_features=16, out_features=8, bias=True)\n  (lin3): Linear(in_features=8, out_features=4, bias=True)\n  (lin4): Linear(in_features=4, out_features=32, bias=True)\n  (act): Softmax(dim=-1)\n)\nModel parameter count: 121180\nTrain dataset: DEAPDataset(160) | Validation dataset: DEAPDataset(160)\nTraining...\n--Finished training--\nTraining time (s): 56.45\nTotal epochs: 687 ; Model picked from epoch 657\nAverage time per epoch: 0.08\n\n--Testing--\nTest loss: 3.01386\nTest acc: 0.504  \nTest F1: 0.504 \nTest precision: 0.504\nTest recall: 0.504\n'
Running: python3 main.py -m MLP -ef wav -ntt 30 -bs 4 -hc 16 -lr 0.0001 -dr 0.4 -st -wtr -esp 30 -trd test_1
b'Train/Val dataset: DEAPDataset(320) | Test dataset: DEAPDataset(960)\nDevice: cuda\nNumber of classes: 32\nMLP(\n  (lin1): Linear(in_features=7552, out_features=16, bias=True)\n  (lin2): Linear(in_features=16, out_features=8, bias=True)\n  (lin3): Linear(in_features=8, out_features=4, bias=True)\n  (lin4): Linear(in_features=4, out_features=32, bias=True)\n  (act): Softmax(dim=-1)\n)\nModel parameter count: 121180\nTrain dataset: DEAPDataset(160) | Validation dataset: DEAPDataset(160)\nTraining...\n--Finished training--\nTraining time (s): 282.09\nTotal epochs: 1088 ; Model picked from epoch 1058\nAverage time per epoch: 0.26\n\n--Testing--\nTest loss: 2.98615\nTest acc: 0.616  \nTest F1: 0.616 \nTest precision: 0.616\nTest recall: 0.616\n'
Running: python3 main.py -m MLP -ef wav -ntt 30 -bs 16 -hc 16 -lr 0.0001 -dr 0.4 -st -wtr -esp 30 -trd test_1
b'Train/Val dataset: DEAPDataset(320) | Test dataset: DEAPDataset(960)\nDevice: cuda\nNumber of classes: 32\nMLP(\n  (lin1): Linear(in_features=7552, out_features=16, bias=True)\n  (lin2): Linear(in_features=16, out_features=8, bias=True)\n  (lin3): Linear(in_features=8, out_features=4, bias=True)\n  (lin4): Linear(in_features=4, out_features=32, bias=True)\n  (act): Softmax(dim=-1)\n)\nModel parameter count: 121180\nTrain dataset: DEAPDataset(160) | Validation dataset: DEAPDataset(160)\nTraining...\n--Finished training--\nTraining time (s): 79.05\nTotal epochs: 978 ; Model picked from epoch 948\nAverage time per epoch: 0.08\n\n--Testing--\nTest loss: 3.13486\nTest acc: 0.505  \nTest F1: 0.505 \nTest precision: 0.505\nTest recall: 0.505\n'
Running: python3 main.py -m MLP -ef wav -ntt 30 -bs 4 -hc 16 -lr 0.0045 -dr 0 -st -wtr -esp 30 -trd test_1
b'Train/Val dataset: DEAPDataset(320) | Test dataset: DEAPDataset(960)\nDevice: cuda\nNumber of classes: 32\nMLP(\n  (lin1): Linear(in_features=7552, out_features=16, bias=True)\n  (lin2): Linear(in_features=16, out_features=8, bias=True)\n  (lin3): Linear(in_features=8, out_features=4, bias=True)\n  (lin4): Linear(in_features=4, out_features=32, bias=True)\n  (act): Softmax(dim=-1)\n)\nModel parameter count: 121180\nTrain dataset: DEAPDataset(160) | Validation dataset: DEAPDataset(160)\nTraining...\n--Finished training--\nTraining time (s): 11.96\nTotal epochs: 50 ; Model picked from epoch 20\nAverage time per epoch: 0.24\n\n--Testing--\nTest loss: 3.24505\nTest acc: 0.280  \nTest F1: 0.280 \nTest precision: 0.280\nTest recall: 0.280\n'
Running: python3 main.py -m MLP -ef wav -ntt 30 -bs 16 -hc 16 -lr 0.0045 -dr 0 -st -wtr -esp 30 -trd test_1
b'Train/Val dataset: DEAPDataset(320) | Test dataset: DEAPDataset(960)\nDevice: cuda\nNumber of classes: 32\nMLP(\n  (lin1): Linear(in_features=7552, out_features=16, bias=True)\n  (lin2): Linear(in_features=16, out_features=8, bias=True)\n  (lin3): Linear(in_features=8, out_features=4, bias=True)\n  (lin4): Linear(in_features=4, out_features=32, bias=True)\n  (act): Softmax(dim=-1)\n)\nModel parameter count: 121180\nTrain dataset: DEAPDataset(160) | Validation dataset: DEAPDataset(160)\nTraining...\n--Finished training--\nTraining time (s): 21.46\nTotal epochs: 271 ; Model picked from epoch 241\nAverage time per epoch: 0.08\n\n--Testing--\nTest loss: 2.84768\nTest acc: 0.671  \nTest F1: 0.671 \nTest precision: 0.671\nTest recall: 0.671\n'
Running: python3 main.py -m MLP -ef wav -ntt 30 -bs 4 -hc 16 -lr 0.0045 -dr 0.4 -st -wtr -esp 30 -trd test_1
b'Train/Val dataset: DEAPDataset(320) | Test dataset: DEAPDataset(960)\nDevice: cuda\nNumber of classes: 32\nMLP(\n  (lin1): Linear(in_features=7552, out_features=16, bias=True)\n  (lin2): Linear(in_features=16, out_features=8, bias=True)\n  (lin3): Linear(in_features=8, out_features=4, bias=True)\n  (lin4): Linear(in_features=4, out_features=32, bias=True)\n  (act): Softmax(dim=-1)\n)\nModel parameter count: 121180\nTrain dataset: DEAPDataset(160) | Validation dataset: DEAPDataset(160)\nTraining...\n--Finished training--\nTraining time (s): 16.96\nTotal epochs: 71 ; Model picked from epoch 41\nAverage time per epoch: 0.24\n\n--Testing--\nTest loss: 3.34684\nTest acc: 0.169  \nTest F1: 0.169 \nTest precision: 0.169\nTest recall: 0.169\n'
Running: python3 main.py -m MLP -ef wav -ntt 30 -bs 16 -hc 16 -lr 0.0045 -dr 0.4 -st -wtr -esp 30 -trd test_1
b'Train/Val dataset: DEAPDataset(320) | Test dataset: DEAPDataset(960)\nDevice: cuda\nNumber of classes: 32\nMLP(\n  (lin1): Linear(in_features=7552, out_features=16, bias=True)\n  (lin2): Linear(in_features=16, out_features=8, bias=True)\n  (lin3): Linear(in_features=8, out_features=4, bias=True)\n  (lin4): Linear(in_features=4, out_features=32, bias=True)\n  (act): Softmax(dim=-1)\n)\nModel parameter count: 121180\nTrain dataset: DEAPDataset(160) | Validation dataset: DEAPDataset(160)\nTraining...\n--Finished training--\nTraining time (s): 4.79\nTotal epochs: 60 ; Model picked from epoch 30\nAverage time per epoch: 0.08\n\n--Testing--\nTest loss: 3.30298\nTest acc: 0.270  \nTest F1: 0.270 \nTest precision: 0.270\nTest recall: 0.270\n'
Running: python3 main.py -m MLP -ef wav -ntt 30 -bs 4 -hc 16 -lr 0.009 -dr 0 -st -wtr -esp 30 -trd test_1
b'Train/Val dataset: DEAPDataset(320) | Test dataset: DEAPDataset(960)\nDevice: cuda\nNumber of classes: 32\nMLP(\n  (lin1): Linear(in_features=7552, out_features=16, bias=True)\n  (lin2): Linear(in_features=16, out_features=8, bias=True)\n  (lin3): Linear(in_features=8, out_features=4, bias=True)\n  (lin4): Linear(in_features=4, out_features=32, bias=True)\n  (act): Softmax(dim=-1)\n)\nModel parameter count: 121180\nTrain dataset: DEAPDataset(160) | Validation dataset: DEAPDataset(160)\nTraining...\n--Finished training--\nTraining time (s): 12.76\nTotal epochs: 56 ; Model picked from epoch 26\nAverage time per epoch: 0.23\n\n--Testing--\nTest loss: 3.29614\nTest acc: 0.217  \nTest F1: 0.217 \nTest precision: 0.217\nTest recall: 0.217\n'
Running: python3 main.py -m MLP -ef wav -ntt 30 -bs 16 -hc 16 -lr 0.009 -dr 0 -st -wtr -esp 30 -trd test_1
b'Train/Val dataset: DEAPDataset(320) | Test dataset: DEAPDataset(960)\nDevice: cuda\nNumber of classes: 32\nMLP(\n  (lin1): Linear(in_features=7552, out_features=16, bias=True)\n  (lin2): Linear(in_features=16, out_features=8, bias=True)\n  (lin3): Linear(in_features=8, out_features=4, bias=True)\n  (lin4): Linear(in_features=4, out_features=32, bias=True)\n  (act): Softmax(dim=-1)\n)\nModel parameter count: 121180\nTrain dataset: DEAPDataset(160) | Validation dataset: DEAPDataset(160)\nTraining...\n--Finished training--\nTraining time (s): 5.34\nTotal epochs: 64 ; Model picked from epoch 34\nAverage time per epoch: 0.08\n\n--Testing--\nTest loss: 3.14054\nTest acc: 0.367  \nTest F1: 0.367 \nTest precision: 0.367\nTest recall: 0.367\n'
Running: python3 main.py -m MLP -ef wav -ntt 30 -bs 4 -hc 16 -lr 0.009 -dr 0.4 -st -wtr -esp 30 -trd test_1
b'Train/Val dataset: DEAPDataset(320) | Test dataset: DEAPDataset(960)\nDevice: cuda\nNumber of classes: 32\nMLP(\n  (lin1): Linear(in_features=7552, out_features=16, bias=True)\n  (lin2): Linear(in_features=16, out_features=8, bias=True)\n  (lin3): Linear(in_features=8, out_features=4, bias=True)\n  (lin4): Linear(in_features=4, out_features=32, bias=True)\n  (act): Softmax(dim=-1)\n)\nModel parameter count: 121180\nTrain dataset: DEAPDataset(160) | Validation dataset: DEAPDataset(160)\nTraining...\n--Finished training--\nTraining time (s): 15.02\nTotal epochs: 60 ; Model picked from epoch 30\nAverage time per epoch: 0.25\n\n--Testing--\nTest loss: 3.40873\nTest acc: 0.093  \nTest F1: 0.093 \nTest precision: 0.093\nTest recall: 0.093\n'
Running: python3 main.py -m MLP -ef wav -ntt 30 -bs 16 -hc 16 -lr 0.009 -dr 0.4 -st -wtr -esp 30 -trd test_1
b'Train/Val dataset: DEAPDataset(320) | Test dataset: DEAPDataset(960)\nDevice: cuda\nNumber of classes: 32\nMLP(\n  (lin1): Linear(in_features=7552, out_features=16, bias=True)\n  (lin2): Linear(in_features=16, out_features=8, bias=True)\n  (lin3): Linear(in_features=8, out_features=4, bias=True)\n  (lin4): Linear(in_features=4, out_features=32, bias=True)\n  (act): Softmax(dim=-1)\n)\nModel parameter count: 121180\nTrain dataset: DEAPDataset(160) | Validation dataset: DEAPDataset(160)\nTraining...\n--Finished training--\nTraining time (s): 8.20\nTotal epochs: 98 ; Model picked from epoch 68\nAverage time per epoch: 0.08\n\n--Testing--\nTest loss: 3.31464\nTest acc: 0.208  \nTest F1: 0.208 \nTest precision: 0.208\nTest recall: 0.208\n'
Running: python3 main.py -m MLP -ef wav -ntt 30 -bs 4 -hc 64 -lr 0.0001 -dr 0 -st -wtr -esp 30 -trd test_1
b'Train/Val dataset: DEAPDataset(320) | Test dataset: DEAPDataset(960)\nDevice: cuda\nNumber of classes: 32\nMLP(\n  (lin1): Linear(in_features=7552, out_features=64, bias=True)\n  (lin2): Linear(in_features=64, out_features=32, bias=True)\n  (lin3): Linear(in_features=32, out_features=16, bias=True)\n  (lin4): Linear(in_features=16, out_features=32, bias=True)\n  (act): Softmax(dim=-1)\n)\nModel parameter count: 486544\nTrain dataset: DEAPDataset(160) | Validation dataset: DEAPDataset(160)\nTraining...\n--Finished training--\nTraining time (s): 66.97\nTotal epochs: 269 ; Model picked from epoch 239\nAverage time per epoch: 0.25\n\n--Testing--\nTest loss: 2.61775\nTest acc: 0.900  \nTest F1: 0.900 \nTest precision: 0.900\nTest recall: 0.900\n'
Running: python3 main.py -m MLP -ef wav -ntt 30 -bs 16 -hc 64 -lr 0.0001 -dr 0 -st -wtr -esp 30 -trd test_1
b'Train/Val dataset: DEAPDataset(320) | Test dataset: DEAPDataset(960)\nDevice: cuda\nNumber of classes: 32\nMLP(\n  (lin1): Linear(in_features=7552, out_features=64, bias=True)\n  (lin2): Linear(in_features=64, out_features=32, bias=True)\n  (lin3): Linear(in_features=32, out_features=16, bias=True)\n  (lin4): Linear(in_features=16, out_features=32, bias=True)\n  (act): Softmax(dim=-1)\n)\nModel parameter count: 486544\nTrain dataset: DEAPDataset(160) | Validation dataset: DEAPDataset(160)\nTraining...\n--Finished training--\nTraining time (s): 45.55\nTotal epochs: 560 ; Model picked from epoch 530\nAverage time per epoch: 0.08\n\n--Testing--\nTest loss: 2.55974\nTest acc: 0.961  \nTest F1: 0.961 \nTest precision: 0.961\nTest recall: 0.961\n'
Running: python3 main.py -m MLP -ef wav -ntt 30 -bs 4 -hc 64 -lr 0.0001 -dr 0.4 -st -wtr -esp 30 -trd test_1
b'Train/Val dataset: DEAPDataset(320) | Test dataset: DEAPDataset(960)\nDevice: cuda\nNumber of classes: 32\nMLP(\n  (lin1): Linear(in_features=7552, out_features=64, bias=True)\n  (lin2): Linear(in_features=64, out_features=32, bias=True)\n  (lin3): Linear(in_features=32, out_features=16, bias=True)\n  (lin4): Linear(in_features=16, out_features=32, bias=True)\n  (act): Softmax(dim=-1)\n)\nModel parameter count: 486544\nTrain dataset: DEAPDataset(160) | Validation dataset: DEAPDataset(160)\nTraining...\n--Finished training--\nTraining time (s): 69.89\nTotal epochs: 279 ; Model picked from epoch 249\nAverage time per epoch: 0.25\n\n--Testing--\nTest loss: 2.58518\nTest acc: 0.933  \nTest F1: 0.933 \nTest precision: 0.933\nTest recall: 0.933\n'
Running: python3 main.py -m MLP -ef wav -ntt 30 -bs 16 -hc 64 -lr 0.0001 -dr 0.4 -st -wtr -esp 30 -trd test_1
b'Train/Val dataset: DEAPDataset(320) | Test dataset: DEAPDataset(960)\nDevice: cuda\nNumber of classes: 32\nMLP(\n  (lin1): Linear(in_features=7552, out_features=64, bias=True)\n  (lin2): Linear(in_features=64, out_features=32, bias=True)\n  (lin3): Linear(in_features=32, out_features=16, bias=True)\n  (lin4): Linear(in_features=16, out_features=32, bias=True)\n  (act): Softmax(dim=-1)\n)\nModel parameter count: 486544\nTrain dataset: DEAPDataset(160) | Validation dataset: DEAPDataset(160)\nTraining...\n--Finished training--\nTraining time (s): 51.23\nTotal epochs: 603 ; Model picked from epoch 573\nAverage time per epoch: 0.08\n\n--Testing--\nTest loss: 2.55493\nTest acc: 0.965  \nTest F1: 0.965 \nTest precision: 0.965\nTest recall: 0.965\n'
Running: python3 main.py -m MLP -ef wav -ntt 30 -bs 4 -hc 64 -lr 0.0045 -dr 0 -st -wtr -esp 30 -trd test_1
b'Train/Val dataset: DEAPDataset(320) | Test dataset: DEAPDataset(960)\nDevice: cuda\nNumber of classes: 32\nMLP(\n  (lin1): Linear(in_features=7552, out_features=64, bias=True)\n  (lin2): Linear(in_features=64, out_features=32, bias=True)\n  (lin3): Linear(in_features=32, out_features=16, bias=True)\n  (lin4): Linear(in_features=16, out_features=32, bias=True)\n  (act): Softmax(dim=-1)\n)\nModel parameter count: 486544\nTrain dataset: DEAPDataset(160) | Validation dataset: DEAPDataset(160)\nTraining...\n--Finished training--\nTraining time (s): 10.03\nTotal epochs: 39 ; Model picked from epoch 9\nAverage time per epoch: 0.26\n\n--Testing--\nTest loss: 3.22498\nTest acc: 0.292  \nTest F1: 0.292 \nTest precision: 0.292\nTest recall: 0.292\n'
Running: python3 main.py -m MLP -ef wav -ntt 30 -bs 16 -hc 64 -lr 0.0045 -dr 0 -st -wtr -esp 30 -trd test_1
b'Train/Val dataset: DEAPDataset(320) | Test dataset: DEAPDataset(960)\nDevice: cuda\nNumber of classes: 32\nMLP(\n  (lin1): Linear(in_features=7552, out_features=64, bias=True)\n  (lin2): Linear(in_features=64, out_features=32, bias=True)\n  (lin3): Linear(in_features=32, out_features=16, bias=True)\n  (lin4): Linear(in_features=16, out_features=32, bias=True)\n  (act): Softmax(dim=-1)\n)\nModel parameter count: 486544\nTrain dataset: DEAPDataset(160) | Validation dataset: DEAPDataset(160)\nTraining...\n--Finished training--\nTraining time (s): 3.87\nTotal epochs: 56 ; Model picked from epoch 26\nAverage time per epoch: 0.07\n\n--Testing--\nTest loss: 2.75972\nTest acc: 0.759  \nTest F1: 0.759 \nTest precision: 0.759\nTest recall: 0.759\n'
Running: python3 main.py -m MLP -ef wav -ntt 30 -bs 4 -hc 64 -lr 0.0045 -dr 0.4 -st -wtr -esp 30 -trd test_1
b'Train/Val dataset: DEAPDataset(320) | Test dataset: DEAPDataset(960)\nDevice: cuda\nNumber of classes: 32\nMLP(\n  (lin1): Linear(in_features=7552, out_features=64, bias=True)\n  (lin2): Linear(in_features=64, out_features=32, bias=True)\n  (lin3): Linear(in_features=32, out_features=16, bias=True)\n  (lin4): Linear(in_features=16, out_features=32, bias=True)\n  (act): Softmax(dim=-1)\n)\nModel parameter count: 486544\nTrain dataset: DEAPDataset(160) | Validation dataset: DEAPDataset(160)\nTraining...\n--Finished training--\nTraining time (s): 10.51\nTotal epochs: 37 ; Model picked from epoch 7\nAverage time per epoch: 0.28\n\n--Testing--\nTest loss: 3.27217\nTest acc: 0.223  \nTest F1: 0.223 \nTest precision: 0.223\nTest recall: 0.223\n'
Running: python3 main.py -m MLP -ef wav -ntt 30 -bs 16 -hc 64 -lr 0.0045 -dr 0.4 -st -wtr -esp 30 -trd test_1
b'Train/Val dataset: DEAPDataset(320) | Test dataset: DEAPDataset(960)\nDevice: cuda\nNumber of classes: 32\nMLP(\n  (lin1): Linear(in_features=7552, out_features=64, bias=True)\n  (lin2): Linear(in_features=64, out_features=32, bias=True)\n  (lin3): Linear(in_features=32, out_features=16, bias=True)\n  (lin4): Linear(in_features=16, out_features=32, bias=True)\n  (act): Softmax(dim=-1)\n)\nModel parameter count: 486544\nTrain dataset: DEAPDataset(160) | Validation dataset: DEAPDataset(160)\nTraining...\n--Finished training--\nTraining time (s): 6.55\nTotal epochs: 73 ; Model picked from epoch 43\nAverage time per epoch: 0.09\n\n--Testing--\nTest loss: 2.98419\nTest acc: 0.531  \nTest F1: 0.531 \nTest precision: 0.531\nTest recall: 0.531\n'
Running: python3 main.py -m MLP -ef wav -ntt 30 -bs 4 -hc 64 -lr 0.009 -dr 0 -st -wtr -esp 30 -trd test_1
b'Train/Val dataset: DEAPDataset(320) | Test dataset: DEAPDataset(960)\nDevice: cuda\nNumber of classes: 32\nMLP(\n  (lin1): Linear(in_features=7552, out_features=64, bias=True)\n  (lin2): Linear(in_features=64, out_features=32, bias=True)\n  (lin3): Linear(in_features=32, out_features=16, bias=True)\n  (lin4): Linear(in_features=16, out_features=32, bias=True)\n  (act): Softmax(dim=-1)\n)\nModel parameter count: 486544\nTrain dataset: DEAPDataset(160) | Validation dataset: DEAPDataset(160)\nTraining...\n--Finished training--\nTraining time (s): 9.08\nTotal epochs: 33 ; Model picked from epoch 3\nAverage time per epoch: 0.28\n\n--Testing--\nTest loss: 3.42251\nTest acc: 0.095  \nTest F1: 0.095 \nTest precision: 0.095\nTest recall: 0.095\n'
Running: python3 main.py -m MLP -ef wav -ntt 30 -bs 16 -hc 64 -lr 0.009 -dr 0 -st -wtr -esp 30 -trd test_1
b'Train/Val dataset: DEAPDataset(320) | Test dataset: DEAPDataset(960)\nDevice: cuda\nNumber of classes: 32\nMLP(\n  (lin1): Linear(in_features=7552, out_features=64, bias=True)\n  (lin2): Linear(in_features=64, out_features=32, bias=True)\n  (lin3): Linear(in_features=32, out_features=16, bias=True)\n  (lin4): Linear(in_features=16, out_features=32, bias=True)\n  (act): Softmax(dim=-1)\n)\nModel parameter count: 486544\nTrain dataset: DEAPDataset(160) | Validation dataset: DEAPDataset(160)\nTraining...\n--Finished training--\nTraining time (s): 3.30\nTotal epochs: 37 ; Model picked from epoch 7\nAverage time per epoch: 0.09\n\n--Testing--\nTest loss: 3.07823\nTest acc: 0.438  \nTest F1: 0.438 \nTest precision: 0.438\nTest recall: 0.438\n'
Running: python3 main.py -m MLP -ef wav -ntt 30 -bs 4 -hc 64 -lr 0.009 -dr 0.4 -st -wtr -esp 30 -trd test_1
b'Train/Val dataset: DEAPDataset(320) | Test dataset: DEAPDataset(960)\nDevice: cuda\nNumber of classes: 32\nMLP(\n  (lin1): Linear(in_features=7552, out_features=64, bias=True)\n  (lin2): Linear(in_features=64, out_features=32, bias=True)\n  (lin3): Linear(in_features=32, out_features=16, bias=True)\n  (lin4): Linear(in_features=16, out_features=32, bias=True)\n  (act): Softmax(dim=-1)\n)\nModel parameter count: 486544\nTrain dataset: DEAPDataset(160) | Validation dataset: DEAPDataset(160)\nTraining...\n--Finished training--\nTraining time (s): 8.58\nTotal epochs: 32 ; Model picked from epoch 2\nAverage time per epoch: 0.27\n\n--Testing--\nTest loss: 3.38713\nTest acc: 0.141  \nTest F1: 0.141 \nTest precision: 0.141\nTest recall: 0.141\n'
Running: python3 main.py -m MLP -ef wav -ntt 30 -bs 16 -hc 64 -lr 0.009 -dr 0.4 -st -wtr -esp 30 -trd test_1
b'Train/Val dataset: DEAPDataset(320) | Test dataset: DEAPDataset(960)\nDevice: cuda\nNumber of classes: 32\nMLP(\n  (lin1): Linear(in_features=7552, out_features=64, bias=True)\n  (lin2): Linear(in_features=64, out_features=32, bias=True)\n  (lin3): Linear(in_features=32, out_features=16, bias=True)\n  (lin4): Linear(in_features=16, out_features=32, bias=True)\n  (act): Softmax(dim=-1)\n)\nModel parameter count: 486544\nTrain dataset: DEAPDataset(160) | Validation dataset: DEAPDataset(160)\nTraining...\n--Finished training--\nTraining time (s): 4.25\nTotal epochs: 49 ; Model picked from epoch 19\nAverage time per epoch: 0.09\n\n--Testing--\nTest loss: 3.24250\nTest acc: 0.275  \nTest F1: 0.275 \nTest precision: 0.275\nTest recall: 0.275\n'
Running: python3 main.py -m MLP -ef wav -ntt 30 -bs 4 -hc 128 -lr 0.0001 -dr 0 -st -wtr -esp 30 -trd test_1
b'Train/Val dataset: DEAPDataset(320) | Test dataset: DEAPDataset(960)\nDevice: cuda\nNumber of classes: 32\nMLP(\n  (lin1): Linear(in_features=7552, out_features=128, bias=True)\n  (lin2): Linear(in_features=128, out_features=64, bias=True)\n  (lin3): Linear(in_features=64, out_features=32, bias=True)\n  (lin4): Linear(in_features=32, out_features=32, bias=True)\n  (act): Softmax(dim=-1)\n)\nModel parameter count: 978176\nTrain dataset: DEAPDataset(160) | Validation dataset: DEAPDataset(160)\nTraining...\n--Finished training--\nTraining time (s): 35.96\nTotal epochs: 133 ; Model picked from epoch 103\nAverage time per epoch: 0.27\n\n--Testing--\nTest loss: 2.55316\nTest acc: 0.965  \nTest F1: 0.965 \nTest precision: 0.965\nTest recall: 0.965\n'
Running: python3 main.py -m MLP -ef wav -ntt 30 -bs 16 -hc 128 -lr 0.0001 -dr 0 -st -wtr -esp 30 -trd test_1
b'Train/Val dataset: DEAPDataset(320) | Test dataset: DEAPDataset(960)\nDevice: cuda\nNumber of classes: 32\nMLP(\n  (lin1): Linear(in_features=7552, out_features=128, bias=True)\n  (lin2): Linear(in_features=128, out_features=64, bias=True)\n  (lin3): Linear(in_features=64, out_features=32, bias=True)\n  (lin4): Linear(in_features=32, out_features=32, bias=True)\n  (act): Softmax(dim=-1)\n)\nModel parameter count: 978176\nTrain dataset: DEAPDataset(160) | Validation dataset: DEAPDataset(160)\nTraining...\n--Finished training--\nTraining time (s): 38.28\nTotal epochs: 440 ; Model picked from epoch 410\nAverage time per epoch: 0.09\n\n--Testing--\nTest loss: 2.58248\nTest acc: 0.935  \nTest F1: 0.935 \nTest precision: 0.935\nTest recall: 0.935\n'
Running: python3 main.py -m MLP -ef wav -ntt 30 -bs 4 -hc 128 -lr 0.0001 -dr 0.4 -st -wtr -esp 30 -trd test_1
b'Train/Val dataset: DEAPDataset(320) | Test dataset: DEAPDataset(960)\nDevice: cuda\nNumber of classes: 32\nMLP(\n  (lin1): Linear(in_features=7552, out_features=128, bias=True)\n  (lin2): Linear(in_features=128, out_features=64, bias=True)\n  (lin3): Linear(in_features=64, out_features=32, bias=True)\n  (lin4): Linear(in_features=32, out_features=32, bias=True)\n  (act): Softmax(dim=-1)\n)\nModel parameter count: 978176\nTrain dataset: DEAPDataset(160) | Validation dataset: DEAPDataset(160)\nTraining...\n--Finished training--\nTraining time (s): 41.92\nTotal epochs: 154 ; Model picked from epoch 124\nAverage time per epoch: 0.27\n\n--Testing--\nTest loss: 2.58266\nTest acc: 0.934  \nTest F1: 0.934 \nTest precision: 0.934\nTest recall: 0.934\n'
Running: python3 main.py -m MLP -ef wav -ntt 30 -bs 16 -hc 128 -lr 0.0001 -dr 0.4 -st -wtr -esp 30 -trd test_1
b'Train/Val dataset: DEAPDataset(320) | Test dataset: DEAPDataset(960)\nDevice: cuda\nNumber of classes: 32\nMLP(\n  (lin1): Linear(in_features=7552, out_features=128, bias=True)\n  (lin2): Linear(in_features=128, out_features=64, bias=True)\n  (lin3): Linear(in_features=64, out_features=32, bias=True)\n  (lin4): Linear(in_features=32, out_features=32, bias=True)\n  (act): Softmax(dim=-1)\n)\nModel parameter count: 978176\nTrain dataset: DEAPDataset(160) | Validation dataset: DEAPDataset(160)\nTraining...\n--Finished training--\nTraining time (s): 19.71\nTotal epochs: 215 ; Model picked from epoch 185\nAverage time per epoch: 0.09\n\n--Testing--\nTest loss: 2.52084\nTest acc: 0.998  \nTest F1: 0.998 \nTest precision: 0.998\nTest recall: 0.998\n'
Running: python3 main.py -m MLP -ef wav -ntt 30 -bs 4 -hc 128 -lr 0.0045 -dr 0 -st -wtr -esp 30 -trd test_1
b'Train/Val dataset: DEAPDataset(320) | Test dataset: DEAPDataset(960)\nDevice: cuda\nNumber of classes: 32\nMLP(\n  (lin1): Linear(in_features=7552, out_features=128, bias=True)\n  (lin2): Linear(in_features=128, out_features=64, bias=True)\n  (lin3): Linear(in_features=64, out_features=32, bias=True)\n  (lin4): Linear(in_features=32, out_features=32, bias=True)\n  (act): Softmax(dim=-1)\n)\nModel parameter count: 978176\nTrain dataset: DEAPDataset(160) | Validation dataset: DEAPDataset(160)\nTraining...\n--Finished training--\nTraining time (s): 9.11\nTotal epochs: 33 ; Model picked from epoch 3\nAverage time per epoch: 0.28\n\n--Testing--\nTest loss: 3.21226\nTest acc: 0.311  \nTest F1: 0.311 \nTest precision: 0.311\nTest recall: 0.311\n'
Running: python3 main.py -m MLP -ef wav -ntt 30 -bs 16 -hc 128 -lr 0.0045 -dr 0 -st -wtr -esp 30 -trd test_1
b'Train/Val dataset: DEAPDataset(320) | Test dataset: DEAPDataset(960)\nDevice: cuda\nNumber of classes: 32\nMLP(\n  (lin1): Linear(in_features=7552, out_features=128, bias=True)\n  (lin2): Linear(in_features=128, out_features=64, bias=True)\n  (lin3): Linear(in_features=64, out_features=32, bias=True)\n  (lin4): Linear(in_features=32, out_features=32, bias=True)\n  (act): Softmax(dim=-1)\n)\nModel parameter count: 978176\nTrain dataset: DEAPDataset(160) | Validation dataset: DEAPDataset(160)\nTraining...\n--Finished training--\nTraining time (s): 3.25\nTotal epochs: 37 ; Model picked from epoch 7\nAverage time per epoch: 0.09\n\n--Testing--\nTest loss: 2.72659\nTest acc: 0.789  \nTest F1: 0.789 \nTest precision: 0.789\nTest recall: 0.789\n'
Running: python3 main.py -m MLP -ef wav -ntt 30 -bs 4 -hc 128 -lr 0.0045 -dr 0.4 -st -wtr -esp 30 -trd test_1
b'Train/Val dataset: DEAPDataset(320) | Test dataset: DEAPDataset(960)\nDevice: cuda\nNumber of classes: 32\nMLP(\n  (lin1): Linear(in_features=7552, out_features=128, bias=True)\n  (lin2): Linear(in_features=128, out_features=64, bias=True)\n  (lin3): Linear(in_features=64, out_features=32, bias=True)\n  (lin4): Linear(in_features=32, out_features=32, bias=True)\n  (act): Softmax(dim=-1)\n)\nModel parameter count: 978176\nTrain dataset: DEAPDataset(160) | Validation dataset: DEAPDataset(160)\nTraining...\n--Finished training--\nTraining time (s): 10.58\nTotal epochs: 38 ; Model picked from epoch 8\nAverage time per epoch: 0.28\n\n--Testing--\nTest loss: 3.30348\nTest acc: 0.209  \nTest F1: 0.209 \nTest precision: 0.209\nTest recall: 0.209\n'
Running: python3 main.py -m MLP -ef wav -ntt 30 -bs 16 -hc 128 -lr 0.0045 -dr 0.4 -st -wtr -esp 30 -trd test_1
b'Train/Val dataset: DEAPDataset(320) | Test dataset: DEAPDataset(960)\nDevice: cuda\nNumber of classes: 32\nMLP(\n  (lin1): Linear(in_features=7552, out_features=128, bias=True)\n  (lin2): Linear(in_features=128, out_features=64, bias=True)\n  (lin3): Linear(in_features=64, out_features=32, bias=True)\n  (lin4): Linear(in_features=32, out_features=32, bias=True)\n  (act): Softmax(dim=-1)\n)\nModel parameter count: 978176\nTrain dataset: DEAPDataset(160) | Validation dataset: DEAPDataset(160)\nTraining...\n--Finished training--\nTraining time (s): 3.54\nTotal epochs: 40 ; Model picked from epoch 10\nAverage time per epoch: 0.09\n\n--Testing--\nTest loss: 2.98955\nTest acc: 0.527  \nTest F1: 0.527 \nTest precision: 0.527\nTest recall: 0.527\n'
Running: python3 main.py -m MLP -ef wav -ntt 30 -bs 4 -hc 128 -lr 0.009 -dr 0 -st -wtr -esp 30 -trd test_1
b'Train/Val dataset: DEAPDataset(320) | Test dataset: DEAPDataset(960)\nDevice: cuda\nNumber of classes: 32\nMLP(\n  (lin1): Linear(in_features=7552, out_features=128, bias=True)\n  (lin2): Linear(in_features=128, out_features=64, bias=True)\n  (lin3): Linear(in_features=64, out_features=32, bias=True)\n  (lin4): Linear(in_features=32, out_features=32, bias=True)\n  (act): Softmax(dim=-1)\n)\nModel parameter count: 978176\nTrain dataset: DEAPDataset(160) | Validation dataset: DEAPDataset(160)\nTraining...\n--Finished training--\nTraining time (s): 8.56\nTotal epochs: 31 ; Model picked from epoch 1\nAverage time per epoch: 0.28\n\n--Testing--\nTest loss: 3.48418\nTest acc: 0.031  \nTest F1: 0.031 \nTest precision: 0.031\nTest recall: 0.031\n'
Running: python3 main.py -m MLP -ef wav -ntt 30 -bs 16 -hc 128 -lr 0.009 -dr 0 -st -wtr -esp 30 -trd test_1
b'Train/Val dataset: DEAPDataset(320) | Test dataset: DEAPDataset(960)\nDevice: cuda\nNumber of classes: 32\nMLP(\n  (lin1): Linear(in_features=7552, out_features=128, bias=True)\n  (lin2): Linear(in_features=128, out_features=64, bias=True)\n  (lin3): Linear(in_features=64, out_features=32, bias=True)\n  (lin4): Linear(in_features=32, out_features=32, bias=True)\n  (act): Softmax(dim=-1)\n)\nModel parameter count: 978176\nTrain dataset: DEAPDataset(160) | Validation dataset: DEAPDataset(160)\nTraining...\n--Finished training--\nTraining time (s): 2.78\nTotal epochs: 31 ; Model picked from epoch 1\nAverage time per epoch: 0.09\n\n--Testing--\nTest loss: 3.33034\nTest acc: 0.182  \nTest F1: 0.182 \nTest precision: 0.182\nTest recall: 0.182\n'
Running: python3 main.py -m MLP -ef wav -ntt 30 -bs 4 -hc 128 -lr 0.009 -dr 0.4 -st -wtr -esp 30 -trd test_1
b'Train/Val dataset: DEAPDataset(320) | Test dataset: DEAPDataset(960)\nDevice: cuda\nNumber of classes: 32\nMLP(\n  (lin1): Linear(in_features=7552, out_features=128, bias=True)\n  (lin2): Linear(in_features=128, out_features=64, bias=True)\n  (lin3): Linear(in_features=64, out_features=32, bias=True)\n  (lin4): Linear(in_features=32, out_features=32, bias=True)\n  (act): Softmax(dim=-1)\n)\nModel parameter count: 978176\nTrain dataset: DEAPDataset(160) | Validation dataset: DEAPDataset(160)\nTraining...\n--Finished training--\nTraining time (s): 8.88\nTotal epochs: 32 ; Model picked from epoch 2\nAverage time per epoch: 0.28\n\n--Testing--\nTest loss: 3.42139\nTest acc: 0.094  \nTest F1: 0.094 \nTest precision: 0.094\nTest recall: 0.094\n'
Running: python3 main.py -m MLP -ef wav -ntt 30 -bs 16 -hc 128 -lr 0.009 -dr 0.4 -st -wtr -esp 30 -trd test_1
b'Train/Val dataset: DEAPDataset(320) | Test dataset: DEAPDataset(960)\nDevice: cuda\nNumber of classes: 32\nMLP(\n  (lin1): Linear(in_features=7552, out_features=128, bias=True)\n  (lin2): Linear(in_features=128, out_features=64, bias=True)\n  (lin3): Linear(in_features=64, out_features=32, bias=True)\n  (lin4): Linear(in_features=32, out_features=32, bias=True)\n  (act): Softmax(dim=-1)\n)\nModel parameter count: 978176\nTrain dataset: DEAPDataset(160) | Validation dataset: DEAPDataset(160)\nTraining...\n--Finished training--\nTraining time (s): 2.81\nTotal epochs: 32 ; Model picked from epoch 2\nAverage time per epoch: 0.09\n\n--Testing--\nTest loss: 3.38070\nTest acc: 0.136  \nTest F1: 0.136 \nTest precision: 0.136\nTest recall: 0.136\n'
Running: python3 main.py -m MLP -ef wav -ntt 34 -bs 4 -hc 16 -lr 0.0001 -dr 0 -st -wtr -esp 30 -trd test_1
b'Train/Val dataset: DEAPDataset(192) | Test dataset: DEAPDataset(1088)\nDevice: cuda\nNumber of classes: 32\nMLP(\n  (lin1): Linear(in_features=7552, out_features=16, bias=True)\n  (lin2): Linear(in_features=16, out_features=8, bias=True)\n  (lin3): Linear(in_features=8, out_features=4, bias=True)\n  (lin4): Linear(in_features=4, out_features=32, bias=True)\n  (act): Softmax(dim=-1)\n)\nModel parameter count: 121180\nTrain dataset: DEAPDataset(32) | Validation dataset: DEAPDataset(160)\nTraining...\n--Finished training--\nTraining time (s): 105.60\nTotal epochs: 803 ; Model picked from epoch 773\nAverage time per epoch: 0.13\n\n--Testing--\nTest loss: 3.19794\nTest acc: 0.333  \nTest F1: 0.333 \nTest precision: 0.333\nTest recall: 0.333\n'
Running: python3 main.py -m MLP -ef wav -ntt 34 -bs 16 -hc 16 -lr 0.0001 -dr 0 -st -wtr -esp 30 -trd test_1
b'Train/Val dataset: DEAPDataset(192) | Test dataset: DEAPDataset(1088)\nDevice: cuda\nNumber of classes: 32\nMLP(\n  (lin1): Linear(in_features=7552, out_features=16, bias=True)\n  (lin2): Linear(in_features=16, out_features=8, bias=True)\n  (lin3): Linear(in_features=8, out_features=4, bias=True)\n  (lin4): Linear(in_features=4, out_features=32, bias=True)\n  (act): Softmax(dim=-1)\n)\nModel parameter count: 121180\nTrain dataset: DEAPDataset(32) | Validation dataset: DEAPDataset(160)\nTraining...\n--Finished training--\nTraining time (s): 56.62\nTotal epochs: 1199 ; Model picked from epoch 1169\nAverage time per epoch: 0.05\n\n--Testing--\nTest loss: 3.19830\nTest acc: 0.355  \nTest F1: 0.355 \nTest precision: 0.355\nTest recall: 0.355\n'
Running: python3 main.py -m MLP -ef wav -ntt 34 -bs 4 -hc 16 -lr 0.0001 -dr 0.4 -st -wtr -esp 30 -trd test_1
b'Train/Val dataset: DEAPDataset(192) | Test dataset: DEAPDataset(1088)\nDevice: cuda\nNumber of classes: 32\nMLP(\n  (lin1): Linear(in_features=7552, out_features=16, bias=True)\n  (lin2): Linear(in_features=16, out_features=8, bias=True)\n  (lin3): Linear(in_features=8, out_features=4, bias=True)\n  (lin4): Linear(in_features=4, out_features=32, bias=True)\n  (act): Softmax(dim=-1)\n)\nModel parameter count: 121180\nTrain dataset: DEAPDataset(32) | Validation dataset: DEAPDataset(160)\nTraining...\n--Finished training--\nTraining time (s): 58.29\nTotal epochs: 430 ; Model picked from epoch 400\nAverage time per epoch: 0.14\n\n--Testing--\nTest loss: 3.32112\nTest acc: 0.244  \nTest F1: 0.244 \nTest precision: 0.244\nTest recall: 0.244\n'
Running: python3 main.py -m MLP -ef wav -ntt 34 -bs 16 -hc 16 -lr 0.0001 -dr 0.4 -st -wtr -esp 30 -trd test_1
b'Train/Val dataset: DEAPDataset(192) | Test dataset: DEAPDataset(1088)\nDevice: cuda\nNumber of classes: 32\nMLP(\n  (lin1): Linear(in_features=7552, out_features=16, bias=True)\n  (lin2): Linear(in_features=16, out_features=8, bias=True)\n  (lin3): Linear(in_features=8, out_features=4, bias=True)\n  (lin4): Linear(in_features=4, out_features=32, bias=True)\n  (act): Softmax(dim=-1)\n)\nModel parameter count: 121180\nTrain dataset: DEAPDataset(32) | Validation dataset: DEAPDataset(160)\nTraining...\n--Finished training--\nTraining time (s): 25.52\nTotal epochs: 545 ; Model picked from epoch 515\nAverage time per epoch: 0.05\n\n--Testing--\nTest loss: 3.34240\nTest acc: 0.267  \nTest F1: 0.267 \nTest precision: 0.267\nTest recall: 0.267\n'
Running: python3 main.py -m MLP -ef wav -ntt 34 -bs 4 -hc 16 -lr 0.0045 -dr 0 -st -wtr -esp 30 -trd test_1
b'Train/Val dataset: DEAPDataset(192) | Test dataset: DEAPDataset(1088)\nDevice: cuda\nNumber of classes: 32\nMLP(\n  (lin1): Linear(in_features=7552, out_features=16, bias=True)\n  (lin2): Linear(in_features=16, out_features=8, bias=True)\n  (lin3): Linear(in_features=8, out_features=4, bias=True)\n  (lin4): Linear(in_features=4, out_features=32, bias=True)\n  (act): Softmax(dim=-1)\n)\nModel parameter count: 121180\nTrain dataset: DEAPDataset(32) | Validation dataset: DEAPDataset(160)\nTraining...\n--Finished training--\nTraining time (s): 8.88\nTotal epochs: 65 ; Model picked from epoch 35\nAverage time per epoch: 0.14\n\n--Testing--\nTest loss: 3.20301\nTest acc: 0.287  \nTest F1: 0.287 \nTest precision: 0.287\nTest recall: 0.287\n'
Running: python3 main.py -m MLP -ef wav -ntt 34 -bs 16 -hc 16 -lr 0.0045 -dr 0 -st -wtr -esp 30 -trd test_1
b'Train/Val dataset: DEAPDataset(192) | Test dataset: DEAPDataset(1088)\nDevice: cuda\nNumber of classes: 32\nMLP(\n  (lin1): Linear(in_features=7552, out_features=16, bias=True)\n  (lin2): Linear(in_features=16, out_features=8, bias=True)\n  (lin3): Linear(in_features=8, out_features=4, bias=True)\n  (lin4): Linear(in_features=4, out_features=32, bias=True)\n  (act): Softmax(dim=-1)\n)\nModel parameter count: 121180\nTrain dataset: DEAPDataset(32) | Validation dataset: DEAPDataset(160)\nTraining...\n--Finished training--\nTraining time (s): 7.67\nTotal epochs: 153 ; Model picked from epoch 123\nAverage time per epoch: 0.05\n\n--Testing--\nTest loss: 3.00010\nTest acc: 0.562  \nTest F1: 0.562 \nTest precision: 0.562\nTest recall: 0.562\n'
Running: python3 main.py -m MLP -ef wav -ntt 34 -bs 4 -hc 16 -lr 0.0045 -dr 0.4 -st -wtr -esp 30 -trd test_1
b'Train/Val dataset: DEAPDataset(192) | Test dataset: DEAPDataset(1088)\nDevice: cuda\nNumber of classes: 32\nMLP(\n  (lin1): Linear(in_features=7552, out_features=16, bias=True)\n  (lin2): Linear(in_features=16, out_features=8, bias=True)\n  (lin3): Linear(in_features=8, out_features=4, bias=True)\n  (lin4): Linear(in_features=4, out_features=32, bias=True)\n  (act): Softmax(dim=-1)\n)\nModel parameter count: 121180\nTrain dataset: DEAPDataset(32) | Validation dataset: DEAPDataset(160)\nTraining...\n--Finished training--\nTraining time (s): 16.75\nTotal epochs: 121 ; Model picked from epoch 91\nAverage time per epoch: 0.14\n\n--Testing--\nTest loss: 3.27617\nTest acc: 0.256  \nTest F1: 0.256 \nTest precision: 0.256\nTest recall: 0.256\n'
Running: python3 main.py -m MLP -ef wav -ntt 34 -bs 16 -hc 16 -lr 0.0045 -dr 0.4 -st -wtr -esp 30 -trd test_1
b'Train/Val dataset: DEAPDataset(192) | Test dataset: DEAPDataset(1088)\nDevice: cuda\nNumber of classes: 32\nMLP(\n  (lin1): Linear(in_features=7552, out_features=16, bias=True)\n  (lin2): Linear(in_features=16, out_features=8, bias=True)\n  (lin3): Linear(in_features=8, out_features=4, bias=True)\n  (lin4): Linear(in_features=4, out_features=32, bias=True)\n  (act): Softmax(dim=-1)\n)\nModel parameter count: 121180\nTrain dataset: DEAPDataset(32) | Validation dataset: DEAPDataset(160)\nTraining...\n--Finished training--\nTraining time (s): 6.69\nTotal epochs: 135 ; Model picked from epoch 105\nAverage time per epoch: 0.05\n\n--Testing--\nTest loss: 3.26897\nTest acc: 0.283  \nTest F1: 0.283 \nTest precision: 0.283\nTest recall: 0.283\n'
Running: python3 main.py -m MLP -ef wav -ntt 34 -bs 4 -hc 16 -lr 0.009 -dr 0 -st -wtr -esp 30 -trd test_1
b'Train/Val dataset: DEAPDataset(192) | Test dataset: DEAPDataset(1088)\nDevice: cuda\nNumber of classes: 32\nMLP(\n  (lin1): Linear(in_features=7552, out_features=16, bias=True)\n  (lin2): Linear(in_features=16, out_features=8, bias=True)\n  (lin3): Linear(in_features=8, out_features=4, bias=True)\n  (lin4): Linear(in_features=4, out_features=32, bias=True)\n  (act): Softmax(dim=-1)\n)\nModel parameter count: 121180\nTrain dataset: DEAPDataset(32) | Validation dataset: DEAPDataset(160)\nTraining...\n--Finished training--\nTraining time (s): 7.70\nTotal epochs: 56 ; Model picked from epoch 26\nAverage time per epoch: 0.14\n\n--Testing--\nTest loss: 3.27902\nTest acc: 0.256  \nTest F1: 0.256 \nTest precision: 0.256\nTest recall: 0.256\n'
Running: python3 main.py -m MLP -ef wav -ntt 34 -bs 16 -hc 16 -lr 0.009 -dr 0 -st -wtr -esp 30 -trd test_1
b'Train/Val dataset: DEAPDataset(192) | Test dataset: DEAPDataset(1088)\nDevice: cuda\nNumber of classes: 32\nMLP(\n  (lin1): Linear(in_features=7552, out_features=16, bias=True)\n  (lin2): Linear(in_features=16, out_features=8, bias=True)\n  (lin3): Linear(in_features=8, out_features=4, bias=True)\n  (lin4): Linear(in_features=4, out_features=32, bias=True)\n  (act): Softmax(dim=-1)\n)\nModel parameter count: 121180\nTrain dataset: DEAPDataset(32) | Validation dataset: DEAPDataset(160)\nTraining...\n--Finished training--\nTraining time (s): 7.93\nTotal epochs: 171 ; Model picked from epoch 141\nAverage time per epoch: 0.05\n\n--Testing--\nTest loss: 3.16899\nTest acc: 0.350  \nTest F1: 0.350 \nTest precision: 0.350\nTest recall: 0.350\n'
Running: python3 main.py -m MLP -ef wav -ntt 34 -bs 4 -hc 16 -lr 0.009 -dr 0.4 -st -wtr -esp 30 -trd test_1
b'Train/Val dataset: DEAPDataset(192) | Test dataset: DEAPDataset(1088)\nDevice: cuda\nNumber of classes: 32\nMLP(\n  (lin1): Linear(in_features=7552, out_features=16, bias=True)\n  (lin2): Linear(in_features=16, out_features=8, bias=True)\n  (lin3): Linear(in_features=8, out_features=4, bias=True)\n  (lin4): Linear(in_features=4, out_features=32, bias=True)\n  (act): Softmax(dim=-1)\n)\nModel parameter count: 121180\nTrain dataset: DEAPDataset(32) | Validation dataset: DEAPDataset(160)\nTraining...\n--Finished training--\nTraining time (s): 6.69\nTotal epochs: 49 ; Model picked from epoch 19\nAverage time per epoch: 0.14\n\n--Testing--\nTest loss: 3.37652\nTest acc: 0.098  \nTest F1: 0.098 \nTest precision: 0.098\nTest recall: 0.098\n'
Running: python3 main.py -m MLP -ef wav -ntt 34 -bs 16 -hc 16 -lr 0.009 -dr 0.4 -st -wtr -esp 30 -trd test_1
b'Train/Val dataset: DEAPDataset(192) | Test dataset: DEAPDataset(1088)\nDevice: cuda\nNumber of classes: 32\nMLP(\n  (lin1): Linear(in_features=7552, out_features=16, bias=True)\n  (lin2): Linear(in_features=16, out_features=8, bias=True)\n  (lin3): Linear(in_features=8, out_features=4, bias=True)\n  (lin4): Linear(in_features=4, out_features=32, bias=True)\n  (act): Softmax(dim=-1)\n)\nModel parameter count: 121180\nTrain dataset: DEAPDataset(32) | Validation dataset: DEAPDataset(160)\nTraining...\n--Finished training--\nTraining time (s): 3.40\nTotal epochs: 69 ; Model picked from epoch 39\nAverage time per epoch: 0.05\n\n--Testing--\nTest loss: 3.35441\nTest acc: 0.162  \nTest F1: 0.162 \nTest precision: 0.162\nTest recall: 0.162\n'
Running: python3 main.py -m MLP -ef wav -ntt 34 -bs 4 -hc 64 -lr 0.0001 -dr 0 -st -wtr -esp 30 -trd test_1
b'Train/Val dataset: DEAPDataset(192) | Test dataset: DEAPDataset(1088)\nDevice: cuda\nNumber of classes: 32\nMLP(\n  (lin1): Linear(in_features=7552, out_features=64, bias=True)\n  (lin2): Linear(in_features=64, out_features=32, bias=True)\n  (lin3): Linear(in_features=32, out_features=16, bias=True)\n  (lin4): Linear(in_features=16, out_features=32, bias=True)\n  (act): Softmax(dim=-1)\n)\nModel parameter count: 486544\nTrain dataset: DEAPDataset(32) | Validation dataset: DEAPDataset(160)\nTraining...\n--Finished training--\nTraining time (s): 82.81\nTotal epochs: 639 ; Model picked from epoch 609\nAverage time per epoch: 0.13\n\n--Testing--\nTest loss: 2.73626\nTest acc: 0.806  \nTest F1: 0.806 \nTest precision: 0.806\nTest recall: 0.806\n'
Running: python3 main.py -m MLP -ef wav -ntt 34 -bs 16 -hc 64 -lr 0.0001 -dr 0 -st -wtr -esp 30 -trd test_1
b'Train/Val dataset: DEAPDataset(192) | Test dataset: DEAPDataset(1088)\nDevice: cuda\nNumber of classes: 32\nMLP(\n  (lin1): Linear(in_features=7552, out_features=64, bias=True)\n  (lin2): Linear(in_features=64, out_features=32, bias=True)\n  (lin3): Linear(in_features=32, out_features=16, bias=True)\n  (lin4): Linear(in_features=16, out_features=32, bias=True)\n  (act): Softmax(dim=-1)\n)\nModel parameter count: 486544\nTrain dataset: DEAPDataset(32) | Validation dataset: DEAPDataset(160)\nTraining...\n--Finished training--\nTraining time (s): 134.44\nTotal epochs: 2885 ; Model picked from epoch 2855\nAverage time per epoch: 0.05\n\n--Testing--\nTest loss: 2.69236\nTest acc: 0.847  \nTest F1: 0.847 \nTest precision: 0.847\nTest recall: 0.847\n'
Running: python3 main.py -m MLP -ef wav -ntt 34 -bs 4 -hc 64 -lr 0.0001 -dr 0.4 -st -wtr -esp 30 -trd test_1
b'Train/Val dataset: DEAPDataset(192) | Test dataset: DEAPDataset(1088)\nDevice: cuda\nNumber of classes: 32\nMLP(\n  (lin1): Linear(in_features=7552, out_features=64, bias=True)\n  (lin2): Linear(in_features=64, out_features=32, bias=True)\n  (lin3): Linear(in_features=32, out_features=16, bias=True)\n  (lin4): Linear(in_features=16, out_features=32, bias=True)\n  (act): Softmax(dim=-1)\n)\nModel parameter count: 486544\nTrain dataset: DEAPDataset(32) | Validation dataset: DEAPDataset(160)\nTraining...\n--Finished training--\nTraining time (s): 53.80\nTotal epochs: 408 ; Model picked from epoch 378\nAverage time per epoch: 0.13\n\n--Testing--\nTest loss: 2.74627\nTest acc: 0.847  \nTest F1: 0.847 \nTest precision: 0.847\nTest recall: 0.847\n'
Running: python3 main.py -m MLP -ef wav -ntt 34 -bs 16 -hc 64 -lr 0.0001 -dr 0.4 -st -wtr -esp 30 -trd test_1
b'Train/Val dataset: DEAPDataset(192) | Test dataset: DEAPDataset(1088)\nDevice: cuda\nNumber of classes: 32\nMLP(\n  (lin1): Linear(in_features=7552, out_features=64, bias=True)\n  (lin2): Linear(in_features=64, out_features=32, bias=True)\n  (lin3): Linear(in_features=32, out_features=16, bias=True)\n  (lin4): Linear(in_features=16, out_features=32, bias=True)\n  (act): Softmax(dim=-1)\n)\nModel parameter count: 486544\nTrain dataset: DEAPDataset(32) | Validation dataset: DEAPDataset(160)\nTraining...\n--Finished training--\nTraining time (s): 50.91\nTotal epochs: 989 ; Model picked from epoch 959\nAverage time per epoch: 0.05\n\n--Testing--\nTest loss: 2.71605\nTest acc: 0.875  \nTest F1: 0.875 \nTest precision: 0.875\nTest recall: 0.875\n'
Running: python3 main.py -m MLP -ef wav -ntt 34 -bs 4 -hc 64 -lr 0.0045 -dr 0 -st -wtr -esp 30 -trd test_1
b'Train/Val dataset: DEAPDataset(192) | Test dataset: DEAPDataset(1088)\nDevice: cuda\nNumber of classes: 32\nMLP(\n  (lin1): Linear(in_features=7552, out_features=64, bias=True)\n  (lin2): Linear(in_features=64, out_features=32, bias=True)\n  (lin3): Linear(in_features=32, out_features=16, bias=True)\n  (lin4): Linear(in_features=16, out_features=32, bias=True)\n  (act): Softmax(dim=-1)\n)\nModel parameter count: 486544\nTrain dataset: DEAPDataset(32) | Validation dataset: DEAPDataset(160)\nTraining...\n--Finished training--\nTraining time (s): 5.45\nTotal epochs: 40 ; Model picked from epoch 10\nAverage time per epoch: 0.14\n\n--Testing--\nTest loss: 2.97841\nTest acc: 0.550  \nTest F1: 0.550 \nTest precision: 0.550\nTest recall: 0.550\n'
Running: python3 main.py -m MLP -ef wav -ntt 34 -bs 16 -hc 64 -lr 0.0045 -dr 0 -st -wtr -esp 30 -trd test_1
b'Train/Val dataset: DEAPDataset(192) | Test dataset: DEAPDataset(1088)\nDevice: cuda\nNumber of classes: 32\nMLP(\n  (lin1): Linear(in_features=7552, out_features=64, bias=True)\n  (lin2): Linear(in_features=64, out_features=32, bias=True)\n  (lin3): Linear(in_features=32, out_features=16, bias=True)\n  (lin4): Linear(in_features=16, out_features=32, bias=True)\n  (act): Softmax(dim=-1)\n)\nModel parameter count: 486544\nTrain dataset: DEAPDataset(32) | Validation dataset: DEAPDataset(160)\nTraining...\n--Finished training--\nTraining time (s): 3.52\nTotal epochs: 96 ; Model picked from epoch 66\nAverage time per epoch: 0.04\n\n--Testing--\nTest loss: 2.74916\nTest acc: 0.769  \nTest F1: 0.769 \nTest precision: 0.769\nTest recall: 0.769\n'
Running: python3 main.py -m MLP -ef wav -ntt 34 -bs 4 -hc 64 -lr 0.0045 -dr 0.4 -st -wtr -esp 30 -trd test_1
b'Train/Val dataset: DEAPDataset(192) | Test dataset: DEAPDataset(1088)\nDevice: cuda\nNumber of classes: 32\nMLP(\n  (lin1): Linear(in_features=7552, out_features=64, bias=True)\n  (lin2): Linear(in_features=64, out_features=32, bias=True)\n  (lin3): Linear(in_features=32, out_features=16, bias=True)\n  (lin4): Linear(in_features=16, out_features=32, bias=True)\n  (act): Softmax(dim=-1)\n)\nModel parameter count: 486544\nTrain dataset: DEAPDataset(32) | Validation dataset: DEAPDataset(160)\nTraining...\n--Finished training--\nTraining time (s): 10.89\nTotal epochs: 80 ; Model picked from epoch 50\nAverage time per epoch: 0.14\n\n--Testing--\nTest loss: 3.16575\nTest acc: 0.348  \nTest F1: 0.348 \nTest precision: 0.348\nTest recall: 0.348\n'
Running: python3 main.py -m MLP -ef wav -ntt 34 -bs 16 -hc 64 -lr 0.0045 -dr 0.4 -st -wtr -esp 30 -trd test_1
b'Train/Val dataset: DEAPDataset(192) | Test dataset: DEAPDataset(1088)\nDevice: cuda\nNumber of classes: 32\nMLP(\n  (lin1): Linear(in_features=7552, out_features=64, bias=True)\n  (lin2): Linear(in_features=64, out_features=32, bias=True)\n  (lin3): Linear(in_features=32, out_features=16, bias=True)\n  (lin4): Linear(in_features=16, out_features=32, bias=True)\n  (act): Softmax(dim=-1)\n)\nModel parameter count: 486544\nTrain dataset: DEAPDataset(32) | Validation dataset: DEAPDataset(160)\nTraining...\n--Finished training--\nTraining time (s): 6.59\nTotal epochs: 136 ; Model picked from epoch 106\nAverage time per epoch: 0.05\n\n--Testing--\nTest loss: 2.94442\nTest acc: 0.578  \nTest F1: 0.578 \nTest precision: 0.578\nTest recall: 0.578\n'
Running: python3 main.py -m MLP -ef wav -ntt 34 -bs 4 -hc 64 -lr 0.009 -dr 0 -st -wtr -esp 30 -trd test_1
b'Train/Val dataset: DEAPDataset(192) | Test dataset: DEAPDataset(1088)\nDevice: cuda\nNumber of classes: 32\nMLP(\n  (lin1): Linear(in_features=7552, out_features=64, bias=True)\n  (lin2): Linear(in_features=64, out_features=32, bias=True)\n  (lin3): Linear(in_features=32, out_features=16, bias=True)\n  (lin4): Linear(in_features=16, out_features=32, bias=True)\n  (act): Softmax(dim=-1)\n)\nModel parameter count: 486544\nTrain dataset: DEAPDataset(32) | Validation dataset: DEAPDataset(160)\nTraining...\n--Finished training--\nTraining time (s): 5.00\nTotal epochs: 37 ; Model picked from epoch 7\nAverage time per epoch: 0.14\n\n--Testing--\nTest loss: 3.15722\nTest acc: 0.380  \nTest F1: 0.380 \nTest precision: 0.380\nTest recall: 0.380\n'
Running: python3 main.py -m MLP -ef wav -ntt 34 -bs 16 -hc 64 -lr 0.009 -dr 0 -st -wtr -esp 30 -trd test_1
b'Train/Val dataset: DEAPDataset(192) | Test dataset: DEAPDataset(1088)\nDevice: cuda\nNumber of classes: 32\nMLP(\n  (lin1): Linear(in_features=7552, out_features=64, bias=True)\n  (lin2): Linear(in_features=64, out_features=32, bias=True)\n  (lin3): Linear(in_features=32, out_features=16, bias=True)\n  (lin4): Linear(in_features=16, out_features=32, bias=True)\n  (act): Softmax(dim=-1)\n)\nModel parameter count: 486544\nTrain dataset: DEAPDataset(32) | Validation dataset: DEAPDataset(160)\nTraining...\n--Finished training--\nTraining time (s): 2.55\nTotal epochs: 52 ; Model picked from epoch 22\nAverage time per epoch: 0.05\n\n--Testing--\nTest loss: 2.95810\nTest acc: 0.568  \nTest F1: 0.568 \nTest precision: 0.568\nTest recall: 0.568\n'
Running: python3 main.py -m MLP -ef wav -ntt 34 -bs 4 -hc 64 -lr 0.009 -dr 0.4 -st -wtr -esp 30 -trd test_1
b'Train/Val dataset: DEAPDataset(192) | Test dataset: DEAPDataset(1088)\nDevice: cuda\nNumber of classes: 32\nMLP(\n  (lin1): Linear(in_features=7552, out_features=64, bias=True)\n  (lin2): Linear(in_features=64, out_features=32, bias=True)\n  (lin3): Linear(in_features=32, out_features=16, bias=True)\n  (lin4): Linear(in_features=16, out_features=32, bias=True)\n  (act): Softmax(dim=-1)\n)\nModel parameter count: 486544\nTrain dataset: DEAPDataset(32) | Validation dataset: DEAPDataset(160)\nTraining...\n--Finished training--\nTraining time (s): 6.21\nTotal epochs: 46 ; Model picked from epoch 16\nAverage time per epoch: 0.13\n\n--Testing--\nTest loss: 3.35286\nTest acc: 0.156  \nTest F1: 0.156 \nTest precision: 0.156\nTest recall: 0.156\n'
Running: python3 main.py -m MLP -ef wav -ntt 34 -bs 16 -hc 64 -lr 0.009 -dr 0.4 -st -wtr -esp 30 -trd test_1
b'Train/Val dataset: DEAPDataset(192) | Test dataset: DEAPDataset(1088)\nDevice: cuda\nNumber of classes: 32\nMLP(\n  (lin1): Linear(in_features=7552, out_features=64, bias=True)\n  (lin2): Linear(in_features=64, out_features=32, bias=True)\n  (lin3): Linear(in_features=32, out_features=16, bias=True)\n  (lin4): Linear(in_features=16, out_features=32, bias=True)\n  (act): Softmax(dim=-1)\n)\nModel parameter count: 486544\nTrain dataset: DEAPDataset(32) | Validation dataset: DEAPDataset(160)\nTraining...\n--Finished training--\nTraining time (s): 3.92\nTotal epochs: 82 ; Model picked from epoch 52\nAverage time per epoch: 0.05\n\n--Testing--\nTest loss: 3.29806\nTest acc: 0.218  \nTest F1: 0.218 \nTest precision: 0.218\nTest recall: 0.218\n'
Running: python3 main.py -m MLP -ef wav -ntt 34 -bs 4 -hc 128 -lr 0.0001 -dr 0 -st -wtr -esp 30 -trd test_1
b'Train/Val dataset: DEAPDataset(192) | Test dataset: DEAPDataset(1088)\nDevice: cuda\nNumber of classes: 32\nMLP(\n  (lin1): Linear(in_features=7552, out_features=128, bias=True)\n  (lin2): Linear(in_features=128, out_features=64, bias=True)\n  (lin3): Linear(in_features=64, out_features=32, bias=True)\n  (lin4): Linear(in_features=32, out_features=32, bias=True)\n  (act): Softmax(dim=-1)\n)\nModel parameter count: 978176\nTrain dataset: DEAPDataset(32) | Validation dataset: DEAPDataset(160)\nTraining...\n--Finished training--\nTraining time (s): 243.91\nTotal epochs: 1808 ; Model picked from epoch 1778\nAverage time per epoch: 0.13\n\n--Testing--\nTest loss: 2.60961\nTest acc: 0.923  \nTest F1: 0.923 \nTest precision: 0.923\nTest recall: 0.923\n'
Running: python3 main.py -m MLP -ef wav -ntt 34 -bs 16 -hc 128 -lr 0.0001 -dr 0 -st -wtr -esp 30 -trd test_1
b'Train/Val dataset: DEAPDataset(192) | Test dataset: DEAPDataset(1088)\nDevice: cuda\nNumber of classes: 32\nMLP(\n  (lin1): Linear(in_features=7552, out_features=128, bias=True)\n  (lin2): Linear(in_features=128, out_features=64, bias=True)\n  (lin3): Linear(in_features=64, out_features=32, bias=True)\n  (lin4): Linear(in_features=32, out_features=32, bias=True)\n  (act): Softmax(dim=-1)\n)\nModel parameter count: 978176\nTrain dataset: DEAPDataset(32) | Validation dataset: DEAPDataset(160)\nTraining...\n--Finished training--\nTraining time (s): 169.76\nTotal epochs: 3560 ; Model picked from epoch 3530\nAverage time per epoch: 0.05\n\n--Testing--\nTest loss: 2.62408\nTest acc: 0.921  \nTest F1: 0.921 \nTest precision: 0.921\nTest recall: 0.921\n'
Running: python3 main.py -m MLP -ef wav -ntt 34 -bs 4 -hc 128 -lr 0.0001 -dr 0.4 -st -wtr -esp 30 -trd test_1
b'Train/Val dataset: DEAPDataset(192) | Test dataset: DEAPDataset(1088)\nDevice: cuda\nNumber of classes: 32\nMLP(\n  (lin1): Linear(in_features=7552, out_features=128, bias=True)\n  (lin2): Linear(in_features=128, out_features=64, bias=True)\n  (lin3): Linear(in_features=64, out_features=32, bias=True)\n  (lin4): Linear(in_features=32, out_features=32, bias=True)\n  (act): Softmax(dim=-1)\n)\nModel parameter count: 978176\nTrain dataset: DEAPDataset(32) | Validation dataset: DEAPDataset(160)\nTraining...\n--Finished training--\nTraining time (s): 38.58\nTotal epochs: 279 ; Model picked from epoch 249\nAverage time per epoch: 0.14\n\n--Testing--\nTest loss: 2.59611\nTest acc: 0.958  \nTest F1: 0.958 \nTest precision: 0.958\nTest recall: 0.958\n'
Running: python3 main.py -m MLP -ef wav -ntt 34 -bs 16 -hc 128 -lr 0.0001 -dr 0.4 -st -wtr -esp 30 -trd test_1
b'Train/Val dataset: DEAPDataset(192) | Test dataset: DEAPDataset(1088)\nDevice: cuda\nNumber of classes: 32\nMLP(\n  (lin1): Linear(in_features=7552, out_features=128, bias=True)\n  (lin2): Linear(in_features=128, out_features=64, bias=True)\n  (lin3): Linear(in_features=64, out_features=32, bias=True)\n  (lin4): Linear(in_features=32, out_features=32, bias=True)\n  (act): Softmax(dim=-1)\n)\nModel parameter count: 978176\nTrain dataset: DEAPDataset(32) | Validation dataset: DEAPDataset(160)\nTraining...\n--Finished training--\nTraining time (s): 20.32\nTotal epochs: 388 ; Model picked from epoch 358\nAverage time per epoch: 0.05\n\n--Testing--\nTest loss: 2.61887\nTest acc: 0.941  \nTest F1: 0.941 \nTest precision: 0.941\nTest recall: 0.941\n'
Running: python3 main.py -m MLP -ef wav -ntt 34 -bs 4 -hc 128 -lr 0.0045 -dr 0 -st -wtr -esp 30 -trd test_1
b'Train/Val dataset: DEAPDataset(192) | Test dataset: DEAPDataset(1088)\nDevice: cuda\nNumber of classes: 32\nMLP(\n  (lin1): Linear(in_features=7552, out_features=128, bias=True)\n  (lin2): Linear(in_features=128, out_features=64, bias=True)\n  (lin3): Linear(in_features=64, out_features=32, bias=True)\n  (lin4): Linear(in_features=32, out_features=32, bias=True)\n  (act): Softmax(dim=-1)\n)\nModel parameter count: 978176\nTrain dataset: DEAPDataset(32) | Validation dataset: DEAPDataset(160)\nTraining...\n--Finished training--\nTraining time (s): 4.54\nTotal epochs: 36 ; Model picked from epoch 6\nAverage time per epoch: 0.13\n\n--Testing--\nTest loss: 2.98773\nTest acc: 0.535  \nTest F1: 0.535 \nTest precision: 0.535\nTest recall: 0.535\n'
Running: python3 main.py -m MLP -ef wav -ntt 34 -bs 16 -hc 128 -lr 0.0045 -dr 0 -st -wtr -esp 30 -trd test_1
b'Train/Val dataset: DEAPDataset(192) | Test dataset: DEAPDataset(1088)\nDevice: cuda\nNumber of classes: 32\nMLP(\n  (lin1): Linear(in_features=7552, out_features=128, bias=True)\n  (lin2): Linear(in_features=128, out_features=64, bias=True)\n  (lin3): Linear(in_features=64, out_features=32, bias=True)\n  (lin4): Linear(in_features=32, out_features=32, bias=True)\n  (act): Softmax(dim=-1)\n)\nModel parameter count: 978176\nTrain dataset: DEAPDataset(32) | Validation dataset: DEAPDataset(160)\nTraining...\n--Finished training--\nTraining time (s): 2.45\nTotal epochs: 48 ; Model picked from epoch 18\nAverage time per epoch: 0.05\n\n--Testing--\nTest loss: 2.69581\nTest acc: 0.824  \nTest F1: 0.824 \nTest precision: 0.824\nTest recall: 0.824\n'
Running: python3 main.py -m MLP -ef wav -ntt 34 -bs 4 -hc 128 -lr 0.0045 -dr 0.4 -st -wtr -esp 30 -trd test_1
b'Train/Val dataset: DEAPDataset(192) | Test dataset: DEAPDataset(1088)\nDevice: cuda\nNumber of classes: 32\nMLP(\n  (lin1): Linear(in_features=7552, out_features=128, bias=True)\n  (lin2): Linear(in_features=128, out_features=64, bias=True)\n  (lin3): Linear(in_features=64, out_features=32, bias=True)\n  (lin4): Linear(in_features=32, out_features=32, bias=True)\n  (act): Softmax(dim=-1)\n)\nModel parameter count: 978176\nTrain dataset: DEAPDataset(32) | Validation dataset: DEAPDataset(160)\nTraining...\n--Finished training--\nTraining time (s): 6.47\nTotal epochs: 47 ; Model picked from epoch 17\nAverage time per epoch: 0.14\n\n--Testing--\nTest loss: 3.26471\nTest acc: 0.249  \nTest F1: 0.249 \nTest precision: 0.249\nTest recall: 0.249\n'
Running: python3 main.py -m MLP -ef wav -ntt 34 -bs 16 -hc 128 -lr 0.0045 -dr 0.4 -st -wtr -esp 30 -trd test_1
b'Train/Val dataset: DEAPDataset(192) | Test dataset: DEAPDataset(1088)\nDevice: cuda\nNumber of classes: 32\nMLP(\n  (lin1): Linear(in_features=7552, out_features=128, bias=True)\n  (lin2): Linear(in_features=128, out_features=64, bias=True)\n  (lin3): Linear(in_features=64, out_features=32, bias=True)\n  (lin4): Linear(in_features=32, out_features=32, bias=True)\n  (act): Softmax(dim=-1)\n)\nModel parameter count: 978176\nTrain dataset: DEAPDataset(32) | Validation dataset: DEAPDataset(160)\nTraining...\n--Finished training--\nTraining time (s): 5.89\nTotal epochs: 119 ; Model picked from epoch 89\nAverage time per epoch: 0.05\n\n--Testing--\nTest loss: 2.94032\nTest acc: 0.578  \nTest F1: 0.578 \nTest precision: 0.578\nTest recall: 0.578\n'
Running: python3 main.py -m MLP -ef wav -ntt 34 -bs 4 -hc 128 -lr 0.009 -dr 0 -st -wtr -esp 30 -trd test_1
b'Train/Val dataset: DEAPDataset(192) | Test dataset: DEAPDataset(1088)\nDevice: cuda\nNumber of classes: 32\nMLP(\n  (lin1): Linear(in_features=7552, out_features=128, bias=True)\n  (lin2): Linear(in_features=128, out_features=64, bias=True)\n  (lin3): Linear(in_features=64, out_features=32, bias=True)\n  (lin4): Linear(in_features=32, out_features=32, bias=True)\n  (act): Softmax(dim=-1)\n)\nModel parameter count: 978176\nTrain dataset: DEAPDataset(32) | Validation dataset: DEAPDataset(160)\nTraining...\n--Finished training--\nTraining time (s): 4.61\nTotal epochs: 34 ; Model picked from epoch 4\nAverage time per epoch: 0.14\n\n--Testing--\nTest loss: 3.45496\nTest acc: 0.062  \nTest F1: 0.062 \nTest precision: 0.062\nTest recall: 0.062\n'
Running: python3 main.py -m MLP -ef wav -ntt 34 -bs 16 -hc 128 -lr 0.009 -dr 0 -st -wtr -esp 30 -trd test_1
b'Train/Val dataset: DEAPDataset(192) | Test dataset: DEAPDataset(1088)\nDevice: cuda\nNumber of classes: 32\nMLP(\n  (lin1): Linear(in_features=7552, out_features=128, bias=True)\n  (lin2): Linear(in_features=128, out_features=64, bias=True)\n  (lin3): Linear(in_features=64, out_features=32, bias=True)\n  (lin4): Linear(in_features=32, out_features=32, bias=True)\n  (act): Softmax(dim=-1)\n)\nModel parameter count: 978176\nTrain dataset: DEAPDataset(32) | Validation dataset: DEAPDataset(160)\nTraining...\n--Finished training--\nTraining time (s): 4.27\nTotal epochs: 86 ; Model picked from epoch 56\nAverage time per epoch: 0.05\n\n--Testing--\nTest loss: 3.04879\nTest acc: 0.470  \nTest F1: 0.470 \nTest precision: 0.470\nTest recall: 0.470\n'
Running: python3 main.py -m MLP -ef wav -ntt 34 -bs 4 -hc 128 -lr 0.009 -dr 0.4 -st -wtr -esp 30 -trd test_1
b'Train/Val dataset: DEAPDataset(192) | Test dataset: DEAPDataset(1088)\nDevice: cuda\nNumber of classes: 32\nMLP(\n  (lin1): Linear(in_features=7552, out_features=128, bias=True)\n  (lin2): Linear(in_features=128, out_features=64, bias=True)\n  (lin3): Linear(in_features=64, out_features=32, bias=True)\n  (lin4): Linear(in_features=32, out_features=32, bias=True)\n  (act): Softmax(dim=-1)\n)\nModel parameter count: 978176\nTrain dataset: DEAPDataset(32) | Validation dataset: DEAPDataset(160)\nTraining...\n--Finished training--\nTraining time (s): 4.45\nTotal epochs: 32 ; Model picked from epoch 2\nAverage time per epoch: 0.14\n\n--Testing--\nTest loss: 3.41548\nTest acc: 0.098  \nTest F1: 0.098 \nTest precision: 0.098\nTest recall: 0.098\n'
Running: python3 main.py -m MLP -ef wav -ntt 34 -bs 16 -hc 128 -lr 0.009 -dr 0.4 -st -wtr -esp 30 -trd test_1
b'Train/Val dataset: DEAPDataset(192) | Test dataset: DEAPDataset(1088)\nDevice: cuda\nNumber of classes: 32\nMLP(\n  (lin1): Linear(in_features=7552, out_features=128, bias=True)\n  (lin2): Linear(in_features=128, out_features=64, bias=True)\n  (lin3): Linear(in_features=64, out_features=32, bias=True)\n  (lin4): Linear(in_features=32, out_features=32, bias=True)\n  (act): Softmax(dim=-1)\n)\nModel parameter count: 978176\nTrain dataset: DEAPDataset(32) | Validation dataset: DEAPDataset(160)\nTraining...\n--Finished training--\nTraining time (s): 2.15\nTotal epochs: 43 ; Model picked from epoch 13\nAverage time per epoch: 0.05\n\n--Testing--\nTest loss: 3.33344\nTest acc: 0.186  \nTest F1: 0.186 \nTest precision: 0.186\nTest recall: 0.186\n'
Running: python3 main.py -m MLP -ef psd -ntt 10 -bs 4 -hc 16 -lr 0.0001 -dr 0 -st -wtr -esp 30 -trd test_1
s32.mat: 100%|█████████████████████████████████████████████████████████████████████████████████████████████████████████████████████████████████████████████████████████████████████| 32/32 [01:01<00:00,  1.94s/it]
b'Processing...\nNumber of graphs (freq. bands) per video: 4\nDone!\nTrain/Val dataset: DEAPDataset(960) | Test dataset: DEAPDataset(320)\nDevice: cuda\nNumber of classes: 32\nMLP(\n  (lin1): Linear(in_features=7680, out_features=16, bias=True)\n  (lin2): Linear(in_features=16, out_features=8, bias=True)\n  (lin3): Linear(in_features=8, out_features=4, bias=True)\n  (lin4): Linear(in_features=4, out_features=32, bias=True)\n  (act): Softmax(dim=-1)\n)\nModel parameter count: 123228\nTrain dataset: DEAPDataset(800) | Validation dataset: DEAPDataset(160)\nTraining...\n--Finished training--\nTraining time (s): 93.36\nTotal epochs: 109 ; Model picked from epoch 79\nAverage time per epoch: 0.86\n\n--Testing--\nTest loss: 3.36115\nTest acc: 0.153  \nTest F1: 0.153 \nTest precision: 0.153\nTest recall: 0.153\n'
Running: python3 main.py -m MLP -ef psd -ntt 10 -bs 16 -hc 16 -lr 0.0001 -dr 0 -st -wtr -esp 30 -trd test_1
b'Train/Val dataset: DEAPDataset(960) | Test dataset: DEAPDataset(320)\nDevice: cuda\nNumber of classes: 32\nMLP(\n  (lin1): Linear(in_features=7680, out_features=16, bias=True)\n  (lin2): Linear(in_features=16, out_features=8, bias=True)\n  (lin3): Linear(in_features=8, out_features=4, bias=True)\n  (lin4): Linear(in_features=4, out_features=32, bias=True)\n  (act): Softmax(dim=-1)\n)\nModel parameter count: 123228\nTrain dataset: DEAPDataset(800) | Validation dataset: DEAPDataset(160)\nTraining...\n--Finished training--\nTraining time (s): 60.35\nTotal epochs: 215 ; Model picked from epoch 185\nAverage time per epoch: 0.28\n\n--Testing--\nTest loss: 3.23072\nTest acc: 0.306  \nTest F1: 0.306 \nTest precision: 0.306\nTest recall: 0.306\n'
Running: python3 main.py -m MLP -ef psd -ntt 10 -bs 4 -hc 16 -lr 0.0001 -dr 0.4 -st -wtr -esp 30 -trd test_1
b'Train/Val dataset: DEAPDataset(960) | Test dataset: DEAPDataset(320)\nDevice: cuda\nNumber of classes: 32\nMLP(\n  (lin1): Linear(in_features=7680, out_features=16, bias=True)\n  (lin2): Linear(in_features=16, out_features=8, bias=True)\n  (lin3): Linear(in_features=8, out_features=4, bias=True)\n  (lin4): Linear(in_features=4, out_features=32, bias=True)\n  (act): Softmax(dim=-1)\n)\nModel parameter count: 123228\nTrain dataset: DEAPDataset(800) | Validation dataset: DEAPDataset(160)\nTraining...\n--Finished training--\nTraining time (s): 147.83\nTotal epochs: 136 ; Model picked from epoch 106\nAverage time per epoch: 1.09\n\n--Testing--\nTest loss: 3.40914\nTest acc: 0.094  \nTest F1: 0.094 \nTest precision: 0.094\nTest recall: 0.094\n'
Running: python3 main.py -m MLP -ef psd -ntt 10 -bs 16 -hc 16 -lr 0.0001 -dr 0.4 -st -wtr -esp 30 -trd test_1
b'Train/Val dataset: DEAPDataset(960) | Test dataset: DEAPDataset(320)\nDevice: cuda\nNumber of classes: 32\nMLP(\n  (lin1): Linear(in_features=7680, out_features=16, bias=True)\n  (lin2): Linear(in_features=16, out_features=8, bias=True)\n  (lin3): Linear(in_features=8, out_features=4, bias=True)\n  (lin4): Linear(in_features=4, out_features=32, bias=True)\n  (act): Softmax(dim=-1)\n)\nModel parameter count: 123228\nTrain dataset: DEAPDataset(800) | Validation dataset: DEAPDataset(160)\nTraining...\n--Finished training--\nTraining time (s): 30.46\nTotal epochs: 88 ; Model picked from epoch 58\nAverage time per epoch: 0.35\n\n--Testing--\nTest loss: 3.32251\nTest acc: 0.184  \nTest F1: 0.184 \nTest precision: 0.184\nTest recall: 0.184\n'
Running: python3 main.py -m MLP -ef psd -ntt 10 -bs 4 -hc 16 -lr 0.0045 -dr 0 -st -wtr -esp 30 -trd test_1
b'Train/Val dataset: DEAPDataset(960) | Test dataset: DEAPDataset(320)\nDevice: cuda\nNumber of classes: 32\nMLP(\n  (lin1): Linear(in_features=7680, out_features=16, bias=True)\n  (lin2): Linear(in_features=16, out_features=8, bias=True)\n  (lin3): Linear(in_features=8, out_features=4, bias=True)\n  (lin4): Linear(in_features=4, out_features=32, bias=True)\n  (act): Softmax(dim=-1)\n)\nModel parameter count: 123228\nTrain dataset: DEAPDataset(800) | Validation dataset: DEAPDataset(160)\nTraining...\n--Finished training--\nTraining time (s): 34.28\nTotal epochs: 31 ; Model picked from epoch 1\nAverage time per epoch: 1.11\n\n--Testing--\nTest loss: 3.46578\nTest acc: 0.031  \nTest F1: 0.031 \nTest precision: 0.031\nTest recall: 0.031\n'
Running: python3 main.py -m MLP -ef psd -ntt 10 -bs 16 -hc 16 -lr 0.0045 -dr 0 -st -wtr -esp 30 -trd test_1
b'Train/Val dataset: DEAPDataset(960) | Test dataset: DEAPDataset(320)\nDevice: cuda\nNumber of classes: 32\nMLP(\n  (lin1): Linear(in_features=7680, out_features=16, bias=True)\n  (lin2): Linear(in_features=16, out_features=8, bias=True)\n  (lin3): Linear(in_features=8, out_features=4, bias=True)\n  (lin4): Linear(in_features=4, out_features=32, bias=True)\n  (act): Softmax(dim=-1)\n)\nModel parameter count: 123228\nTrain dataset: DEAPDataset(800) | Validation dataset: DEAPDataset(160)\nTraining...\n--Finished training--\nTraining time (s): 10.52\nTotal epochs: 31 ; Model picked from epoch 1\nAverage time per epoch: 0.34\n\n--Testing--\nTest loss: 3.48679\nTest acc: 0.031  \nTest F1: 0.031 \nTest precision: 0.031\nTest recall: 0.031\n'
Running: python3 main.py -m MLP -ef psd -ntt 10 -bs 4 -hc 16 -lr 0.0045 -dr 0.4 -st -wtr -esp 30 -trd test_1
b'Train/Val dataset: DEAPDataset(960) | Test dataset: DEAPDataset(320)\nDevice: cuda\nNumber of classes: 32\nMLP(\n  (lin1): Linear(in_features=7680, out_features=16, bias=True)\n  (lin2): Linear(in_features=16, out_features=8, bias=True)\n  (lin3): Linear(in_features=8, out_features=4, bias=True)\n  (lin4): Linear(in_features=4, out_features=32, bias=True)\n  (act): Softmax(dim=-1)\n)\nModel parameter count: 123228\nTrain dataset: DEAPDataset(800) | Validation dataset: DEAPDataset(160)\nTraining...\n--Finished training--\nTraining time (s): 51.10\nTotal epochs: 32 ; Model picked from epoch 2\nAverage time per epoch: 1.60\n\n--Testing--\nTest loss: 3.46577\nTest acc: 0.031  \nTest F1: 0.031 \nTest precision: 0.031\nTest recall: 0.031\n'
Running: python3 main.py -m MLP -ef psd -ntt 10 -bs 16 -hc 16 -lr 0.0045 -dr 0.4 -st -wtr -esp 30 -trd test_1
b'Train/Val dataset: DEAPDataset(960) | Test dataset: DEAPDataset(320)\nDevice: cuda\nNumber of classes: 32\nMLP(\n  (lin1): Linear(in_features=7680, out_features=16, bias=True)\n  (lin2): Linear(in_features=16, out_features=8, bias=True)\n  (lin3): Linear(in_features=8, out_features=4, bias=True)\n  (lin4): Linear(in_features=4, out_features=32, bias=True)\n  (act): Softmax(dim=-1)\n)\nModel parameter count: 123228\nTrain dataset: DEAPDataset(800) | Validation dataset: DEAPDataset(160)\nTraining...\n--Finished training--\nTraining time (s): 15.18\nTotal epochs: 31 ; Model picked from epoch 1\nAverage time per epoch: 0.49\n\n--Testing--\nTest loss: 3.48679\nTest acc: 0.031  \nTest F1: 0.031 \nTest precision: 0.031\nTest recall: 0.031\n'
Running: python3 main.py -m MLP -ef psd -ntt 10 -bs 4 -hc 16 -lr 0.009 -dr 0 -st -wtr -esp 30 -trd test_1
b'Train/Val dataset: DEAPDataset(960) | Test dataset: DEAPDataset(320)\nDevice: cuda\nNumber of classes: 32\nMLP(\n  (lin1): Linear(in_features=7680, out_features=16, bias=True)\n  (lin2): Linear(in_features=16, out_features=8, bias=True)\n  (lin3): Linear(in_features=8, out_features=4, bias=True)\n  (lin4): Linear(in_features=4, out_features=32, bias=True)\n  (act): Softmax(dim=-1)\n)\nModel parameter count: 123228\nTrain dataset: DEAPDataset(800) | Validation dataset: DEAPDataset(160)\nTraining...\n--Finished training--\nTraining time (s): 54.06\nTotal epochs: 31 ; Model picked from epoch 1\nAverage time per epoch: 1.74\n\n--Testing--\nTest loss: 3.46577\nTest acc: 0.031  \nTest F1: 0.031 \nTest precision: 0.031\nTest recall: 0.031\n'
Running: python3 main.py -m MLP -ef psd -ntt 10 -bs 16 -hc 16 -lr 0.009 -dr 0 -st -wtr -esp 30 -trd test_1
b'Train/Val dataset: DEAPDataset(960) | Test dataset: DEAPDataset(320)\nDevice: cuda\nNumber of classes: 32\nMLP(\n  (lin1): Linear(in_features=7680, out_features=16, bias=True)\n  (lin2): Linear(in_features=16, out_features=8, bias=True)\n  (lin3): Linear(in_features=8, out_features=4, bias=True)\n  (lin4): Linear(in_features=4, out_features=32, bias=True)\n  (act): Softmax(dim=-1)\n)\nModel parameter count: 123228\nTrain dataset: DEAPDataset(800) | Validation dataset: DEAPDataset(160)\nTraining...\n--Finished training--\nTraining time (s): 12.86\nTotal epochs: 31 ; Model picked from epoch 1\nAverage time per epoch: 0.41\n\n--Testing--\nTest loss: 3.46578\nTest acc: 0.031  \nTest F1: 0.031 \nTest precision: 0.031\nTest recall: 0.031\n'
Running: python3 main.py -m MLP -ef psd -ntt 10 -bs 4 -hc 16 -lr 0.009 -dr 0.4 -st -wtr -esp 30 -trd test_1
b'Train/Val dataset: DEAPDataset(960) | Test dataset: DEAPDataset(320)\nDevice: cuda\nNumber of classes: 32\nMLP(\n  (lin1): Linear(in_features=7680, out_features=16, bias=True)\n  (lin2): Linear(in_features=16, out_features=8, bias=True)\n  (lin3): Linear(in_features=8, out_features=4, bias=True)\n  (lin4): Linear(in_features=4, out_features=32, bias=True)\n  (act): Softmax(dim=-1)\n)\nModel parameter count: 123228\nTrain dataset: DEAPDataset(800) | Validation dataset: DEAPDataset(160)\nTraining...\n--Finished training--\nTraining time (s): 45.81\nTotal epochs: 36 ; Model picked from epoch 6\nAverage time per epoch: 1.27\n\n--Testing--\nTest loss: 3.46579\nTest acc: 0.031  \nTest F1: 0.031 \nTest precision: 0.031\nTest recall: 0.031\n'
Running: python3 main.py -m MLP -ef psd -ntt 10 -bs 16 -hc 16 -lr 0.009 -dr 0.4 -st -wtr -esp 30 -trd test_1
b'Train/Val dataset: DEAPDataset(960) | Test dataset: DEAPDataset(320)\nDevice: cuda\nNumber of classes: 32\nMLP(\n  (lin1): Linear(in_features=7680, out_features=16, bias=True)\n  (lin2): Linear(in_features=16, out_features=8, bias=True)\n  (lin3): Linear(in_features=8, out_features=4, bias=True)\n  (lin4): Linear(in_features=4, out_features=32, bias=True)\n  (act): Softmax(dim=-1)\n)\nModel parameter count: 123228\nTrain dataset: DEAPDataset(800) | Validation dataset: DEAPDataset(160)\nTraining...\n--Finished training--\nTraining time (s): 11.98\nTotal epochs: 34 ; Model picked from epoch 4\nAverage time per epoch: 0.35\n\n--Testing--\nTest loss: 3.46578\nTest acc: 0.031  \nTest F1: 0.031 \nTest precision: 0.031\nTest recall: 0.031\n'
Running: python3 main.py -m MLP -ef psd -ntt 10 -bs 4 -hc 64 -lr 0.0001 -dr 0 -st -wtr -esp 30 -trd test_1
b'Train/Val dataset: DEAPDataset(960) | Test dataset: DEAPDataset(320)\nDevice: cuda\nNumber of classes: 32\nMLP(\n  (lin1): Linear(in_features=7680, out_features=64, bias=True)\n  (lin2): Linear(in_features=64, out_features=32, bias=True)\n  (lin3): Linear(in_features=32, out_features=16, bias=True)\n  (lin4): Linear(in_features=16, out_features=32, bias=True)\n  (act): Softmax(dim=-1)\n)\nModel parameter count: 494736\nTrain dataset: DEAPDataset(800) | Validation dataset: DEAPDataset(160)\nTraining...\n--Finished training--\nTraining time (s): 144.37\nTotal epochs: 129 ; Model picked from epoch 99\nAverage time per epoch: 1.12\n\n--Testing--\nTest loss: 3.27723\nTest acc: 0.241  \nTest F1: 0.241 \nTest precision: 0.241\nTest recall: 0.241\n'
Running: python3 main.py -m MLP -ef psd -ntt 10 -bs 16 -hc 64 -lr 0.0001 -dr 0 -st -wtr -esp 30 -trd test_1
b'Train/Val dataset: DEAPDataset(960) | Test dataset: DEAPDataset(320)\nDevice: cuda\nNumber of classes: 32\nMLP(\n  (lin1): Linear(in_features=7680, out_features=64, bias=True)\n  (lin2): Linear(in_features=64, out_features=32, bias=True)\n  (lin3): Linear(in_features=32, out_features=16, bias=True)\n  (lin4): Linear(in_features=16, out_features=32, bias=True)\n  (act): Softmax(dim=-1)\n)\nModel parameter count: 494736\nTrain dataset: DEAPDataset(800) | Validation dataset: DEAPDataset(160)\nTraining...\n--Finished training--\nTraining time (s): 27.57\nTotal epochs: 78 ; Model picked from epoch 48\nAverage time per epoch: 0.35\n\n--Testing--\nTest loss: 3.39081\nTest acc: 0.125  \nTest F1: 0.125 \nTest precision: 0.125\nTest recall: 0.125\n'
Running: python3 main.py -m MLP -ef psd -ntt 10 -bs 4 -hc 64 -lr 0.0001 -dr 0.4 -st -wtr -esp 30 -trd test_1
b'Train/Val dataset: DEAPDataset(960) | Test dataset: DEAPDataset(320)\nDevice: cuda\nNumber of classes: 32\nMLP(\n  (lin1): Linear(in_features=7680, out_features=64, bias=True)\n  (lin2): Linear(in_features=64, out_features=32, bias=True)\n  (lin3): Linear(in_features=32, out_features=16, bias=True)\n  (lin4): Linear(in_features=16, out_features=32, bias=True)\n  (act): Softmax(dim=-1)\n)\nModel parameter count: 494736\nTrain dataset: DEAPDataset(800) | Validation dataset: DEAPDataset(160)\nTraining...\n--Finished training--\nTraining time (s): 51.90\nTotal epochs: 34 ; Model picked from epoch 4\nAverage time per epoch: 1.53\n\n--Testing--\nTest loss: 3.46261\nTest acc: 0.056  \nTest F1: 0.056 \nTest precision: 0.056\nTest recall: 0.056\n'
Running: python3 main.py -m MLP -ef psd -ntt 10 -bs 16 -hc 64 -lr 0.0001 -dr 0.4 -st -wtr -esp 30 -trd test_1
b'Train/Val dataset: DEAPDataset(960) | Test dataset: DEAPDataset(320)\nDevice: cuda\nNumber of classes: 32\nMLP(\n  (lin1): Linear(in_features=7680, out_features=64, bias=True)\n  (lin2): Linear(in_features=64, out_features=32, bias=True)\n  (lin3): Linear(in_features=32, out_features=16, bias=True)\n  (lin4): Linear(in_features=16, out_features=32, bias=True)\n  (act): Softmax(dim=-1)\n)\nModel parameter count: 494736\nTrain dataset: DEAPDataset(800) | Validation dataset: DEAPDataset(160)\nTraining...\n--Finished training--\nTraining time (s): 17.11\nTotal epochs: 49 ; Model picked from epoch 19\nAverage time per epoch: 0.35\n\n--Testing--\nTest loss: 3.45508\nTest acc: 0.062  \nTest F1: 0.062 \nTest precision: 0.062\nTest recall: 0.062\n'
Running: python3 main.py -m MLP -ef psd -ntt 10 -bs 4 -hc 64 -lr 0.0045 -dr 0 -st -wtr -esp 30 -trd test_1
b'Train/Val dataset: DEAPDataset(960) | Test dataset: DEAPDataset(320)\nDevice: cuda\nNumber of classes: 32\nMLP(\n  (lin1): Linear(in_features=7680, out_features=64, bias=True)\n  (lin2): Linear(in_features=64, out_features=32, bias=True)\n  (lin3): Linear(in_features=32, out_features=16, bias=True)\n  (lin4): Linear(in_features=16, out_features=32, bias=True)\n  (act): Softmax(dim=-1)\n)\nModel parameter count: 494736\nTrain dataset: DEAPDataset(800) | Validation dataset: DEAPDataset(160)\nTraining...\n--Finished training--\nTraining time (s): 35.83\nTotal epochs: 31 ; Model picked from epoch 1\nAverage time per epoch: 1.16\n\n--Testing--\nTest loss: 3.48679\nTest acc: 0.031  \nTest F1: 0.031 \nTest precision: 0.031\nTest recall: 0.031\n'
Running: python3 main.py -m MLP -ef psd -ntt 10 -bs 16 -hc 64 -lr 0.0045 -dr 0 -st -wtr -esp 30 -trd test_1
b'Train/Val dataset: DEAPDataset(960) | Test dataset: DEAPDataset(320)\nDevice: cuda\nNumber of classes: 32\nMLP(\n  (lin1): Linear(in_features=7680, out_features=64, bias=True)\n  (lin2): Linear(in_features=64, out_features=32, bias=True)\n  (lin3): Linear(in_features=32, out_features=16, bias=True)\n  (lin4): Linear(in_features=16, out_features=32, bias=True)\n  (act): Softmax(dim=-1)\n)\nModel parameter count: 494736\nTrain dataset: DEAPDataset(800) | Validation dataset: DEAPDataset(160)\nTraining...\n--Finished training--\nTraining time (s): 11.20\nTotal epochs: 31 ; Model picked from epoch 1\nAverage time per epoch: 0.36\n\n--Testing--\nTest loss: 3.48679\nTest acc: 0.031  \nTest F1: 0.031 \nTest precision: 0.031\nTest recall: 0.031\n'
Running: python3 main.py -m MLP -ef psd -ntt 10 -bs 4 -hc 64 -lr 0.0045 -dr 0.4 -st -wtr -esp 30 -trd test_1
b'Train/Val dataset: DEAPDataset(960) | Test dataset: DEAPDataset(320)\nDevice: cuda\nNumber of classes: 32\nMLP(\n  (lin1): Linear(in_features=7680, out_features=64, bias=True)\n  (lin2): Linear(in_features=64, out_features=32, bias=True)\n  (lin3): Linear(in_features=32, out_features=16, bias=True)\n  (lin4): Linear(in_features=16, out_features=32, bias=True)\n  (act): Softmax(dim=-1)\n)\nModel parameter count: 494736\nTrain dataset: DEAPDataset(800) | Validation dataset: DEAPDataset(160)\nTraining...\n--Finished training--\nTraining time (s): 37.88\nTotal epochs: 31 ; Model picked from epoch 1\nAverage time per epoch: 1.22\n\n--Testing--\nTest loss: 3.48679\nTest acc: 0.031  \nTest F1: 0.031 \nTest precision: 0.031\nTest recall: 0.031\n'
Running: python3 main.py -m MLP -ef psd -ntt 10 -bs 16 -hc 64 -lr 0.0045 -dr 0.4 -st -wtr -esp 30 -trd test_1
b'Train/Val dataset: DEAPDataset(960) | Test dataset: DEAPDataset(320)\nDevice: cuda\nNumber of classes: 32\nMLP(\n  (lin1): Linear(in_features=7680, out_features=64, bias=True)\n  (lin2): Linear(in_features=64, out_features=32, bias=True)\n  (lin3): Linear(in_features=32, out_features=16, bias=True)\n  (lin4): Linear(in_features=16, out_features=32, bias=True)\n  (act): Softmax(dim=-1)\n)\nModel parameter count: 494736\nTrain dataset: DEAPDataset(800) | Validation dataset: DEAPDataset(160)\nTraining...\n--Finished training--\nTraining time (s): 10.88\nTotal epochs: 31 ; Model picked from epoch 1\nAverage time per epoch: 0.35\n\n--Testing--\nTest loss: 3.48679\nTest acc: 0.031  \nTest F1: 0.031 \nTest precision: 0.031\nTest recall: 0.031\n'
Running: python3 main.py -m MLP -ef psd -ntt 10 -bs 4 -hc 64 -lr 0.009 -dr 0 -st -wtr -esp 30 -trd test_1
b'Train/Val dataset: DEAPDataset(960) | Test dataset: DEAPDataset(320)\nDevice: cuda\nNumber of classes: 32\nMLP(\n  (lin1): Linear(in_features=7680, out_features=64, bias=True)\n  (lin2): Linear(in_features=64, out_features=32, bias=True)\n  (lin3): Linear(in_features=32, out_features=16, bias=True)\n  (lin4): Linear(in_features=16, out_features=32, bias=True)\n  (act): Softmax(dim=-1)\n)\nModel parameter count: 494736\nTrain dataset: DEAPDataset(800) | Validation dataset: DEAPDataset(160)\nTraining...\n--Finished training--\nTraining time (s): 34.78\nTotal epochs: 31 ; Model picked from epoch 1\nAverage time per epoch: 1.12\n\n--Testing--\nTest loss: 3.48679\nTest acc: 0.031  \nTest F1: 0.031 \nTest precision: 0.031\nTest recall: 0.031\n'
Running: python3 main.py -m MLP -ef psd -ntt 10 -bs 16 -hc 64 -lr 0.009 -dr 0 -st -wtr -esp 30 -trd test_1
b'Train/Val dataset: DEAPDataset(960) | Test dataset: DEAPDataset(320)\nDevice: cuda\nNumber of classes: 32\nMLP(\n  (lin1): Linear(in_features=7680, out_features=64, bias=True)\n  (lin2): Linear(in_features=64, out_features=32, bias=True)\n  (lin3): Linear(in_features=32, out_features=16, bias=True)\n  (lin4): Linear(in_features=16, out_features=32, bias=True)\n  (act): Softmax(dim=-1)\n)\nModel parameter count: 494736\nTrain dataset: DEAPDataset(800) | Validation dataset: DEAPDataset(160)\nTraining...\n--Finished training--\nTraining time (s): 11.01\nTotal epochs: 31 ; Model picked from epoch 1\nAverage time per epoch: 0.36\n\n--Testing--\nTest loss: 3.48679\nTest acc: 0.031  \nTest F1: 0.031 \nTest precision: 0.031\nTest recall: 0.031\n'
Running: python3 main.py -m MLP -ef psd -ntt 10 -bs 4 -hc 64 -lr 0.009 -dr 0.4 -st -wtr -esp 30 -trd test_1
b'Train/Val dataset: DEAPDataset(960) | Test dataset: DEAPDataset(320)\nDevice: cuda\nNumber of classes: 32\nMLP(\n  (lin1): Linear(in_features=7680, out_features=64, bias=True)\n  (lin2): Linear(in_features=64, out_features=32, bias=True)\n  (lin3): Linear(in_features=32, out_features=16, bias=True)\n  (lin4): Linear(in_features=16, out_features=32, bias=True)\n  (act): Softmax(dim=-1)\n)\nModel parameter count: 494736\nTrain dataset: DEAPDataset(800) | Validation dataset: DEAPDataset(160)\nTraining...\n--Finished training--\nTraining time (s): 34.91\nTotal epochs: 31 ; Model picked from epoch 1\nAverage time per epoch: 1.13\n\n--Testing--\nTest loss: 3.48679\nTest acc: 0.031  \nTest F1: 0.031 \nTest precision: 0.031\nTest recall: 0.031\n'
Running: python3 main.py -m MLP -ef psd -ntt 10 -bs 16 -hc 64 -lr 0.009 -dr 0.4 -st -wtr -esp 30 -trd test_1
b'Train/Val dataset: DEAPDataset(960) | Test dataset: DEAPDataset(320)\nDevice: cuda\nNumber of classes: 32\nMLP(\n  (lin1): Linear(in_features=7680, out_features=64, bias=True)\n  (lin2): Linear(in_features=64, out_features=32, bias=True)\n  (lin3): Linear(in_features=32, out_features=16, bias=True)\n  (lin4): Linear(in_features=16, out_features=32, bias=True)\n  (act): Softmax(dim=-1)\n)\nModel parameter count: 494736\nTrain dataset: DEAPDataset(800) | Validation dataset: DEAPDataset(160)\nTraining...\n--Finished training--\nTraining time (s): 12.95\nTotal epochs: 31 ; Model picked from epoch 1\nAverage time per epoch: 0.42\n\n--Testing--\nTest loss: 3.48679\nTest acc: 0.031  \nTest F1: 0.031 \nTest precision: 0.031\nTest recall: 0.031\n'
Running: python3 main.py -m MLP -ef psd -ntt 10 -bs 4 -hc 128 -lr 0.0001 -dr 0 -st -wtr -esp 30 -trd test_1
b'Train/Val dataset: DEAPDataset(960) | Test dataset: DEAPDataset(320)\nDevice: cuda\nNumber of classes: 32\nMLP(\n  (lin1): Linear(in_features=7680, out_features=128, bias=True)\n  (lin2): Linear(in_features=128, out_features=64, bias=True)\n  (lin3): Linear(in_features=64, out_features=32, bias=True)\n  (lin4): Linear(in_features=32, out_features=32, bias=True)\n  (act): Softmax(dim=-1)\n)\nModel parameter count: 994560\nTrain dataset: DEAPDataset(800) | Validation dataset: DEAPDataset(160)\nTraining...\n--Finished training--\nTraining time (s): 47.92\nTotal epochs: 31 ; Model picked from epoch 1\nAverage time per epoch: 1.55\n\n--Testing--\nTest loss: 3.48679\nTest acc: 0.031  \nTest F1: 0.031 \nTest precision: 0.031\nTest recall: 0.031\n'
Running: python3 main.py -m MLP -ef psd -ntt 10 -bs 16 -hc 128 -lr 0.0001 -dr 0 -st -wtr -esp 30 -trd test_1
b'Train/Val dataset: DEAPDataset(960) | Test dataset: DEAPDataset(320)\nDevice: cuda\nNumber of classes: 32\nMLP(\n  (lin1): Linear(in_features=7680, out_features=128, bias=True)\n  (lin2): Linear(in_features=128, out_features=64, bias=True)\n  (lin3): Linear(in_features=64, out_features=32, bias=True)\n  (lin4): Linear(in_features=32, out_features=32, bias=True)\n  (act): Softmax(dim=-1)\n)\nModel parameter count: 994560\nTrain dataset: DEAPDataset(800) | Validation dataset: DEAPDataset(160)\nTraining...\n--Finished training--\nTraining time (s): 13.23\nTotal epochs: 31 ; Model picked from epoch 1\nAverage time per epoch: 0.43\n\n--Testing--\nTest loss: 3.45525\nTest acc: 0.062  \nTest F1: 0.062 \nTest precision: 0.062\nTest recall: 0.062\n'
Running: python3 main.py -m MLP -ef psd -ntt 10 -bs 4 -hc 128 -lr 0.0001 -dr 0.4 -st -wtr -esp 30 -trd test_1
b'Train/Val dataset: DEAPDataset(960) | Test dataset: DEAPDataset(320)\nDevice: cuda\nNumber of classes: 32\nMLP(\n  (lin1): Linear(in_features=7680, out_features=128, bias=True)\n  (lin2): Linear(in_features=128, out_features=64, bias=True)\n  (lin3): Linear(in_features=64, out_features=32, bias=True)\n  (lin4): Linear(in_features=32, out_features=32, bias=True)\n  (act): Softmax(dim=-1)\n)\nModel parameter count: 994560\nTrain dataset: DEAPDataset(800) | Validation dataset: DEAPDataset(160)\nTraining...\n--Finished training--\nTraining time (s): 64.87\nTotal epochs: 41 ; Model picked from epoch 11\nAverage time per epoch: 1.58\n\n--Testing--\nTest loss: 3.42686\nTest acc: 0.091  \nTest F1: 0.091 \nTest precision: 0.091\nTest recall: 0.091\n'
Running: python3 main.py -m MLP -ef psd -ntt 10 -bs 16 -hc 128 -lr 0.0001 -dr 0.4 -st -wtr -esp 30 -trd test_1
b'Train/Val dataset: DEAPDataset(960) | Test dataset: DEAPDataset(320)\nDevice: cuda\nNumber of classes: 32\nMLP(\n  (lin1): Linear(in_features=7680, out_features=128, bias=True)\n  (lin2): Linear(in_features=128, out_features=64, bias=True)\n  (lin3): Linear(in_features=64, out_features=32, bias=True)\n  (lin4): Linear(in_features=32, out_features=32, bias=True)\n  (act): Softmax(dim=-1)\n)\nModel parameter count: 994560\nTrain dataset: DEAPDataset(800) | Validation dataset: DEAPDataset(160)\nTraining...\n--Finished training--\nTraining time (s): 74.39\nTotal epochs: 178 ; Model picked from epoch 148\nAverage time per epoch: 0.42\n\n--Testing--\nTest loss: 3.36175\nTest acc: 0.156  \nTest F1: 0.156 \nTest precision: 0.156\nTest recall: 0.156\n'
Running: python3 main.py -m MLP -ef psd -ntt 10 -bs 4 -hc 128 -lr 0.0045 -dr 0 -st -wtr -esp 30 -trd test_1
b'Train/Val dataset: DEAPDataset(960) | Test dataset: DEAPDataset(320)\nDevice: cuda\nNumber of classes: 32\nMLP(\n  (lin1): Linear(in_features=7680, out_features=128, bias=True)\n  (lin2): Linear(in_features=128, out_features=64, bias=True)\n  (lin3): Linear(in_features=64, out_features=32, bias=True)\n  (lin4): Linear(in_features=32, out_features=32, bias=True)\n  (act): Softmax(dim=-1)\n)\nModel parameter count: 994560\nTrain dataset: DEAPDataset(800) | Validation dataset: DEAPDataset(160)\nTraining...\n--Finished training--\nTraining time (s): 48.41\nTotal epochs: 31 ; Model picked from epoch 1\nAverage time per epoch: 1.56\n\n--Testing--\nTest loss: 3.48679\nTest acc: 0.031  \nTest F1: 0.031 \nTest precision: 0.031\nTest recall: 0.031\n'
Running: python3 main.py -m MLP -ef psd -ntt 10 -bs 16 -hc 128 -lr 0.0045 -dr 0 -st -wtr -esp 30 -trd test_1
b'Train/Val dataset: DEAPDataset(960) | Test dataset: DEAPDataset(320)\nDevice: cuda\nNumber of classes: 32\nMLP(\n  (lin1): Linear(in_features=7680, out_features=128, bias=True)\n  (lin2): Linear(in_features=128, out_features=64, bias=True)\n  (lin3): Linear(in_features=64, out_features=32, bias=True)\n  (lin4): Linear(in_features=32, out_features=32, bias=True)\n  (act): Softmax(dim=-1)\n)\nModel parameter count: 994560\nTrain dataset: DEAPDataset(800) | Validation dataset: DEAPDataset(160)\nTraining...\n--Finished training--\nTraining time (s): 13.00\nTotal epochs: 31 ; Model picked from epoch 1\nAverage time per epoch: 0.42\n\n--Testing--\nTest loss: 3.48679\nTest acc: 0.031  \nTest F1: 0.031 \nTest precision: 0.031\nTest recall: 0.031\n'
Running: python3 main.py -m MLP -ef psd -ntt 10 -bs 4 -hc 128 -lr 0.0045 -dr 0.4 -st -wtr -esp 30 -trd test_1
b'Train/Val dataset: DEAPDataset(960) | Test dataset: DEAPDataset(320)\nDevice: cuda\nNumber of classes: 32\nMLP(\n  (lin1): Linear(in_features=7680, out_features=128, bias=True)\n  (lin2): Linear(in_features=128, out_features=64, bias=True)\n  (lin3): Linear(in_features=64, out_features=32, bias=True)\n  (lin4): Linear(in_features=32, out_features=32, bias=True)\n  (act): Softmax(dim=-1)\n)\nModel parameter count: 994560\nTrain dataset: DEAPDataset(800) | Validation dataset: DEAPDataset(160)\nTraining...\n--Finished training--\nTraining time (s): 36.15\nTotal epochs: 31 ; Model picked from epoch 1\nAverage time per epoch: 1.17\n\n--Testing--\nTest loss: 3.48679\nTest acc: 0.031  \nTest F1: 0.031 \nTest precision: 0.031\nTest recall: 0.031\n'
Running: python3 main.py -m MLP -ef psd -ntt 10 -bs 16 -hc 128 -lr 0.0045 -dr 0.4 -st -wtr -esp 30 -trd test_1
b'Train/Val dataset: DEAPDataset(960) | Test dataset: DEAPDataset(320)\nDevice: cuda\nNumber of classes: 32\nMLP(\n  (lin1): Linear(in_features=7680, out_features=128, bias=True)\n  (lin2): Linear(in_features=128, out_features=64, bias=True)\n  (lin3): Linear(in_features=64, out_features=32, bias=True)\n  (lin4): Linear(in_features=32, out_features=32, bias=True)\n  (act): Softmax(dim=-1)\n)\nModel parameter count: 994560\nTrain dataset: DEAPDataset(800) | Validation dataset: DEAPDataset(160)\nTraining...\n--Finished training--\nTraining time (s): 12.12\nTotal epochs: 31 ; Model picked from epoch 1\nAverage time per epoch: 0.39\n\n--Testing--\nTest loss: 3.48679\nTest acc: 0.031  \nTest F1: 0.031 \nTest precision: 0.031\nTest recall: 0.031\n'
Running: python3 main.py -m MLP -ef psd -ntt 10 -bs 4 -hc 128 -lr 0.009 -dr 0 -st -wtr -esp 30 -trd test_1
b'Train/Val dataset: DEAPDataset(960) | Test dataset: DEAPDataset(320)\nDevice: cuda\nNumber of classes: 32\nMLP(\n  (lin1): Linear(in_features=7680, out_features=128, bias=True)\n  (lin2): Linear(in_features=128, out_features=64, bias=True)\n  (lin3): Linear(in_features=64, out_features=32, bias=True)\n  (lin4): Linear(in_features=32, out_features=32, bias=True)\n  (act): Softmax(dim=-1)\n)\nModel parameter count: 994560\nTrain dataset: DEAPDataset(800) | Validation dataset: DEAPDataset(160)\nTraining...\n--Finished training--\nTraining time (s): 32.60\nTotal epochs: 31 ; Model picked from epoch 1\nAverage time per epoch: 1.05\n\n--Testing--\nTest loss: 3.48679\nTest acc: 0.031  \nTest F1: 0.031 \nTest precision: 0.031\nTest recall: 0.031\n'
Running: python3 main.py -m MLP -ef psd -ntt 10 -bs 16 -hc 128 -lr 0.009 -dr 0 -st -wtr -esp 30 -trd test_1
b'Train/Val dataset: DEAPDataset(960) | Test dataset: DEAPDataset(320)\nDevice: cuda\nNumber of classes: 32\nMLP(\n  (lin1): Linear(in_features=7680, out_features=128, bias=True)\n  (lin2): Linear(in_features=128, out_features=64, bias=True)\n  (lin3): Linear(in_features=64, out_features=32, bias=True)\n  (lin4): Linear(in_features=32, out_features=32, bias=True)\n  (act): Softmax(dim=-1)\n)\nModel parameter count: 994560\nTrain dataset: DEAPDataset(800) | Validation dataset: DEAPDataset(160)\nTraining...\n--Finished training--\nTraining time (s): 9.61\nTotal epochs: 31 ; Model picked from epoch 1\nAverage time per epoch: 0.31\n\n--Testing--\nTest loss: 3.48679\nTest acc: 0.031  \nTest F1: 0.031 \nTest precision: 0.031\nTest recall: 0.031\n'
Running: python3 main.py -m MLP -ef psd -ntt 10 -bs 4 -hc 128 -lr 0.009 -dr 0.4 -st -wtr -esp 30 -trd test_1
b'Train/Val dataset: DEAPDataset(960) | Test dataset: DEAPDataset(320)\nDevice: cuda\nNumber of classes: 32\nMLP(\n  (lin1): Linear(in_features=7680, out_features=128, bias=True)\n  (lin2): Linear(in_features=128, out_features=64, bias=True)\n  (lin3): Linear(in_features=64, out_features=32, bias=True)\n  (lin4): Linear(in_features=32, out_features=32, bias=True)\n  (act): Softmax(dim=-1)\n)\nModel parameter count: 994560\nTrain dataset: DEAPDataset(800) | Validation dataset: DEAPDataset(160)\nTraining...\n--Finished training--\nTraining time (s): 37.81\nTotal epochs: 31 ; Model picked from epoch 1\nAverage time per epoch: 1.22\n\n--Testing--\nTest loss: 3.48679\nTest acc: 0.031  \nTest F1: 0.031 \nTest precision: 0.031\nTest recall: 0.031\n'
Running: python3 main.py -m MLP -ef psd -ntt 10 -bs 16 -hc 128 -lr 0.009 -dr 0.4 -st -wtr -esp 30 -trd test_1
b'Train/Val dataset: DEAPDataset(960) | Test dataset: DEAPDataset(320)\nDevice: cuda\nNumber of classes: 32\nMLP(\n  (lin1): Linear(in_features=7680, out_features=128, bias=True)\n  (lin2): Linear(in_features=128, out_features=64, bias=True)\n  (lin3): Linear(in_features=64, out_features=32, bias=True)\n  (lin4): Linear(in_features=32, out_features=32, bias=True)\n  (act): Softmax(dim=-1)\n)\nModel parameter count: 994560\nTrain dataset: DEAPDataset(800) | Validation dataset: DEAPDataset(160)\nTraining...\n--Finished training--\nTraining time (s): 9.58\nTotal epochs: 31 ; Model picked from epoch 1\nAverage time per epoch: 0.31\n\n--Testing--\nTest loss: 3.48679\nTest acc: 0.031  \nTest F1: 0.031 \nTest precision: 0.031\nTest recall: 0.031\n'
Running: python3 main.py -m MLP -ef psd -ntt 30 -bs 4 -hc 16 -lr 0.0001 -dr 0 -st -wtr -esp 30 -trd test_1
b'Train/Val dataset: DEAPDataset(320) | Test dataset: DEAPDataset(960)\nDevice: cuda\nNumber of classes: 32\nMLP(\n  (lin1): Linear(in_features=7680, out_features=16, bias=True)\n  (lin2): Linear(in_features=16, out_features=8, bias=True)\n  (lin3): Linear(in_features=8, out_features=4, bias=True)\n  (lin4): Linear(in_features=4, out_features=32, bias=True)\n  (act): Softmax(dim=-1)\n)\nModel parameter count: 123228\nTrain dataset: DEAPDataset(160) | Validation dataset: DEAPDataset(160)\nTraining...\n--Finished training--\nTraining time (s): 31.30\nTotal epochs: 112 ; Model picked from epoch 82\nAverage time per epoch: 0.28\n\n--Testing--\nTest loss: 3.38432\nTest acc: 0.097  \nTest F1: 0.097 \nTest precision: 0.097\nTest recall: 0.097\n'
Running: python3 main.py -m MLP -ef psd -ntt 30 -bs 16 -hc 16 -lr 0.0001 -dr 0 -st -wtr -esp 30 -trd test_1
b'Train/Val dataset: DEAPDataset(320) | Test dataset: DEAPDataset(960)\nDevice: cuda\nNumber of classes: 32\nMLP(\n  (lin1): Linear(in_features=7680, out_features=16, bias=True)\n  (lin2): Linear(in_features=16, out_features=8, bias=True)\n  (lin3): Linear(in_features=8, out_features=4, bias=True)\n  (lin4): Linear(in_features=4, out_features=32, bias=True)\n  (act): Softmax(dim=-1)\n)\nModel parameter count: 123228\nTrain dataset: DEAPDataset(160) | Validation dataset: DEAPDataset(160)\nTraining...\n--Finished training--\nTraining time (s): 2.83\nTotal epochs: 31 ; Model picked from epoch 1\nAverage time per epoch: 0.09\n\n--Testing--\nTest loss: 3.46557\nTest acc: 0.031  \nTest F1: 0.031 \nTest precision: 0.031\nTest recall: 0.031\n'
Running: python3 main.py -m MLP -ef psd -ntt 30 -bs 4 -hc 16 -lr 0.0001 -dr 0.4 -st -wtr -esp 30 -trd test_1
b'Train/Val dataset: DEAPDataset(320) | Test dataset: DEAPDataset(960)\nDevice: cuda\nNumber of classes: 32\nMLP(\n  (lin1): Linear(in_features=7680, out_features=16, bias=True)\n  (lin2): Linear(in_features=16, out_features=8, bias=True)\n  (lin3): Linear(in_features=8, out_features=4, bias=True)\n  (lin4): Linear(in_features=4, out_features=32, bias=True)\n  (act): Softmax(dim=-1)\n)\nModel parameter count: 123228\nTrain dataset: DEAPDataset(160) | Validation dataset: DEAPDataset(160)\nTraining...\n--Finished training--\nTraining time (s): 10.94\nTotal epochs: 39 ; Model picked from epoch 9\nAverage time per epoch: 0.28\n\n--Testing--\nTest loss: 3.43956\nTest acc: 0.030  \nTest F1: 0.030 \nTest precision: 0.030\nTest recall: 0.030\n'
Running: python3 main.py -m MLP -ef psd -ntt 30 -bs 16 -hc 16 -lr 0.0001 -dr 0.4 -st -wtr -esp 30 -trd test_1
b'Train/Val dataset: DEAPDataset(320) | Test dataset: DEAPDataset(960)\nDevice: cuda\nNumber of classes: 32\nMLP(\n  (lin1): Linear(in_features=7680, out_features=16, bias=True)\n  (lin2): Linear(in_features=16, out_features=8, bias=True)\n  (lin3): Linear(in_features=8, out_features=4, bias=True)\n  (lin4): Linear(in_features=4, out_features=32, bias=True)\n  (act): Softmax(dim=-1)\n)\nModel parameter count: 123228\nTrain dataset: DEAPDataset(160) | Validation dataset: DEAPDataset(160)\nTraining...\n--Finished training--\nTraining time (s): 2.83\nTotal epochs: 31 ; Model picked from epoch 1\nAverage time per epoch: 0.09\n\n--Testing--\nTest loss: 3.45687\nTest acc: 0.061  \nTest F1: 0.061 \nTest precision: 0.061\nTest recall: 0.061\n'
Running: python3 main.py -m MLP -ef psd -ntt 30 -bs 4 -hc 16 -lr 0.0045 -dr 0 -st -wtr -esp 30 -trd test_1
b'Train/Val dataset: DEAPDataset(320) | Test dataset: DEAPDataset(960)\nDevice: cuda\nNumber of classes: 32\nMLP(\n  (lin1): Linear(in_features=7680, out_features=16, bias=True)\n  (lin2): Linear(in_features=16, out_features=8, bias=True)\n  (lin3): Linear(in_features=8, out_features=4, bias=True)\n  (lin4): Linear(in_features=4, out_features=32, bias=True)\n  (act): Softmax(dim=-1)\n)\nModel parameter count: 123228\nTrain dataset: DEAPDataset(160) | Validation dataset: DEAPDataset(160)\nTraining...\n--Finished training--\nTraining time (s): 9.43\nTotal epochs: 31 ; Model picked from epoch 1\nAverage time per epoch: 0.30\n\n--Testing--\nTest loss: 3.46577\nTest acc: 0.031  \nTest F1: 0.031 \nTest precision: 0.031\nTest recall: 0.031\n'
Running: python3 main.py -m MLP -ef psd -ntt 30 -bs 16 -hc 16 -lr 0.0045 -dr 0 -st -wtr -esp 30 -trd test_1
b'Train/Val dataset: DEAPDataset(320) | Test dataset: DEAPDataset(960)\nDevice: cuda\nNumber of classes: 32\nMLP(\n  (lin1): Linear(in_features=7680, out_features=16, bias=True)\n  (lin2): Linear(in_features=16, out_features=8, bias=True)\n  (lin3): Linear(in_features=8, out_features=4, bias=True)\n  (lin4): Linear(in_features=4, out_features=32, bias=True)\n  (act): Softmax(dim=-1)\n)\nModel parameter count: 123228\nTrain dataset: DEAPDataset(160) | Validation dataset: DEAPDataset(160)\nTraining...\n--Finished training--\nTraining time (s): 2.41\nTotal epochs: 31 ; Model picked from epoch 1\nAverage time per epoch: 0.08\n\n--Testing--\nTest loss: 3.48679\nTest acc: 0.031  \nTest F1: 0.031 \nTest precision: 0.031\nTest recall: 0.031\n'
Running: python3 main.py -m MLP -ef psd -ntt 30 -bs 4 -hc 16 -lr 0.0045 -dr 0.4 -st -wtr -esp 30 -trd test_1
b'Train/Val dataset: DEAPDataset(320) | Test dataset: DEAPDataset(960)\nDevice: cuda\nNumber of classes: 32\nMLP(\n  (lin1): Linear(in_features=7680, out_features=16, bias=True)\n  (lin2): Linear(in_features=16, out_features=8, bias=True)\n  (lin3): Linear(in_features=8, out_features=4, bias=True)\n  (lin4): Linear(in_features=4, out_features=32, bias=True)\n  (act): Softmax(dim=-1)\n)\nModel parameter count: 123228\nTrain dataset: DEAPDataset(160) | Validation dataset: DEAPDataset(160)\nTraining...\n--Finished training--\nTraining time (s): 8.71\nTotal epochs: 31 ; Model picked from epoch 1\nAverage time per epoch: 0.28\n\n--Testing--\nTest loss: 3.48758\nTest acc: 0.030  \nTest F1: 0.030 \nTest precision: 0.030\nTest recall: 0.030\n'
Running: python3 main.py -m MLP -ef psd -ntt 30 -bs 16 -hc 16 -lr 0.0045 -dr 0.4 -st -wtr -esp 30 -trd test_1
b'Train/Val dataset: DEAPDataset(320) | Test dataset: DEAPDataset(960)\nDevice: cuda\nNumber of classes: 32\nMLP(\n  (lin1): Linear(in_features=7680, out_features=16, bias=True)\n  (lin2): Linear(in_features=16, out_features=8, bias=True)\n  (lin3): Linear(in_features=8, out_features=4, bias=True)\n  (lin4): Linear(in_features=4, out_features=32, bias=True)\n  (act): Softmax(dim=-1)\n)\nModel parameter count: 123228\nTrain dataset: DEAPDataset(160) | Validation dataset: DEAPDataset(160)\nTraining...\n--Finished training--\nTraining time (s): 2.83\nTotal epochs: 31 ; Model picked from epoch 1\nAverage time per epoch: 0.09\n\n--Testing--\nTest loss: 3.48676\nTest acc: 0.031  \nTest F1: 0.031 \nTest precision: 0.031\nTest recall: 0.031\n'
Running: python3 main.py -m MLP -ef psd -ntt 30 -bs 4 -hc 16 -lr 0.009 -dr 0 -st -wtr -esp 30 -trd test_1
b'Train/Val dataset: DEAPDataset(320) | Test dataset: DEAPDataset(960)\nDevice: cuda\nNumber of classes: 32\nMLP(\n  (lin1): Linear(in_features=7680, out_features=16, bias=True)\n  (lin2): Linear(in_features=16, out_features=8, bias=True)\n  (lin3): Linear(in_features=8, out_features=4, bias=True)\n  (lin4): Linear(in_features=4, out_features=32, bias=True)\n  (act): Softmax(dim=-1)\n)\nModel parameter count: 123228\nTrain dataset: DEAPDataset(160) | Validation dataset: DEAPDataset(160)\nTraining...\n--Finished training--\nTraining time (s): 8.39\nTotal epochs: 31 ; Model picked from epoch 1\nAverage time per epoch: 0.27\n\n--Testing--\nTest loss: 3.48679\nTest acc: 0.031  \nTest F1: 0.031 \nTest precision: 0.031\nTest recall: 0.031\n'
Running: python3 main.py -m MLP -ef psd -ntt 30 -bs 16 -hc 16 -lr 0.009 -dr 0 -st -wtr -esp 30 -trd test_1
b'Train/Val dataset: DEAPDataset(320) | Test dataset: DEAPDataset(960)\nDevice: cuda\nNumber of classes: 32\nMLP(\n  (lin1): Linear(in_features=7680, out_features=16, bias=True)\n  (lin2): Linear(in_features=16, out_features=8, bias=True)\n  (lin3): Linear(in_features=8, out_features=4, bias=True)\n  (lin4): Linear(in_features=4, out_features=32, bias=True)\n  (act): Softmax(dim=-1)\n)\nModel parameter count: 123228\nTrain dataset: DEAPDataset(160) | Validation dataset: DEAPDataset(160)\nTraining...\n--Finished training--\nTraining time (s): 2.28\nTotal epochs: 31 ; Model picked from epoch 1\nAverage time per epoch: 0.07\n\n--Testing--\nTest loss: 3.48561\nTest acc: 0.031  \nTest F1: 0.031 \nTest precision: 0.031\nTest recall: 0.031\n'
Running: python3 main.py -m MLP -ef psd -ntt 30 -bs 4 -hc 16 -lr 0.009 -dr 0.4 -st -wtr -esp 30 -trd test_1
b'Train/Val dataset: DEAPDataset(320) | Test dataset: DEAPDataset(960)\nDevice: cuda\nNumber of classes: 32\nMLP(\n  (lin1): Linear(in_features=7680, out_features=16, bias=True)\n  (lin2): Linear(in_features=16, out_features=8, bias=True)\n  (lin3): Linear(in_features=8, out_features=4, bias=True)\n  (lin4): Linear(in_features=4, out_features=32, bias=True)\n  (act): Softmax(dim=-1)\n)\nModel parameter count: 123228\nTrain dataset: DEAPDataset(160) | Validation dataset: DEAPDataset(160)\nTraining...\n--Finished training--\nTraining time (s): 8.75\nTotal epochs: 31 ; Model picked from epoch 1\nAverage time per epoch: 0.28\n\n--Testing--\nTest loss: 3.49406\nTest acc: 0.024  \nTest F1: 0.024 \nTest precision: 0.024\nTest recall: 0.024\n'
Running: python3 main.py -m MLP -ef psd -ntt 30 -bs 16 -hc 16 -lr 0.009 -dr 0.4 -st -wtr -esp 30 -trd test_1
b'Train/Val dataset: DEAPDataset(320) | Test dataset: DEAPDataset(960)\nDevice: cuda\nNumber of classes: 32\nMLP(\n  (lin1): Linear(in_features=7680, out_features=16, bias=True)\n  (lin2): Linear(in_features=16, out_features=8, bias=True)\n  (lin3): Linear(in_features=8, out_features=4, bias=True)\n  (lin4): Linear(in_features=4, out_features=32, bias=True)\n  (act): Softmax(dim=-1)\n)\nModel parameter count: 123228\nTrain dataset: DEAPDataset(160) | Validation dataset: DEAPDataset(160)\nTraining...\n--Finished training--\nTraining time (s): 2.83\nTotal epochs: 31 ; Model picked from epoch 1\nAverage time per epoch: 0.09\n\n--Testing--\nTest loss: 3.46577\nTest acc: 0.031  \nTest F1: 0.031 \nTest precision: 0.031\nTest recall: 0.031\n'
Running: python3 main.py -m MLP -ef psd -ntt 30 -bs 4 -hc 64 -lr 0.0001 -dr 0 -st -wtr -esp 30 -trd test_1
b'Train/Val dataset: DEAPDataset(320) | Test dataset: DEAPDataset(960)\nDevice: cuda\nNumber of classes: 32\nMLP(\n  (lin1): Linear(in_features=7680, out_features=64, bias=True)\n  (lin2): Linear(in_features=64, out_features=32, bias=True)\n  (lin3): Linear(in_features=32, out_features=16, bias=True)\n  (lin4): Linear(in_features=16, out_features=32, bias=True)\n  (act): Softmax(dim=-1)\n)\nModel parameter count: 494736\nTrain dataset: DEAPDataset(160) | Validation dataset: DEAPDataset(160)\nTraining...\n--Finished training--\nTraining time (s): 12.13\nTotal epochs: 43 ; Model picked from epoch 13\nAverage time per epoch: 0.28\n\n--Testing--\nTest loss: 3.42791\nTest acc: 0.090  \nTest F1: 0.090 \nTest precision: 0.090\nTest recall: 0.090\n'
Running: python3 main.py -m MLP -ef psd -ntt 30 -bs 16 -hc 64 -lr 0.0001 -dr 0 -st -wtr -esp 30 -trd test_1
b'Train/Val dataset: DEAPDataset(320) | Test dataset: DEAPDataset(960)\nDevice: cuda\nNumber of classes: 32\nMLP(\n  (lin1): Linear(in_features=7680, out_features=64, bias=True)\n  (lin2): Linear(in_features=64, out_features=32, bias=True)\n  (lin3): Linear(in_features=32, out_features=16, bias=True)\n  (lin4): Linear(in_features=16, out_features=32, bias=True)\n  (act): Softmax(dim=-1)\n)\nModel parameter count: 494736\nTrain dataset: DEAPDataset(160) | Validation dataset: DEAPDataset(160)\nTraining...\n--Finished training--\nTraining time (s): 4.31\nTotal epochs: 55 ; Model picked from epoch 25\nAverage time per epoch: 0.08\n\n--Testing--\nTest loss: 3.36800\nTest acc: 0.150  \nTest F1: 0.150 \nTest precision: 0.150\nTest recall: 0.150\n'
Running: python3 main.py -m MLP -ef psd -ntt 30 -bs 4 -hc 64 -lr 0.0001 -dr 0.4 -st -wtr -esp 30 -trd test_1
b'Train/Val dataset: DEAPDataset(320) | Test dataset: DEAPDataset(960)\nDevice: cuda\nNumber of classes: 32\nMLP(\n  (lin1): Linear(in_features=7680, out_features=64, bias=True)\n  (lin2): Linear(in_features=64, out_features=32, bias=True)\n  (lin3): Linear(in_features=32, out_features=16, bias=True)\n  (lin4): Linear(in_features=16, out_features=32, bias=True)\n  (act): Softmax(dim=-1)\n)\nModel parameter count: 494736\nTrain dataset: DEAPDataset(160) | Validation dataset: DEAPDataset(160)\nTraining...\n--Finished training--\nTraining time (s): 22.59\nTotal epochs: 75 ; Model picked from epoch 45\nAverage time per epoch: 0.30\n\n--Testing--\nTest loss: 3.45439\nTest acc: 0.064  \nTest F1: 0.064 \nTest precision: 0.064\nTest recall: 0.064\n'
Running: python3 main.py -m MLP -ef psd -ntt 30 -bs 16 -hc 64 -lr 0.0001 -dr 0.4 -st -wtr -esp 30 -trd test_1
b'Train/Val dataset: DEAPDataset(320) | Test dataset: DEAPDataset(960)\nDevice: cuda\nNumber of classes: 32\nMLP(\n  (lin1): Linear(in_features=7680, out_features=64, bias=True)\n  (lin2): Linear(in_features=64, out_features=32, bias=True)\n  (lin3): Linear(in_features=32, out_features=16, bias=True)\n  (lin4): Linear(in_features=16, out_features=32, bias=True)\n  (act): Softmax(dim=-1)\n)\nModel parameter count: 494736\nTrain dataset: DEAPDataset(160) | Validation dataset: DEAPDataset(160)\nTraining...\n--Finished training--\nTraining time (s): 3.40\nTotal epochs: 36 ; Model picked from epoch 6\nAverage time per epoch: 0.09\n\n--Testing--\nTest loss: 3.46627\nTest acc: 0.051  \nTest F1: 0.051 \nTest precision: 0.051\nTest recall: 0.051\n'
Running: python3 main.py -m MLP -ef psd -ntt 30 -bs 4 -hc 64 -lr 0.0045 -dr 0 -st -wtr -esp 30 -trd test_1
b'Train/Val dataset: DEAPDataset(320) | Test dataset: DEAPDataset(960)\nDevice: cuda\nNumber of classes: 32\nMLP(\n  (lin1): Linear(in_features=7680, out_features=64, bias=True)\n  (lin2): Linear(in_features=64, out_features=32, bias=True)\n  (lin3): Linear(in_features=32, out_features=16, bias=True)\n  (lin4): Linear(in_features=16, out_features=32, bias=True)\n  (act): Softmax(dim=-1)\n)\nModel parameter count: 494736\nTrain dataset: DEAPDataset(160) | Validation dataset: DEAPDataset(160)\nTraining...\n--Finished training--\nTraining time (s): 9.24\nTotal epochs: 31 ; Model picked from epoch 1\nAverage time per epoch: 0.30\n\n--Testing--\nTest loss: 3.48679\nTest acc: 0.031  \nTest F1: 0.031 \nTest precision: 0.031\nTest recall: 0.031\n'
Running: python3 main.py -m MLP -ef psd -ntt 30 -bs 16 -hc 64 -lr 0.0045 -dr 0 -st -wtr -esp 30 -trd test_1
b'Train/Val dataset: DEAPDataset(320) | Test dataset: DEAPDataset(960)\nDevice: cuda\nNumber of classes: 32\nMLP(\n  (lin1): Linear(in_features=7680, out_features=64, bias=True)\n  (lin2): Linear(in_features=64, out_features=32, bias=True)\n  (lin3): Linear(in_features=32, out_features=16, bias=True)\n  (lin4): Linear(in_features=16, out_features=32, bias=True)\n  (act): Softmax(dim=-1)\n)\nModel parameter count: 494736\nTrain dataset: DEAPDataset(160) | Validation dataset: DEAPDataset(160)\nTraining...\n--Finished training--\nTraining time (s): 2.87\nTotal epochs: 31 ; Model picked from epoch 1\nAverage time per epoch: 0.09\n\n--Testing--\nTest loss: 3.48669\nTest acc: 0.031  \nTest F1: 0.031 \nTest precision: 0.031\nTest recall: 0.031\n'
Running: python3 main.py -m MLP -ef psd -ntt 30 -bs 4 -hc 64 -lr 0.0045 -dr 0.4 -st -wtr -esp 30 -trd test_1
b'Train/Val dataset: DEAPDataset(320) | Test dataset: DEAPDataset(960)\nDevice: cuda\nNumber of classes: 32\nMLP(\n  (lin1): Linear(in_features=7680, out_features=64, bias=True)\n  (lin2): Linear(in_features=64, out_features=32, bias=True)\n  (lin3): Linear(in_features=32, out_features=16, bias=True)\n  (lin4): Linear(in_features=16, out_features=32, bias=True)\n  (act): Softmax(dim=-1)\n)\nModel parameter count: 494736\nTrain dataset: DEAPDataset(160) | Validation dataset: DEAPDataset(160)\nTraining...\n--Finished training--\nTraining time (s): 9.38\nTotal epochs: 31 ; Model picked from epoch 1\nAverage time per epoch: 0.30\n\n--Testing--\nTest loss: 3.48679\nTest acc: 0.031  \nTest F1: 0.031 \nTest precision: 0.031\nTest recall: 0.031\n'
Running: python3 main.py -m MLP -ef psd -ntt 30 -bs 16 -hc 64 -lr 0.0045 -dr 0.4 -st -wtr -esp 30 -trd test_1
b'Train/Val dataset: DEAPDataset(320) | Test dataset: DEAPDataset(960)\nDevice: cuda\nNumber of classes: 32\nMLP(\n  (lin1): Linear(in_features=7680, out_features=64, bias=True)\n  (lin2): Linear(in_features=64, out_features=32, bias=True)\n  (lin3): Linear(in_features=32, out_features=16, bias=True)\n  (lin4): Linear(in_features=16, out_features=32, bias=True)\n  (act): Softmax(dim=-1)\n)\nModel parameter count: 494736\nTrain dataset: DEAPDataset(160) | Validation dataset: DEAPDataset(160)\nTraining...\n--Finished training--\nTraining time (s): 2.94\nTotal epochs: 31 ; Model picked from epoch 1\nAverage time per epoch: 0.09\n\n--Testing--\nTest loss: 3.48679\nTest acc: 0.031  \nTest F1: 0.031 \nTest precision: 0.031\nTest recall: 0.031\n'
Running: python3 main.py -m MLP -ef psd -ntt 30 -bs 4 -hc 64 -lr 0.009 -dr 0 -st -wtr -esp 30 -trd test_1
b'Train/Val dataset: DEAPDataset(320) | Test dataset: DEAPDataset(960)\nDevice: cuda\nNumber of classes: 32\nMLP(\n  (lin1): Linear(in_features=7680, out_features=64, bias=True)\n  (lin2): Linear(in_features=64, out_features=32, bias=True)\n  (lin3): Linear(in_features=32, out_features=16, bias=True)\n  (lin4): Linear(in_features=16, out_features=32, bias=True)\n  (act): Softmax(dim=-1)\n)\nModel parameter count: 494736\nTrain dataset: DEAPDataset(160) | Validation dataset: DEAPDataset(160)\nTraining...\n--Finished training--\nTraining time (s): 9.17\nTotal epochs: 31 ; Model picked from epoch 1\nAverage time per epoch: 0.30\n\n--Testing--\nTest loss: 3.48679\nTest acc: 0.031  \nTest F1: 0.031 \nTest precision: 0.031\nTest recall: 0.031\n'
Running: python3 main.py -m MLP -ef psd -ntt 30 -bs 16 -hc 64 -lr 0.009 -dr 0 -st -wtr -esp 30 -trd test_1
b'Train/Val dataset: DEAPDataset(320) | Test dataset: DEAPDataset(960)\nDevice: cuda\nNumber of classes: 32\nMLP(\n  (lin1): Linear(in_features=7680, out_features=64, bias=True)\n  (lin2): Linear(in_features=64, out_features=32, bias=True)\n  (lin3): Linear(in_features=32, out_features=16, bias=True)\n  (lin4): Linear(in_features=16, out_features=32, bias=True)\n  (act): Softmax(dim=-1)\n)\nModel parameter count: 494736\nTrain dataset: DEAPDataset(160) | Validation dataset: DEAPDataset(160)\nTraining...\n--Finished training--\nTraining time (s): 2.92\nTotal epochs: 31 ; Model picked from epoch 1\nAverage time per epoch: 0.09\n\n--Testing--\nTest loss: 3.48679\nTest acc: 0.031  \nTest F1: 0.031 \nTest precision: 0.031\nTest recall: 0.031\n'
Running: python3 main.py -m MLP -ef psd -ntt 30 -bs 4 -hc 64 -lr 0.009 -dr 0.4 -st -wtr -esp 30 -trd test_1
b'Train/Val dataset: DEAPDataset(320) | Test dataset: DEAPDataset(960)\nDevice: cuda\nNumber of classes: 32\nMLP(\n  (lin1): Linear(in_features=7680, out_features=64, bias=True)\n  (lin2): Linear(in_features=64, out_features=32, bias=True)\n  (lin3): Linear(in_features=32, out_features=16, bias=True)\n  (lin4): Linear(in_features=16, out_features=32, bias=True)\n  (act): Softmax(dim=-1)\n)\nModel parameter count: 494736\nTrain dataset: DEAPDataset(160) | Validation dataset: DEAPDataset(160)\nTraining...\n--Finished training--\nTraining time (s): 9.32\nTotal epochs: 31 ; Model picked from epoch 1\nAverage time per epoch: 0.30\n\n--Testing--\nTest loss: 3.48679\nTest acc: 0.031  \nTest F1: 0.031 \nTest precision: 0.031\nTest recall: 0.031\n'
Running: python3 main.py -m MLP -ef psd -ntt 30 -bs 16 -hc 64 -lr 0.009 -dr 0.4 -st -wtr -esp 30 -trd test_1
b'Train/Val dataset: DEAPDataset(320) | Test dataset: DEAPDataset(960)\nDevice: cuda\nNumber of classes: 32\nMLP(\n  (lin1): Linear(in_features=7680, out_features=64, bias=True)\n  (lin2): Linear(in_features=64, out_features=32, bias=True)\n  (lin3): Linear(in_features=32, out_features=16, bias=True)\n  (lin4): Linear(in_features=16, out_features=32, bias=True)\n  (act): Softmax(dim=-1)\n)\nModel parameter count: 494736\nTrain dataset: DEAPDataset(160) | Validation dataset: DEAPDataset(160)\nTraining...\n--Finished training--\nTraining time (s): 2.89\nTotal epochs: 31 ; Model picked from epoch 1\nAverage time per epoch: 0.09\n\n--Testing--\nTest loss: 3.48679\nTest acc: 0.031  \nTest F1: 0.031 \nTest precision: 0.031\nTest recall: 0.031\n'
Running: python3 main.py -m MLP -ef psd -ntt 30 -bs 4 -hc 128 -lr 0.0001 -dr 0 -st -wtr -esp 30 -trd test_1
b'Train/Val dataset: DEAPDataset(320) | Test dataset: DEAPDataset(960)\nDevice: cuda\nNumber of classes: 32\nMLP(\n  (lin1): Linear(in_features=7680, out_features=128, bias=True)\n  (lin2): Linear(in_features=128, out_features=64, bias=True)\n  (lin3): Linear(in_features=64, out_features=32, bias=True)\n  (lin4): Linear(in_features=32, out_features=32, bias=True)\n  (act): Softmax(dim=-1)\n)\nModel parameter count: 994560\nTrain dataset: DEAPDataset(160) | Validation dataset: DEAPDataset(160)\nTraining...\n--Finished training--\nTraining time (s): 9.52\nTotal epochs: 31 ; Model picked from epoch 1\nAverage time per epoch: 0.31\n\n--Testing--\nTest loss: 3.48676\nTest acc: 0.031  \nTest F1: 0.031 \nTest precision: 0.031\nTest recall: 0.031\n'
Running: python3 main.py -m MLP -ef psd -ntt 30 -bs 16 -hc 128 -lr 0.0001 -dr 0 -st -wtr -esp 30 -trd test_1
b'Train/Val dataset: DEAPDataset(320) | Test dataset: DEAPDataset(960)\nDevice: cuda\nNumber of classes: 32\nMLP(\n  (lin1): Linear(in_features=7680, out_features=128, bias=True)\n  (lin2): Linear(in_features=128, out_features=64, bias=True)\n  (lin3): Linear(in_features=64, out_features=32, bias=True)\n  (lin4): Linear(in_features=32, out_features=32, bias=True)\n  (act): Softmax(dim=-1)\n)\nModel parameter count: 994560\nTrain dataset: DEAPDataset(160) | Validation dataset: DEAPDataset(160)\nTraining...\n--Finished training--\nTraining time (s): 3.40\nTotal epochs: 35 ; Model picked from epoch 5\nAverage time per epoch: 0.10\n\n--Testing--\nTest loss: 3.45667\nTest acc: 0.060  \nTest F1: 0.060 \nTest precision: 0.060\nTest recall: 0.060\n'
Running: python3 main.py -m MLP -ef psd -ntt 30 -bs 4 -hc 128 -lr 0.0001 -dr 0.4 -st -wtr -esp 30 -trd test_1
b'Train/Val dataset: DEAPDataset(320) | Test dataset: DEAPDataset(960)\nDevice: cuda\nNumber of classes: 32\nMLP(\n  (lin1): Linear(in_features=7680, out_features=128, bias=True)\n  (lin2): Linear(in_features=128, out_features=64, bias=True)\n  (lin3): Linear(in_features=64, out_features=32, bias=True)\n  (lin4): Linear(in_features=32, out_features=32, bias=True)\n  (act): Softmax(dim=-1)\n)\nModel parameter count: 994560\nTrain dataset: DEAPDataset(160) | Validation dataset: DEAPDataset(160)\nTraining...\n--Finished training--\nTraining time (s): 16.90\nTotal epochs: 60 ; Model picked from epoch 30\nAverage time per epoch: 0.28\n\n--Testing--\nTest loss: 3.45699\nTest acc: 0.060  \nTest F1: 0.060 \nTest precision: 0.060\nTest recall: 0.060\n'
Running: python3 main.py -m MLP -ef psd -ntt 30 -bs 16 -hc 128 -lr 0.0001 -dr 0.4 -st -wtr -esp 30 -trd test_1
b'Train/Val dataset: DEAPDataset(320) | Test dataset: DEAPDataset(960)\nDevice: cuda\nNumber of classes: 32\nMLP(\n  (lin1): Linear(in_features=7680, out_features=128, bias=True)\n  (lin2): Linear(in_features=128, out_features=64, bias=True)\n  (lin3): Linear(in_features=64, out_features=32, bias=True)\n  (lin4): Linear(in_features=32, out_features=32, bias=True)\n  (act): Softmax(dim=-1)\n)\nModel parameter count: 994560\nTrain dataset: DEAPDataset(160) …
lin3): Linear(in_features=32, out_features=16, bias=True)\n  (lin4): Linear(in_features=16, out_features=32, bias=True)\n  (act): Softmax(dim=-1)\n)\nModel parameter count: 560656\nTrain dataset: DEAPDataset(160) | Validation dataset: DEAPDataset(160)\nTraining...\n--Finished training--\nTraining time (s): 17.68\nTotal epochs: 35 ; Model picked from epoch 5\nAverage time per epoch: 0.51\n\n--Testing--\nTest loss: 3.45830\nTest acc: 0.059  \nTest F1: 0.059 \nTest precision: 0.059\nTest recall: 0.059\n'
Running: python3 main.py -m GatedGraphConvMLP -ef psd -ntt 30 -bs 16 -hc 64 -lr 0.0045 -dr 0.4 -st -wtr -esp 30 -trd test_1
b'Train/Val dataset: DEAPDataset(320) | Test dataset: DEAPDataset(960)\nDevice: cuda\nNumber of classes: 32\nGatedGraphConvMLP(\n  (gconv): GatedGraphConv(64, num_layers=2)\n  (lin1): Linear(in_features=8192, out_features=64, bias=True)\n  (lin2): Linear(in_features=64, out_features=32, bias=True)\n  (lin3): Linear(in_features=32, out_features=16, bias=True)\n  (lin4): Linear(in_features=16, out_features=32, bias=True)\n  (act): Softmax(dim=-1)\n)\nModel parameter count: 560656\nTrain dataset: DEAPDataset(160) | Validation dataset: DEAPDataset(160)\nTraining...\n--Finished training--\nTraining time (s): 6.29\nTotal epochs: 40 ; Model picked from epoch 10\nAverage time per epoch: 0.16\n\n--Testing--\nTest loss: 3.47767\nTest acc: 0.041  \nTest F1: 0.041 \nTest precision: 0.041\nTest recall: 0.041\n'
Running: python3 main.py -m GatedGraphConvMLP -ef psd -ntt 30 -bs 4 -hc 64 -lr 0.009 -dr 0 -st -wtr -esp 30 -trd test_1
b'Train/Val dataset: DEAPDataset(320) | Test dataset: DEAPDataset(960)\nDevice: cuda\nNumber of classes: 32\nGatedGraphConvMLP(\n  (gconv): GatedGraphConv(64, num_layers=2)\n  (lin1): Linear(in_features=8192, out_features=64, bias=True)\n  (lin2): Linear(in_features=64, out_features=32, bias=True)\n  (lin3): Linear(in_features=32, out_features=16, bias=True)\n  (lin4): Linear(in_features=16, out_features=32, bias=True)\n  (act): Softmax(dim=-1)\n)\nModel parameter count: 560656\nTrain dataset: DEAPDataset(160) | Validation dataset: DEAPDataset(160)\nTraining...\n--Finished training--\nTraining time (s): 15.47\nTotal epochs: 31 ; Model picked from epoch 1\nAverage time per epoch: 0.50\n\n--Testing--\nTest loss: 3.48679\nTest acc: 0.031  \nTest F1: 0.031 \nTest precision: 0.031\nTest recall: 0.031\n'
Running: python3 main.py -m GatedGraphConvMLP -ef psd -ntt 30 -bs 16 -hc 64 -lr 0.009 -dr 0 -st -wtr -esp 30 -trd test_1
b'Train/Val dataset: DEAPDataset(320) | Test dataset: DEAPDataset(960)\nDevice: cuda\nNumber of classes: 32\nGatedGraphConvMLP(\n  (gconv): GatedGraphConv(64, num_layers=2)\n  (lin1): Linear(in_features=8192, out_features=64, bias=True)\n  (lin2): Linear(in_features=64, out_features=32, bias=True)\n  (lin3): Linear(in_features=32, out_features=16, bias=True)\n  (lin4): Linear(in_features=16, out_features=32, bias=True)\n  (act): Softmax(dim=-1)\n)\nModel parameter count: 560656\nTrain dataset: DEAPDataset(160) | Validation dataset: DEAPDataset(160)\nTraining...\n--Finished training--\nTraining time (s): 4.79\nTotal epochs: 31 ; Model picked from epoch 1\nAverage time per epoch: 0.15\n\n--Testing--\nTest loss: 3.48679\nTest acc: 0.031  \nTest F1: 0.031 \nTest precision: 0.031\nTest recall: 0.031\n'
Running: python3 main.py -m GatedGraphConvMLP -ef psd -ntt 30 -bs 4 -hc 64 -lr 0.009 -dr 0.4 -st -wtr -esp 30 -trd test_1
b'Train/Val dataset: DEAPDataset(320) | Test dataset: DEAPDataset(960)\nDevice: cuda\nNumber of classes: 32\nGatedGraphConvMLP(\n  (gconv): GatedGraphConv(64, num_layers=2)\n  (lin1): Linear(in_features=8192, out_features=64, bias=True)\n  (lin2): Linear(in_features=64, out_features=32, bias=True)\n  (lin3): Linear(in_features=32, out_features=16, bias=True)\n  (lin4): Linear(in_features=16, out_features=32, bias=True)\n  (act): Softmax(dim=-1)\n)\nModel parameter count: 560656\nTrain dataset: DEAPDataset(160) | Validation dataset: DEAPDataset(160)\nTraining...\n--Finished training--\nTraining time (s): 15.68\nTotal epochs: 31 ; Model picked from epoch 1\nAverage time per epoch: 0.51\n\n--Testing--\nTest loss: 3.48679\nTest acc: 0.031  \nTest F1: 0.031 \nTest precision: 0.031\nTest recall: 0.031\n'
Running: python3 main.py -m GatedGraphConvMLP -ef psd -ntt 30 -bs 16 -hc 64 -lr 0.009 -dr 0.4 -st -wtr -esp 30 -trd test_1
b'Train/Val dataset: DEAPDataset(320) | Test dataset: DEAPDataset(960)\nDevice: cuda\nNumber of classes: 32\nGatedGraphConvMLP(\n  (gconv): GatedGraphConv(64, num_layers=2)\n  (lin1): Linear(in_features=8192, out_features=64, bias=True)\n  (lin2): Linear(in_features=64, out_features=32, bias=True)\n  (lin3): Linear(in_features=32, out_features=16, bias=True)\n  (lin4): Linear(in_features=16, out_features=32, bias=True)\n  (act): Softmax(dim=-1)\n)\nModel parameter count: 560656\nTrain dataset: DEAPDataset(160) | Validation dataset: DEAPDataset(160)\nTraining...\n--Finished training--\nTraining time (s): 8.19\nTotal epochs: 53 ; Model picked from epoch 23\nAverage time per epoch: 0.15\n\n--Testing--\nTest loss: 3.46290\nTest acc: 0.055  \nTest F1: 0.055 \nTest precision: 0.055\nTest recall: 0.055\n'
Running: python3 main.py -m GatedGraphConvMLP -ef psd -ntt 30 -bs 4 -hc 128 -lr 0.0001 -dr 0 -st -wtr -esp 30 -trd test_1
b'Train/Val dataset: DEAPDataset(320) | Test dataset: DEAPDataset(960)\nDevice: cuda\nNumber of classes: 32\nGatedGraphConvMLP(\n  (gconv): GatedGraphConv(128, num_layers=2)\n  (lin1): Linear(in_features=16384, out_features=128, bias=True)\n  (lin2): Linear(in_features=128, out_features=64, bias=True)\n  (lin3): Linear(in_features=64, out_features=32, bias=True)\n  (lin4): Linear(in_features=32, out_features=32, bias=True)\n  (act): Softmax(dim=-1)\n)\nModel parameter count: 2240512\nTrain dataset: DEAPDataset(160) | Validation dataset: DEAPDataset(160)\nTraining...\n--Finished training--\nTraining time (s): 17.50\nTotal epochs: 40 ; Model picked from epoch 10\nAverage time per epoch: 0.44\n\n--Testing--\nTest loss: 3.35597\nTest acc: 0.165  \nTest F1: 0.165 \nTest precision: 0.165\nTest recall: 0.165\n'
Running: python3 main.py -m GatedGraphConvMLP -ef psd -ntt 30 -bs 16 -hc 128 -lr 0.0001 -dr 0 -st -wtr -esp 30 -trd test_1
b'Train/Val dataset: DEAPDataset(320) | Test dataset: DEAPDataset(960)\nDevice: cuda\nNumber of classes: 32\nGatedGraphConvMLP(\n  (gconv): GatedGraphConv(128, num_layers=2)\n  (lin1): Linear(in_features=16384, out_features=128, bias=True)\n  (lin2): Linear(in_features=128, out_features=64, bias=True)\n  (lin3): Linear(in_features=64, out_features=32, bias=True)\n  (lin4): Linear(in_features=32, out_features=32, bias=True)\n  (act): Softmax(dim=-1)\n)\nModel parameter count: 2240512\nTrain dataset: DEAPDataset(160) | Validation dataset: DEAPDataset(160)\nTraining...\n--Finished training--\nTraining time (s): 13.82\nTotal epochs: 106 ; Model picked from epoch 76\nAverage time per epoch: 0.13\n\n--Testing--\nTest loss: 3.16882\nTest acc: 0.352  \nTest F1: 0.352 \nTest precision: 0.352\nTest recall: 0.352\n'
Running: python3 main.py -m GatedGraphConvMLP -ef psd -ntt 30 -bs 4 -hc 128 -lr 0.0001 -dr 0.4 -st -wtr -esp 30 -trd test_1
b'Train/Val dataset: DEAPDataset(320) | Test dataset: DEAPDataset(960)\nDevice: cuda\nNumber of classes: 32\nGatedGraphConvMLP(\n  (gconv): GatedGraphConv(128, num_layers=2)\n  (lin1): Linear(in_features=16384, out_features=128, bias=True)\n  (lin2): Linear(in_features=128, out_features=64, bias=True)\n  (lin3): Linear(in_features=64, out_features=32, bias=True)\n  (lin4): Linear(in_features=32, out_features=32, bias=True)\n  (act): Softmax(dim=-1)\n)\nModel parameter count: 2240512\nTrain dataset: DEAPDataset(160) | Validation dataset: DEAPDataset(160)\nTraining...\n--Finished training--\nTraining time (s): 12.79\nTotal epochs: 34 ; Model picked from epoch 4\nAverage time per epoch: 0.38\n\n--Testing--\nTest loss: 3.45913\nTest acc: 0.056  \nTest F1: 0.056 \nTest precision: 0.056\nTest recall: 0.056\n'
Running: python3 main.py -m GatedGraphConvMLP -ef psd -ntt 30 -bs 16 -hc 128 -lr 0.0001 -dr 0.4 -st -wtr -esp 30 -trd test_1
b'Train/Val dataset: DEAPDataset(320) | Test dataset: DEAPDataset(960)\nDevice: cuda\nNumber of classes: 32\nGatedGraphConvMLP(\n  (gconv): GatedGraphConv(128, num_layers=2)\n  (lin1): Linear(in_features=16384, out_features=128, bias=True)\n  (lin2): Linear(in_features=128, out_features=64, bias=True)\n  (lin3): Linear(in_features=64, out_features=32, bias=True)\n  (lin4): Linear(in_features=32, out_features=32, bias=True)\n  (act): Softmax(dim=-1)\n)\nModel parameter count: 2240512\nTrain dataset: DEAPDataset(160) | Validation dataset: DEAPDataset(160)\nTraining...\n--Finished training--\nTraining time (s): 24.78\nTotal epochs: 191 ; Model picked from epoch 161\nAverage time per epoch: 0.13\n\n--Testing--\nTest loss: 3.15467\nTest acc: 0.372  \nTest F1: 0.372 \nTest precision: 0.372\nTest recall: 0.372\n'
Running: python3 main.py -m GatedGraphConvMLP -ef psd -ntt 30 -bs 4 -hc 128 -lr 0.0045 -dr 0 -st -wtr -esp 30 -trd test_1
b'Train/Val dataset: DEAPDataset(320) | Test dataset: DEAPDataset(960)\nDevice: cuda\nNumber of classes: 32\nGatedGraphConvMLP(\n  (gconv): GatedGraphConv(128, num_layers=2)\n  (lin1): Linear(in_features=16384, out_features=128, bias=True)\n  (lin2): Linear(in_features=128, out_features=64, bias=True)\n  (lin3): Linear(in_features=64, out_features=32, bias=True)\n  (lin4): Linear(in_features=32, out_features=32, bias=True)\n  (act): Softmax(dim=-1)\n)\nModel parameter count: 2240512\nTrain dataset: DEAPDataset(160) | Validation dataset: DEAPDataset(160)\nTraining...\n--Finished training--\nTraining time (s): 11.58\nTotal epochs: 31 ; Model picked from epoch 1\nAverage time per epoch: 0.37\n\n--Testing--\nTest loss: 3.48679\nTest acc: 0.031  \nTest F1: 0.031 \nTest precision: 0.031\nTest recall: 0.031\n'
Running: python3 main.py -m GatedGraphConvMLP -ef psd -ntt 30 -bs 16 -hc 128 -lr 0.0045 -dr 0 -st -wtr -esp 30 -trd test_1
b'Train/Val dataset: DEAPDataset(320) | Test dataset: DEAPDataset(960)\nDevice: cuda\nNumber of classes: 32\nGatedGraphConvMLP(\n  (gconv): GatedGraphConv(128, num_layers=2)\n  (lin1): Linear(in_features=16384, out_features=128, bias=True)\n  (lin2): Linear(in_features=128, out_features=64, bias=True)\n  (lin3): Linear(in_features=64, out_features=32, bias=True)\n  (lin4): Linear(in_features=32, out_features=32, bias=True)\n  (act): Softmax(dim=-1)\n)\nModel parameter count: 2240512\nTrain dataset: DEAPDataset(160) | Validation dataset: DEAPDataset(160)\nTraining...\n--Finished training--\nTraining time (s): 4.56\nTotal epochs: 31 ; Model picked from epoch 1\nAverage time per epoch: 0.15\n\n--Testing--\nTest loss: 3.48679\nTest acc: 0.031  \nTest F1: 0.031 \nTest precision: 0.031\nTest recall: 0.031\n'
Running: python3 main.py -m GatedGraphConvMLP -ef psd -ntt 30 -bs 4 -hc 128 -lr 0.0045 -dr 0.4 -st -wtr -esp 30 -trd test_1
b'Train/Val dataset: DEAPDataset(320) | Test dataset: DEAPDataset(960)\nDevice: cuda\nNumber of classes: 32\nGatedGraphConvMLP(\n  (gconv): GatedGraphConv(128, num_layers=2)\n  (lin1): Linear(in_features=16384, out_features=128, bias=True)\n  (lin2): Linear(in_features=128, out_features=64, bias=True)\n  (lin3): Linear(in_features=64, out_features=32, bias=True)\n  (lin4): Linear(in_features=32, out_features=32, bias=True)\n  (act): Softmax(dim=-1)\n)\nModel parameter count: 2240512\nTrain dataset: DEAPDataset(160) | Validation dataset: DEAPDataset(160)\nTraining...\n--Finished training--\nTraining time (s): 15.92\nTotal epochs: 31 ; Model picked from epoch 1\nAverage time per epoch: 0.51\n\n--Testing--\nTest loss: 3.48679\nTest acc: 0.031  \nTest F1: 0.031 \nTest precision: 0.031\nTest recall: 0.031\n'
Running: python3 main.py -m GatedGraphConvMLP -ef psd -ntt 30 -bs 16 -hc 128 -lr 0.0045 -dr 0.4 -st -wtr -esp 30 -trd test_1
b'Train/Val dataset: DEAPDataset(320) | Test dataset: DEAPDataset(960)\nDevice: cuda\nNumber of classes: 32\nGatedGraphConvMLP(\n  (gconv): GatedGraphConv(128, num_layers=2)\n  (lin1): Linear(in_features=16384, out_features=128, bias=True)\n  (lin2): Linear(in_features=128, out_features=64, bias=True)\n  (lin3): Linear(in_features=64, out_features=32, bias=True)\n  (lin4): Linear(in_features=32, out_features=32, bias=True)\n  (act): Softmax(dim=-1)\n)\nModel parameter count: 2240512\nTrain dataset: DEAPDataset(160) | Validation dataset: DEAPDataset(160)\nTraining...\n--Finished training--\nTraining time (s): 3.98\nTotal epochs: 31 ; Model picked from epoch 1\nAverage time per epoch: 0.13\n\n--Testing--\nTest loss: 3.48657\nTest acc: 0.031  \nTest F1: 0.031 \nTest precision: 0.031\nTest recall: 0.031\n'
Running: python3 main.py -m GatedGraphConvMLP -ef psd -ntt 30 -bs 4 -hc 128 -lr 0.009 -dr 0 -st -wtr -esp 30 -trd test_1
b'Train/Val dataset: DEAPDataset(320) | Test dataset: DEAPDataset(960)\nDevice: cuda\nNumber of classes: 32\nGatedGraphConvMLP(\n  (gconv): GatedGraphConv(128, num_layers=2)\n  (lin1): Linear(in_features=16384, out_features=128, bias=True)\n  (lin2): Linear(in_features=128, out_features=64, bias=True)\n  (lin3): Linear(in_features=64, out_features=32, bias=True)\n  (lin4): Linear(in_features=32, out_features=32, bias=True)\n  (act): Softmax(dim=-1)\n)\nModel parameter count: 2240512\nTrain dataset: DEAPDataset(160) | Validation dataset: DEAPDataset(160)\nTraining...\n--Finished training--\nTraining time (s): 11.54\nTotal epochs: 31 ; Model picked from epoch 1\nAverage time per epoch: 0.37\n\n--Testing--\nTest loss: 3.48679\nTest acc: 0.031  \nTest F1: 0.031 \nTest precision: 0.031\nTest recall: 0.031\n'
Running: python3 main.py -m GatedGraphConvMLP -ef psd -ntt 30 -bs 16 -hc 128 -lr 0.009 -dr 0 -st -wtr -esp 30 -trd test_1
b'Train/Val dataset: DEAPDataset(320) | Test dataset: DEAPDataset(960)\nDevice: cuda\nNumber of classes: 32\nGatedGraphConvMLP(\n  (gconv): GatedGraphConv(128, num_layers=2)\n  (lin1): Linear(in_features=16384, out_features=128, bias=True)\n  (lin2): Linear(in_features=128, out_features=64, bias=True)\n  (lin3): Linear(in_features=64, out_features=32, bias=True)\n  (lin4): Linear(in_features=32, out_features=32, bias=True)\n  (act): Softmax(dim=-1)\n)\nModel parameter count: 2240512\nTrain dataset: DEAPDataset(160) | Validation dataset: DEAPDataset(160)\nTraining...\n--Finished training--\nTraining time (s): 4.04\nTotal epochs: 31 ; Model picked from epoch 1\nAverage time per epoch: 0.13\n\n--Testing--\nTest loss: 3.48679\nTest acc: 0.031  \nTest F1: 0.031 \nTest precision: 0.031\nTest recall: 0.031\n'
Running: python3 main.py -m GatedGraphConvMLP -ef psd -ntt 30 -bs 4 -hc 128 -lr 0.009 -dr 0.4 -st -wtr -esp 30 -trd test_1
b'Train/Val dataset: DEAPDataset(320) | Test dataset: DEAPDataset(960)\nDevice: cuda\nNumber of classes: 32\nGatedGraphConvMLP(\n  (gconv): GatedGraphConv(128, num_layers=2)\n  (lin1): Linear(in_features=16384, out_features=128, bias=True)\n  (lin2): Linear(in_features=128, out_features=64, bias=True)\n  (lin3): Linear(in_features=64, out_features=32, bias=True)\n  (lin4): Linear(in_features=32, out_features=32, bias=True)\n  (act): Softmax(dim=-1)\n)\nModel parameter count: 2240512\nTrain dataset: DEAPDataset(160) | Validation dataset: DEAPDataset(160)\nTraining...\n--Finished training--\nTraining time (s): 11.65\nTotal epochs: 31 ; Model picked from epoch 1\nAverage time per epoch: 0.38\n\n--Testing--\nTest loss: 3.48679\nTest acc: 0.031  \nTest F1: 0.031 \nTest precision: 0.031\nTest recall: 0.031\n'
Running: python3 main.py -m GatedGraphConvMLP -ef psd -ntt 30 -bs 16 -hc 128 -lr 0.009 -dr 0.4 -st -wtr -esp 30 -trd test_1
b'Train/Val dataset: DEAPDataset(320) | Test dataset: DEAPDataset(960)\nDevice: cuda\nNumber of classes: 32\nGatedGraphConvMLP(\n  (gconv): GatedGraphConv(128, num_layers=2)\n  (lin1): Linear(in_features=16384, out_features=128, bias=True)\n  (lin2): Linear(in_features=128, out_features=64, bias=True)\n  (lin3): Linear(in_features=64, out_features=32, bias=True)\n  (lin4): Linear(in_features=32, out_features=32, bias=True)\n  (act): Softmax(dim=-1)\n)\nModel parameter count: 2240512\nTrain dataset: DEAPDataset(160) | Validation dataset: DEAPDataset(160)\nTraining...\n--Finished training--\nTraining time (s): 3.75\nTotal epochs: 31 ; Model picked from epoch 1\nAverage time per epoch: 0.12\n\n--Testing--\nTest loss: 3.48256\nTest acc: 0.035  \nTest F1: 0.035 \nTest precision: 0.035\nTest recall: 0.035\n'
Running: python3 main.py -m GatedGraphConvMLP -ef psd -ntt 34 -bs 4 -hc 16 -lr 0.0001 -dr 0 -st -wtr -esp 30 -trd test_1
b'Train/Val dataset: DEAPDataset(192) | Test dataset: DEAPDataset(1088)\nDevice: cuda\nNumber of classes: 32\nGatedGraphConvMLP(\n  (gconv): GatedGraphConv(60, num_layers=2)\n  (lin1): Linear(in_features=7680, out_features=16, bias=True)\n  (lin2): Linear(in_features=16, out_features=8, bias=True)\n  (lin3): Linear(in_features=8, out_features=4, bias=True)\n  (lin4): Linear(in_features=4, out_features=32, bias=True)\n  (act): Softmax(dim=-1)\n)\nModel parameter count: 152388\nTrain dataset: DEAPDataset(32) | Validation dataset: DEAPDataset(160)\nTraining...\n--Finished training--\nTraining time (s): 16.28\nTotal epochs: 62 ; Model picked from epoch 32\nAverage time per epoch: 0.26\n\n--Testing--\nTest loss: 3.42984\nTest acc: 0.070  \nTest F1: 0.070 \nTest precision: 0.070\nTest recall: 0.070\n'
Running: python3 main.py -m GatedGraphConvMLP -ef psd -ntt 34 -bs 16 -hc 16 -lr 0.0001 -dr 0 -st -wtr -esp 30 -trd test_1
b'Train/Val dataset: DEAPDataset(192) | Test dataset: DEAPDataset(1088)\nDevice: cuda\nNumber of classes: 32\nGatedGraphConvMLP(\n  (gconv): GatedGraphConv(60, num_layers=2)\n  (lin1): Linear(in_features=7680, out_features=16, bias=True)\n  (lin2): Linear(in_features=16, out_features=8, bias=True)\n  (lin3): Linear(in_features=8, out_features=4, bias=True)\n  (lin4): Linear(in_features=4, out_features=32, bias=True)\n  (act): Softmax(dim=-1)\n)\nModel parameter count: 152388\nTrain dataset: DEAPDataset(32) | Validation dataset: DEAPDataset(160)\nTraining...\n--Finished training--\nTraining time (s): 4.86\nTotal epochs: 84 ; Model picked from epoch 54\nAverage time per epoch: 0.06\n\n--Testing--\nTest loss: 3.43544\nTest acc: 0.072  \nTest F1: 0.072 \nTest precision: 0.072\nTest recall: 0.072\n'
Running: python3 main.py -m GatedGraphConvMLP -ef psd -ntt 34 -bs 4 -hc 16 -lr 0.0001 -dr 0.4 -st -wtr -esp 30 -trd test_1
b'Train/Val dataset: DEAPDataset(192) | Test dataset: DEAPDataset(1088)\nDevice: cuda\nNumber of classes: 32\nGatedGraphConvMLP(\n  (gconv): GatedGraphConv(60, num_layers=2)\n  (lin1): Linear(in_features=7680, out_features=16, bias=True)\n  (lin2): Linear(in_features=16, out_features=8, bias=True)\n  (lin3): Linear(in_features=8, out_features=4, bias=True)\n  (lin4): Linear(in_features=4, out_features=32, bias=True)\n  (act): Softmax(dim=-1)\n)\nModel parameter count: 152388\nTrain dataset: DEAPDataset(32) | Validation dataset: DEAPDataset(160)\nTraining...\n--Finished training--\nTraining time (s): 7.24\nTotal epochs: 43 ; Model picked from epoch 13\nAverage time per epoch: 0.17\n\n--Testing--\nTest loss: 3.44529\nTest acc: 0.052  \nTest F1: 0.052 \nTest precision: 0.052\nTest recall: 0.052\n'
Running: python3 main.py -m GatedGraphConvMLP -ef psd -ntt 34 -bs 16 -hc 16 -lr 0.0001 -dr 0.4 -st -wtr -esp 30 -trd test_1
b'Train/Val dataset: DEAPDataset(192) | Test dataset: DEAPDataset(1088)\nDevice: cuda\nNumber of classes: 32\nGatedGraphConvMLP(\n  (gconv): GatedGraphConv(60, num_layers=2)\n  (lin1): Linear(in_features=7680, out_features=16, bias=True)\n  (lin2): Linear(in_features=16, out_features=8, bias=True)\n  (lin3): Linear(in_features=8, out_features=4, bias=True)\n  (lin4): Linear(in_features=4, out_features=32, bias=True)\n  (act): Softmax(dim=-1)\n)\nModel parameter count: 152388\nTrain dataset: DEAPDataset(32) | Validation dataset: DEAPDataset(160)\nTraining...\n--Finished training--\nTraining time (s): 6.59\nTotal epochs: 114 ; Model picked from epoch 84\nAverage time per epoch: 0.06\n\n--Testing--\nTest loss: 3.43998\nTest acc: 0.073  \nTest F1: 0.073 \nTest precision: 0.073\nTest recall: 0.073\n'
Running: python3 main.py -m GatedGraphConvMLP -ef psd -ntt 34 -bs 4 -hc 16 -lr 0.0045 -dr 0 -st -wtr -esp 30 -trd test_1
b'Train/Val dataset: DEAPDataset(192) | Test dataset: DEAPDataset(1088)\nDevice: cuda\nNumber of classes: 32\nGatedGraphConvMLP(\n  (gconv): GatedGraphConv(60, num_layers=2)\n  (lin1): Linear(in_features=7680, out_features=16, bias=True)\n  (lin2): Linear(in_features=16, out_features=8, bias=True)\n  (lin3): Linear(in_features=8, out_features=4, bias=True)\n  (lin4): Linear(in_features=4, out_features=32, bias=True)\n  (act): Softmax(dim=-1)\n)\nModel parameter count: 152388\nTrain dataset: DEAPDataset(32) | Validation dataset: DEAPDataset(160)\nTraining...\n--Finished training--\nTraining time (s): 5.81\nTotal epochs: 34 ; Model picked from epoch 4\nAverage time per epoch: 0.17\n\n--Testing--\nTest loss: 3.46445\nTest acc: 0.052  \nTest F1: 0.052 \nTest precision: 0.052\nTest recall: 0.052\n'
Running: python3 main.py -m GatedGraphConvMLP -ef psd -ntt 34 -bs 16 -hc 16 -lr 0.0045 -dr 0 -st -wtr -esp 30 -trd test_1
b'Train/Val dataset: DEAPDataset(192) | Test dataset: DEAPDataset(1088)\nDevice: cuda\nNumber of classes: 32\nGatedGraphConvMLP(\n  (gconv): GatedGraphConv(60, num_layers=2)\n  (lin1): Linear(in_features=7680, out_features=16, bias=True)\n  (lin2): Linear(in_features=16, out_features=8, bias=True)\n  (lin3): Linear(in_features=8, out_features=4, bias=True)\n  (lin4): Linear(in_features=4, out_features=32, bias=True)\n  (act): Softmax(dim=-1)\n)\nModel parameter count: 152388\nTrain dataset: DEAPDataset(32) | Validation dataset: DEAPDataset(160)\nTraining...\n--Finished training--\nTraining time (s): 10.28\nTotal epochs: 171 ; Model picked from epoch 141\nAverage time per epoch: 0.06\n\n--Testing--\nTest loss: 3.44459\nTest acc: 0.054  \nTest F1: 0.054 \nTest precision: 0.054\nTest recall: 0.054\n'
Running: python3 main.py -m GatedGraphConvMLP -ef psd -ntt 34 -bs 4 -hc 16 -lr 0.0045 -dr 0.4 -st -wtr -esp 30 -trd test_1
b'Train/Val dataset: DEAPDataset(192) | Test dataset: DEAPDataset(1088)\nDevice: cuda\nNumber of classes: 32\nGatedGraphConvMLP(\n  (gconv): GatedGraphConv(60, num_layers=2)\n  (lin1): Linear(in_features=7680, out_features=16, bias=True)\n  (lin2): Linear(in_features=16, out_features=8, bias=True)\n  (lin3): Linear(in_features=8, out_features=4, bias=True)\n  (lin4): Linear(in_features=4, out_features=32, bias=True)\n  (act): Softmax(dim=-1)\n)\nModel parameter count: 152388\nTrain dataset: DEAPDataset(32) | Validation dataset: DEAPDataset(160)\nTraining...\n--Finished training--\nTraining time (s): 9.90\nTotal epochs: 42 ; Model picked from epoch 12\nAverage time per epoch: 0.24\n\n--Testing--\nTest loss: 3.48673\nTest acc: 0.031  \nTest F1: 0.031 \nTest precision: 0.031\nTest recall: 0.031\n'
Running: python3 main.py -m GatedGraphConvMLP -ef psd -ntt 34 -bs 16 -hc 16 -lr 0.0045 -dr 0.4 -st -wtr -esp 30 -trd test_1
b'Train/Val dataset: DEAPDataset(192) | Test dataset: DEAPDataset(1088)\nDevice: cuda\nNumber of classes: 32\nGatedGraphConvMLP(\n  (gconv): GatedGraphConv(60, num_layers=2)\n  (lin1): Linear(in_features=7680, out_features=16, bias=True)\n  (lin2): Linear(in_features=16, out_features=8, bias=True)\n  (lin3): Linear(in_features=8, out_features=4, bias=True)\n  (lin4): Linear(in_features=4, out_features=32, bias=True)\n  (act): Softmax(dim=-1)\n)\nModel parameter count: 152388\nTrain dataset: DEAPDataset(32) | Validation dataset: DEAPDataset(160)\nTraining...\n--Finished training--\nTraining time (s): 2.03\nTotal epochs: 34 ; Model picked from epoch 4\nAverage time per epoch: 0.06\n\n--Testing--\nTest loss: 3.49064\nTest acc: 0.034  \nTest F1: 0.034 \nTest precision: 0.034\nTest recall: 0.034\n'
Running: python3 main.py -m GatedGraphConvMLP -ef psd -ntt 34 -bs 4 -hc 16 -lr 0.009 -dr 0 -st -wtr -esp 30 -trd test_1
b'Train/Val dataset: DEAPDataset(192) | Test dataset: DEAPDataset(1088)\nDevice: cuda\nNumber of classes: 32\nGatedGraphConvMLP(\n  (gconv): GatedGraphConv(60, num_layers=2)\n  (lin1): Linear(in_features=7680, out_features=16, bias=True)\n  (lin2): Linear(in_features=16, out_features=8, bias=True)\n  (lin3): Linear(in_features=8, out_features=4, bias=True)\n  (lin4): Linear(in_features=4, out_features=32, bias=True)\n  (act): Softmax(dim=-1)\n)\nModel parameter count: 152388\nTrain dataset: DEAPDataset(32) | Validation dataset: DEAPDataset(160)\nTraining...\n--Finished training--\nTraining time (s): 5.88\nTotal epochs: 34 ; Model picked from epoch 4\nAverage time per epoch: 0.17\n\n--Testing--\nTest loss: 3.45346\nTest acc: 0.054  \nTest F1: 0.054 \nTest precision: 0.054\nTest recall: 0.054\n'
Running: python3 main.py -m GatedGraphConvMLP -ef psd -ntt 34 -bs 16 -hc 16 -lr 0.009 -dr 0 -st -wtr -esp 30 -trd test_1
b'Train/Val dataset: DEAPDataset(192) | Test dataset: DEAPDataset(1088)\nDevice: cuda\nNumber of classes: 32\nGatedGraphConvMLP(\n  (gconv): GatedGraphConv(60, num_layers=2)\n  (lin1): Linear(in_features=7680, out_features=16, bias=True)\n  (lin2): Linear(in_features=16, out_features=8, bias=True)\n  (lin3): Linear(in_features=8, out_features=4, bias=True)\n  (lin4): Linear(in_features=4, out_features=32, bias=True)\n  (act): Softmax(dim=-1)\n)\nModel parameter count: 152388\nTrain dataset: DEAPDataset(32) | Validation dataset: DEAPDataset(160)\nTraining...\n--Finished training--\nTraining time (s): 1.94\nTotal epochs: 32 ; Model picked from epoch 2\nAverage time per epoch: 0.06\n\n--Testing--\nTest loss: 3.46163\nTest acc: 0.049  \nTest F1: 0.049 \nTest precision: 0.049\nTest recall: 0.049\n'
Running: python3 main.py -m GatedGraphConvMLP -ef psd -ntt 34 -bs 4 -hc 16 -lr 0.009 -dr 0.4 -st -wtr -esp 30 -trd test_1
b'Train/Val dataset: DEAPDataset(192) | Test dataset: DEAPDataset(1088)\nDevice: cuda\nNumber of classes: 32\nGatedGraphConvMLP(\n  (gconv): GatedGraphConv(60, num_layers=2)\n  (lin1): Linear(in_features=7680, out_features=16, bias=True)\n  (lin2): Linear(in_features=16, out_features=8, bias=True)\n  (lin3): Linear(in_features=8, out_features=4, bias=True)\n  (lin4): Linear(in_features=4, out_features=32, bias=True)\n  (act): Softmax(dim=-1)\n)\nModel parameter count: 152388\nTrain dataset: DEAPDataset(32) | Validation dataset: DEAPDataset(160)\nTraining...\n--Finished training--\nTraining time (s): 5.60\nTotal epochs: 32 ; Model picked from epoch 2\nAverage time per epoch: 0.18\n\n--Testing--\nTest loss: 3.46491\nTest acc: 0.030  \nTest F1: 0.030 \nTest precision: 0.030\nTest recall: 0.030\n'
Running: python3 main.py -m GatedGraphConvMLP -ef psd -ntt 34 -bs 16 -hc 16 -lr 0.009 -dr 0.4 -st -wtr -esp 30 -trd test_1
b'Train/Val dataset: DEAPDataset(192) | Test dataset: DEAPDataset(1088)\nDevice: cuda\nNumber of classes: 32\nGatedGraphConvMLP(\n  (gconv): GatedGraphConv(60, num_layers=2)\n  (lin1): Linear(in_features=7680, out_features=16, bias=True)\n  (lin2): Linear(in_features=16, out_features=8, bias=True)\n  (lin3): Linear(in_features=8, out_features=4, bias=True)\n  (lin4): Linear(in_features=4, out_features=32, bias=True)\n  (act): Softmax(dim=-1)\n)\nModel parameter count: 152388\nTrain dataset: DEAPDataset(32) | Validation dataset: DEAPDataset(160)\nTraining...\n--Finished training--\nTraining time (s): 2.90\nTotal epochs: 49 ; Model picked from epoch 19\nAverage time per epoch: 0.06\n\n--Testing--\nTest loss: 3.46463\nTest acc: 0.049  \nTest F1: 0.049 \nTest precision: 0.049\nTest recall: 0.049\n'
Running: python3 main.py -m GatedGraphConvMLP -ef psd -ntt 34 -bs 4 -hc 64 -lr 0.0001 -dr 0 -st -wtr -esp 30 -trd test_1
b'Train/Val dataset: DEAPDataset(192) | Test dataset: DEAPDataset(1088)\nDevice: cuda\nNumber of classes: 32\nGatedGraphConvMLP(\n  (gconv): GatedGraphConv(64, num_layers=2)\n  (lin1): Linear(in_features=8192, out_features=64, bias=True)\n  (lin2): Linear(in_features=64, out_features=32, bias=True)\n  (lin3): Linear(in_features=32, out_features=16, bias=True)\n  (lin4): Linear(in_features=16, out_features=32, bias=True)\n  (act): Softmax(dim=-1)\n)\nModel parameter count: 560656\nTrain dataset: DEAPDataset(32) | Validation dataset: DEAPDataset(160)\nTraining...\n--Finished training--\nTraining time (s): 13.59\nTotal epochs: 66 ; Model picked from epoch 36\nAverage time per epoch: 0.21\n\n--Testing--\nTest loss: 3.40112\nTest acc: 0.126  \nTest F1: 0.126 \nTest precision: 0.126\nTest recall: 0.126\n'
Running: python3 main.py -m GatedGraphConvMLP -ef psd -ntt 34 -bs 16 -hc 64 -lr 0.0001 -dr 0 -st -wtr -esp 30 -trd test_1
b'Train/Val dataset: DEAPDataset(192) | Test dataset: DEAPDataset(1088)\nDevice: cuda\nNumber of classes: 32\nGatedGraphConvMLP(\n  (gconv): GatedGraphConv(64, num_layers=2)\n  (lin1): Linear(in_features=8192, out_features=64, bias=True)\n  (lin2): Linear(in_features=64, out_features=32, bias=True)\n  (lin3): Linear(in_features=32, out_features=16, bias=True)\n  (lin4): Linear(in_features=16, out_features=32, bias=True)\n  (act): Softmax(dim=-1)\n)\nModel parameter count: 560656\nTrain dataset: DEAPDataset(32) | Validation dataset: DEAPDataset(160)\nTraining...\n--Finished training--\nTraining time (s): 3.41\nTotal epochs: 41 ; Model picked from epoch 11\nAverage time per epoch: 0.08\n\n--Testing--\nTest loss: 3.44249\nTest acc: 0.075  \nTest F1: 0.075 \nTest precision: 0.075\nTest recall: 0.075\n'
Running: python3 main.py -m GatedGraphConvMLP -ef psd -ntt 34 -bs 4 -hc 64 -lr 0.0001 -dr 0.4 -st -wtr -esp 30 -trd test_1
b'Train/Val dataset: DEAPDataset(192) | Test dataset: DEAPDataset(1088)\nDevice: cuda\nNumber of classes: 32\nGatedGraphConvMLP(\n  (gconv): GatedGraphConv(64, num_layers=2)\n  (lin1): Linear(in_features=8192, out_features=64, bias=True)\n  (lin2): Linear(in_features=64, out_features=32, bias=True)\n  (lin3): Linear(in_features=32, out_features=16, bias=True)\n  (lin4): Linear(in_features=16, out_features=32, bias=True)\n  (act): Softmax(dim=-1)\n)\nModel parameter count: 560656\nTrain dataset: DEAPDataset(32) | Validation dataset: DEAPDataset(160)\nTraining...\n--Finished training--\nTraining time (s): 4.30\nTotal epochs: 31 ; Model picked from epoch 1\nAverage time per epoch: 0.14\n\n--Testing--\nTest loss: 3.46867\nTest acc: 0.045  \nTest F1: 0.045 \nTest precision: 0.045\nTest recall: 0.045\n'
Running: python3 main.py -m GatedGraphConvMLP -ef psd -ntt 34 -bs 16 -hc 64 -lr 0.0001 -dr 0.4 -st -wtr -esp 30 -trd test_1
b'Train/Val dataset: DEAPDataset(192) | Test dataset: DEAPDataset(1088)\nDevice: cuda\nNumber of classes: 32\nGatedGraphConvMLP(\n  (gconv): GatedGraphConv(64, num_layers=2)\n  (lin1): Linear(in_features=8192, out_features=64, bias=True)\n  (lin2): Linear(in_features=64, out_features=32, bias=True)\n  (lin3): Linear(in_features=32, out_features=16, bias=True)\n  (lin4): Linear(in_features=16, out_features=32, bias=True)\n  (act): Softmax(dim=-1)\n)\nModel parameter count: 560656\nTrain dataset: DEAPDataset(32) | Validation dataset: DEAPDataset(160)\nTraining...\n--Finished training--\nTraining time (s): 7.93\nTotal epochs: 159 ; Model picked from epoch 129\nAverage time per epoch: 0.05\n\n--Testing--\nTest loss: 3.41434\nTest acc: 0.104  \nTest F1: 0.104 \nTest precision: 0.104\nTest recall: 0.104\n'
Running: python3 main.py -m GatedGraphConvMLP -ef psd -ntt 34 -bs 4 -hc 64 -lr 0.0045 -dr 0 -st -wtr -esp 30 -trd test_1
b'Train/Val dataset: DEAPDataset(192) | Test dataset: DEAPDataset(1088)\nDevice: cuda\nNumber of classes: 32\nGatedGraphConvMLP(\n  (gconv): GatedGraphConv(64, num_layers=2)\n  (lin1): Linear(in_features=8192, out_features=64, bias=True)\n  (lin2): Linear(in_features=64, out_features=32, bias=True)\n  (lin3): Linear(in_features=32, out_features=16, bias=True)\n  (lin4): Linear(in_features=16, out_features=32, bias=True)\n  (act): Softmax(dim=-1)\n)\nModel parameter count: 560656\nTrain dataset: DEAPDataset(32) | Validation dataset: DEAPDataset(160)\nTraining...\n--Finished training--\nTraining time (s): 4.34\nTotal epochs: 31 ; Model picked from epoch 1\nAverage time per epoch: 0.14\n\n--Testing--\nTest loss: 3.48679\nTest acc: 0.031  \nTest F1: 0.031 \nTest precision: 0.031\nTest recall: 0.031\n'
Running: python3 main.py -m GatedGraphConvMLP -ef psd -ntt 34 -bs 16 -hc 64 -lr 0.0045 -dr 0 -st -wtr -esp 30 -trd test_1
b'Train/Val dataset: DEAPDataset(192) | Test dataset: DEAPDataset(1088)\nDevice: cuda\nNumber of classes: 32\nGatedGraphConvMLP(\n  (gconv): GatedGraphConv(64, num_layers=2)\n  (lin1): Linear(in_features=8192, out_features=64, bias=True)\n  (lin2): Linear(in_features=64, out_features=32, bias=True)\n  (lin3): Linear(in_features=32, out_features=16, bias=True)\n  (lin4): Linear(in_features=16, out_features=32, bias=True)\n  (act): Softmax(dim=-1)\n)\nModel parameter count: 560656\nTrain dataset: DEAPDataset(32) | Validation dataset: DEAPDataset(160)\nTraining...\n--Finished training--\nTraining time (s): 1.63\nTotal epochs: 32 ; Model picked from epoch 2\nAverage time per epoch: 0.05\n\n--Testing--\nTest loss: 3.48679\nTest acc: 0.031  \nTest F1: 0.031 \nTest precision: 0.031\nTest recall: 0.031\n'
Running: python3 main.py -m GatedGraphConvMLP -ef psd -ntt 34 -bs 4 -hc 64 -lr 0.0045 -dr 0.4 -st -wtr -esp 30 -trd test_1
b'Train/Val dataset: DEAPDataset(192) | Test dataset: DEAPDataset(1088)\nDevice: cuda\nNumber of classes: 32\nGatedGraphConvMLP(\n  (gconv): GatedGraphConv(64, num_layers=2)\n  (lin1): Linear(in_features=8192, out_features=64, bias=True)\n  (lin2): Linear(in_features=64, out_features=32, bias=True)\n  (lin3): Linear(in_features=32, out_features=16, bias=True)\n  (lin4): Linear(in_features=16, out_features=32, bias=True)\n  (act): Softmax(dim=-1)\n)\nModel parameter count: 560656\nTrain dataset: DEAPDataset(32) | Validation dataset: DEAPDataset(160)\nTraining...\n--Finished training--\nTraining time (s): 5.06\nTotal epochs: 36 ; Model picked from epoch 6\nAverage time per epoch: 0.14\n\n--Testing--\nTest loss: 3.46821\nTest acc: 0.051  \nTest F1: 0.051 \nTest precision: 0.051\nTest recall: 0.051\n'
Running: python3 main.py -m GatedGraphConvMLP -ef psd -ntt 34 -bs 16 -hc 64 -lr 0.0045 -dr 0.4 -st -wtr -esp 30 -trd test_1
b'Train/Val dataset: DEAPDataset(192) | Test dataset: DEAPDataset(1088)\nDevice: cuda\nNumber of classes: 32\nGatedGraphConvMLP(\n  (gconv): GatedGraphConv(64, num_layers=2)\n  (lin1): Linear(in_features=8192, out_features=64, bias=True)\n  (lin2): Linear(in_features=64, out_features=32, bias=True)\n  (lin3): Linear(in_features=32, out_features=16, bias=True)\n  (lin4): Linear(in_features=16, out_features=32, bias=True)\n  (act): Softmax(dim=-1)\n)\nModel parameter count: 560656\nTrain dataset: DEAPDataset(32) | Validation dataset: DEAPDataset(160)\nTraining...\n--Finished training--\nTraining time (s): 1.66\nTotal epochs: 33 ; Model picked from epoch 3\nAverage time per epoch: 0.05\n\n--Testing--\nTest loss: 3.47721\nTest acc: 0.035  \nTest F1: 0.035 \nTest precision: 0.035\nTest recall: 0.035\n'
Running: python3 main.py -m GatedGraphConvMLP -ef psd -ntt 34 -bs 4 -hc 64 -lr 0.009 -dr 0 -st -wtr -esp 30 -trd test_1
b'Train/Val dataset: DEAPDataset(192) | Test dataset: DEAPDataset(1088)\nDevice: cuda\nNumber of classes: 32\nGatedGraphConvMLP(\n  (gconv): GatedGraphConv(64, num_layers=2)\n  (lin1): Linear(in_features=8192, out_features=64, bias=True)\n  (lin2): Linear(in_features=64, out_features=32, bias=True)\n  (lin3): Linear(in_features=32, out_features=16, bias=True)\n  (lin4): Linear(in_features=16, out_features=32, bias=True)\n  (act): Softmax(dim=-1)\n)\nModel parameter count: 560656\nTrain dataset: DEAPDataset(32) | Validation dataset: DEAPDataset(160)\nTraining...\n--Finished training--\nTraining time (s): 4.33\nTotal epochs: 31 ; Model picked from epoch 1\nAverage time per epoch: 0.14\n\n--Testing--\nTest loss: 3.48679\nTest acc: 0.031  \nTest F1: 0.031 \nTest precision: 0.031\nTest recall: 0.031\n'
Running: python3 main.py -m GatedGraphConvMLP -ef psd -ntt 34 -bs 16 -hc 64 -lr 0.009 -dr 0 -st -wtr -esp 30 -trd test_1
b'Train/Val dataset: DEAPDataset(192) | Test dataset: DEAPDataset(1088)\nDevice: cuda\nNumber of classes: 32\nGatedGraphConvMLP(\n  (gconv): GatedGraphConv(64, num_layers=2)\n  (lin1): Linear(in_features=8192, out_features=64, bias=True)\n  (lin2): Linear(in_features=64, out_features=32, bias=True)\n  (lin3): Linear(in_features=32, out_features=16, bias=True)\n  (lin4): Linear(in_features=16, out_features=32, bias=True)\n  (act): Softmax(dim=-1)\n)\nModel parameter count: 560656\nTrain dataset: DEAPDataset(32) | Validation dataset: DEAPDataset(160)\nTraining...\n--Finished training--\nTraining time (s): 1.57\nTotal epochs: 31 ; Model picked from epoch 1\nAverage time per epoch: 0.05\n\n--Testing--\nTest loss: 3.48587\nTest acc: 0.032  \nTest F1: 0.032 \nTest precision: 0.032\nTest recall: 0.032\n'
Running: python3 main.py -m GatedGraphConvMLP -ef psd -ntt 34 -bs 4 -hc 64 -lr 0.009 -dr 0.4 -st -wtr -esp 30 -trd test_1
b'Train/Val dataset: DEAPDataset(192) | Test dataset: DEAPDataset(1088)\nDevice: cuda\nNumber of classes: 32\nGatedGraphConvMLP(\n  (gconv): GatedGraphConv(64, num_layers=2)\n  (lin1): Linear(in_features=8192, out_features=64, bias=True)\n  (lin2): Linear(in_features=64, out_features=32, bias=True)\n  (lin3): Linear(in_features=32, out_features=16, bias=True)\n  (lin4): Linear(in_features=16, out_features=32, bias=True)\n  (act): Softmax(dim=-1)\n)\nModel parameter count: 560656\nTrain dataset: DEAPDataset(32) | Validation dataset: DEAPDataset(160)\nTraining...\n--Finished training--\nTraining time (s): 4.36\nTotal epochs: 31 ; Model picked from epoch 1\nAverage time per epoch: 0.14\n\n--Testing--\nTest loss: 3.48679\nTest acc: 0.031  \nTest F1: 0.031 \nTest precision: 0.031\nTest recall: 0.031\n'
Running: python3 main.py -m GatedGraphConvMLP -ef psd -ntt 34 -bs 16 -hc 64 -lr 0.009 -dr 0.4 -st -wtr -esp 30 -trd test_1
b'Train/Val dataset: DEAPDataset(192) | Test dataset: DEAPDataset(1088)\nDevice: cuda\nNumber of classes: 32\nGatedGraphConvMLP(\n  (gconv): GatedGraphConv(64, num_layers=2)\n  (lin1): Linear(in_features=8192, out_features=64, bias=True)\n  (lin2): Linear(in_features=64, out_features=32, bias=True)\n  (lin3): Linear(in_features=32, out_features=16, bias=True)\n  (lin4): Linear(in_features=16, out_features=32, bias=True)\n  (act): Softmax(dim=-1)\n)\nModel parameter count: 560656\nTrain dataset: DEAPDataset(32) | Validation dataset: DEAPDataset(160)\nTraining...\n--Finished training--\nTraining time (s): 1.57\nTotal epochs: 31 ; Model picked from epoch 1\nAverage time per epoch: 0.05\n\n--Testing--\nTest loss: 3.47617\nTest acc: 0.041  \nTest F1: 0.041 \nTest precision: 0.041\nTest recall: 0.041\n'
Running: python3 main.py -m GatedGraphConvMLP -ef psd -ntt 34 -bs 4 -hc 128 -lr 0.0001 -dr 0 -st -wtr -esp 30 -trd test_1
b'Train/Val dataset: DEAPDataset(192) | Test dataset: DEAPDataset(1088)\nDevice: cuda\nNumber of classes: 32\nGatedGraphConvMLP(\n  (gconv): GatedGraphConv(128, num_layers=2)\n  (lin1): Linear(in_features=16384, out_features=128, bias=True)\n  (lin2): Linear(in_features=128, out_features=64, bias=True)\n  (lin3): Linear(in_features=64, out_features=32, bias=True)\n  (lin4): Linear(in_features=32, out_features=32, bias=True)\n  (act): Softmax(dim=-1)\n)\nModel parameter count: 2240512\nTrain dataset: DEAPDataset(32) | Validation dataset: DEAPDataset(160)\nTraining...\n--Finished training--\nTraining time (s): 6.87\nTotal epochs: 47 ; Model picked from epoch 17\nAverage time per epoch: 0.15\n\n--Testing--\nTest loss: 3.42086\nTest acc: 0.103  \nTest F1: 0.103 \nTest precision: 0.103\nTest recall: 0.103\n'
Running: python3 main.py -m GatedGraphConvMLP -ef psd -ntt 34 -bs 16 -hc 128 -lr 0.0001 -dr 0 -st -wtr -esp 30 -trd test_1
b'Train/Val dataset: DEAPDataset(192) | Test dataset: DEAPDataset(1088)\nDevice: cuda\nNumber of classes: 32\nGatedGraphConvMLP(\n  (gconv): GatedGraphConv(128, num_layers=2)\n  (lin1): Linear(in_features=16384, out_features=128, bias=True)\n  (lin2): Linear(in_features=128, out_features=64, bias=True)\n  (lin3): Linear(in_features=64, out_features=32, bias=True)\n  (lin4): Linear(in_features=32, out_features=32, bias=True)\n  (act): Softmax(dim=-1)\n)\nModel parameter count: 2240512\nTrain dataset: DEAPDataset(32) | Validation dataset: DEAPDataset(160)\nTraining...\n--Finished training--\nTraining time (s): 3.48\nTotal epochs: 59 ; Model picked from epoch 29\nAverage time per epoch: 0.06\n\n--Testing--\nTest loss: 3.33866\nTest acc: 0.192  \nTest F1: 0.192 \nTest precision: 0.192\nTest recall: 0.192\n'
Running: python3 main.py -m GatedGraphConvMLP -ef psd -ntt 34 -bs 4 -hc 128 -lr 0.0001 -dr 0.4 -st -wtr -esp 30 -trd test_1
b'Train/Val dataset: DEAPDataset(192) | Test dataset: DEAPDataset(1088)\nDevice: cuda\nNumber of classes: 32\nGatedGraphConvMLP(\n  (gconv): GatedGraphConv(128, num_layers=2)\n  (lin1): Linear(in_features=16384, out_features=128, bias=True)\n  (lin2): Linear(in_features=128, out_features=64, bias=True)\n  (lin3): Linear(in_features=64, out_features=32, bias=True)\n  (lin4): Linear(in_features=32, out_features=32, bias=True)\n  (act): Softmax(dim=-1)\n)\nModel parameter count: 2240512\nTrain dataset: DEAPDataset(32) | Validation dataset: DEAPDataset(160)\nTraining...\n--Finished training--\nTraining time (s): 11.36\nTotal epochs: 81 ; Model picked from epoch 51\nAverage time per epoch: 0.14\n\n--Testing--\nTest loss: 3.38886\nTest acc: 0.131  \nTest F1: 0.131 \nTest precision: 0.131\nTest recall: 0.131\n'
Running: python3 main.py -m GatedGraphConvMLP -ef psd -ntt 34 -bs 16 -hc 128 -lr 0.0001 -dr 0.4 -st -wtr -esp 30 -trd test_1
b'Train/Val dataset: DEAPDataset(192) | Test dataset: DEAPDataset(1088)\nDevice: cuda\nNumber of classes: 32\nGatedGraphConvMLP(\n  (gconv): GatedGraphConv(128, num_layers=2)\n  (lin1): Linear(in_features=16384, out_features=128, bias=True)\n  (lin2): Linear(in_features=128, out_features=64, bias=True)\n  (lin3): Linear(in_features=64, out_features=32, bias=True)\n  (lin4): Linear(in_features=32, out_features=32, bias=True)\n  (act): Softmax(dim=-1)\n)\nModel parameter count: 2240512\nTrain dataset: DEAPDataset(32) | Validation dataset: DEAPDataset(160)\nTraining...\n--Finished training--\nTraining time (s): 7.85\nTotal epochs: 141 ; Model picked from epoch 111\nAverage time per epoch: 0.06\n\n--Testing--\nTest loss: 3.28485\nTest acc: 0.244  \nTest F1: 0.244 \nTest precision: 0.244\nTest recall: 0.244\n'
Running: python3 main.py -m GatedGraphConvMLP -ef psd -ntt 34 -bs 4 -hc 128 -lr 0.0045 -dr 0 -st -wtr -esp 30 -trd test_1
b'Train/Val dataset: DEAPDataset(192) | Test dataset: DEAPDataset(1088)\nDevice: cuda\nNumber of classes: 32\nGatedGraphConvMLP(\n  (gconv): GatedGraphConv(128, num_layers=2)\n  (lin1): Linear(in_features=16384, out_features=128, bias=True)\n  (lin2): Linear(in_features=128, out_features=64, bias=True)\n  (lin3): Linear(in_features=64, out_features=32, bias=True)\n  (lin4): Linear(in_features=32, out_features=32, bias=True)\n  (act): Softmax(dim=-1)\n)\nModel parameter count: 2240512\nTrain dataset: DEAPDataset(32) | Validation dataset: DEAPDataset(160)\nTraining...\n--Finished training--\nTraining time (s): 4.54\nTotal epochs: 31 ; Model picked from epoch 1\nAverage time per epoch: 0.15\n\n--Testing--\nTest loss: 3.48679\nTest acc: 0.031  \nTest F1: 0.031 \nTest precision: 0.031\nTest recall: 0.031\n'
Running: python3 main.py -m GatedGraphConvMLP -ef psd -ntt 34 -bs 16 -hc 128 -lr 0.0045 -dr 0 -st -wtr -esp 30 -trd test_1
b'Train/Val dataset: DEAPDataset(192) | Test dataset: DEAPDataset(1088)\nDevice: cuda\nNumber of classes: 32\nGatedGraphConvMLP(\n  (gconv): GatedGraphConv(128, num_layers=2)\n  (lin1): Linear(in_features=16384, out_features=128, bias=True)\n  (lin2): Linear(in_features=128, out_features=64, bias=True)\n  (lin3): Linear(in_features=64, out_features=32, bias=True)\n  (lin4): Linear(in_features=32, out_features=32, bias=True)\n  (act): Softmax(dim=-1)\n)\nModel parameter count: 2240512\nTrain dataset: DEAPDataset(32) | Validation dataset: DEAPDataset(160)\nTraining...\n--Finished training--\nTraining time (s): 1.73\nTotal epochs: 32 ; Model picked from epoch 2\nAverage time per epoch: 0.05\n\n--Testing--\nTest loss: 3.48755\nTest acc: 0.030  \nTest F1: 0.030 \nTest precision: 0.030\nTest recall: 0.030\n'
Running: python3 main.py -m GatedGraphConvMLP -ef psd -ntt 34 -bs 4 -hc 128 -lr 0.0045 -dr 0.4 -st -wtr -esp 30 -trd test_1
b'Train/Val dataset: DEAPDataset(192) | Test dataset: DEAPDataset(1088)\nDevice: cuda\nNumber of classes: 32\nGatedGraphConvMLP(\n  (gconv): GatedGraphConv(128, num_layers=2)\n  (lin1): Linear(in_features=16384, out_features=128, bias=True)\n  (lin2): Linear(in_features=128, out_features=64, bias=True)\n  (lin3): Linear(in_features=64, out_features=32, bias=True)\n  (lin4): Linear(in_features=32, out_features=32, bias=True)\n  (act): Softmax(dim=-1)\n)\nModel parameter count: 2240512\nTrain dataset: DEAPDataset(32) | Validation dataset: DEAPDataset(160)\nTraining...\n--Finished training--\nTraining time (s): 4.63\nTotal epochs: 31 ; Model picked from epoch 1\nAverage time per epoch: 0.15\n\n--Testing--\nTest loss: 3.48679\nTest acc: 0.031  \nTest F1: 0.031 \nTest precision: 0.031\nTest recall: 0.031\n'
Running: python3 main.py -m GatedGraphConvMLP -ef psd -ntt 34 -bs 16 -hc 128 -lr 0.0045 -dr 0.4 -st -wtr -esp 30 -trd test_1
b'Train/Val dataset: DEAPDataset(192) | Test dataset: DEAPDataset(1088)\nDevice: cuda\nNumber of classes: 32\nGatedGraphConvMLP(\n  (gconv): GatedGraphConv(128, num_layers=2)\n  (lin1): Linear(in_features=16384, out_features=128, bias=True)\n  (lin2): Linear(in_features=128, out_features=64, bias=True)\n  (lin3): Linear(in_features=64, out_features=32, bias=True)\n  (lin4): Linear(in_features=32, out_features=32, bias=True)\n  (act): Softmax(dim=-1)\n)\nModel parameter count: 2240512\nTrain dataset: DEAPDataset(32) | Validation dataset: DEAPDataset(160)\nTraining...\n--Finished training--\nTraining time (s): 2.47\nTotal epochs: 43 ; Model picked from epoch 13\nAverage time per epoch: 0.06\n\n--Testing--\nTest loss: 3.48644\nTest acc: 0.031  \nTest F1: 0.031 \nTest precision: 0.031\nTest recall: 0.031\n'
Running: python3 main.py -m GatedGraphConvMLP -ef psd -ntt 34 -bs 4 -hc 128 -lr 0.009 -dr 0 -st -wtr -esp 30 -trd test_1
b'Train/Val dataset: DEAPDataset(192) | Test dataset: DEAPDataset(1088)\nDevice: cuda\nNumber of classes: 32\nGatedGraphConvMLP(\n  (gconv): GatedGraphConv(128, num_layers=2)\n  (lin1): Linear(in_features=16384, out_features=128, bias=True)\n  (lin2): Linear(in_features=128, out_features=64, bias=True)\n  (lin3): Linear(in_features=64, out_features=32, bias=True)\n  (lin4): Linear(in_features=32, out_features=32, bias=True)\n  (act): Softmax(dim=-1)\n)\nModel parameter count: 2240512\nTrain dataset: DEAPDataset(32) | Validation dataset: DEAPDataset(160)\nTraining...\n--Finished training--\nTraining time (s): 4.65\nTotal epochs: 31 ; Model picked from epoch 1\nAverage time per epoch: 0.15\n\n--Testing--\nTest loss: 3.48679\nTest acc: 0.031  \nTest F1: 0.031 \nTest precision: 0.031\nTest recall: 0.031\n'
Running: python3 main.py -m GatedGraphConvMLP -ef psd -ntt 34 -bs 16 -hc 128 -lr 0.009 -dr 0 -st -wtr -esp 30 -trd test_1
b'Train/Val dataset: DEAPDataset(192) | Test dataset: DEAPDataset(1088)\nDevice: cuda\nNumber of classes: 32\nGatedGraphConvMLP(\n  (gconv): GatedGraphConv(128, num_layers=2)\n  (lin1): Linear(in_features=16384, out_features=128, bias=True)\n  (lin2): Linear(in_features=128, out_features=64, bias=True)\n  (lin3): Linear(in_features=64, out_features=32, bias=True)\n  (lin4): Linear(in_features=32, out_features=32, bias=True)\n  (act): Softmax(dim=-1)\n)\nModel parameter count: 2240512\nTrain dataset: DEAPDataset(32) | Validation dataset: DEAPDataset(160)\nTraining...\n--Finished training--\nTraining time (s): 1.78\nTotal epochs: 31 ; Model picked from epoch 1\nAverage time per epoch: 0.06\n\n--Testing--\nTest loss: 3.48679\nTest acc: 0.031  \nTest F1: 0.031 \nTest precision: 0.031\nTest recall: 0.031\n'
Running: python3 main.py -m GatedGraphConvMLP -ef psd -ntt 34 -bs 4 -hc 128 -lr 0.009 -dr 0.4 -st -wtr -esp 30 -trd test_1
b'Train/Val dataset: DEAPDataset(192) | Test dataset: DEAPDataset(1088)\nDevice: cuda\nNumber of classes: 32\nGatedGraphConvMLP(\n  (gconv): GatedGraphConv(128, num_layers=2)\n  (lin1): Linear(in_features=16384, out_features=128, bias=True)\n  (lin2): Linear(in_features=128, out_features=64, bias=True)\n  (lin3): Linear(in_features=64, out_features=32, bias=True)\n  (lin4): Linear(in_features=32, out_features=32, bias=True)\n  (act): Softmax(dim=-1)\n)\nModel parameter count: 2240512\nTrain dataset: DEAPDataset(32) | Validation dataset: DEAPDataset(160)\nTraining...\n--Finished training--\nTraining time (s): 4.83\nTotal epochs: 32 ; Model picked from epoch 2\nAverage time per epoch: 0.15\n\n--Testing--\nTest loss: 3.47664\nTest acc: 0.041  \nTest F1: 0.041 \nTest precision: 0.041\nTest recall: 0.041\n'
Running: python3 main.py -m GatedGraphConvMLP -ef psd -ntt 34 -bs 16 -hc 128 -lr 0.009 -dr 0.4 -st -wtr -esp 30 -trd test_1
b'Train/Val dataset: DEAPDataset(192) | Test dataset: DEAPDataset(1088)\nDevice: cuda\nNumber of classes: 32\nGatedGraphConvMLP(\n  (gconv): GatedGraphConv(128, num_layers=2)\n  (lin1): Linear(in_features=16384, out_features=128, bias=True)\n  (lin2): Linear(in_features=128, out_features=64, bias=True)\n  (lin3): Linear(in_features=64, out_features=32, bias=True)\n  (lin4): Linear(in_features=32, out_features=32, bias=True)\n  (act): Softmax(dim=-1)\n)\nModel parameter count: 2240512\nTrain dataset: DEAPDataset(32) | Validation dataset: DEAPDataset(160)\nTraining...\n--Finished training--\nTraining time (s): 1.77\nTotal epochs: 31 ; Model picked from epoch 1\nAverage time per epoch: 0.06\n\n--Testing--\nTest loss: 3.47312\nTest acc: 0.045  \nTest F1: 0.045 \nTest precision: 0.045\nTest recall: 0.045\n'
…
