./run_experiments_2.py
Running: python3 main.py -m CNN -ef wav -ntt 10 -bs 4 -hc 16 -lr 0.0001 -dr 0 -st -wtr -esp 30 -trd test_2 -tmd best_params_2
b'Train/Val dataset: DEAPDataset(960) | Test dataset: DEAPDataset(320)\nDevice: cuda\nNumber of classes: 32\nCNN(\n  (cnn1): Conv1d(4, 1, kernel_size=(3,), stride=(2,))\n  (lin1): Linear(in_features=928, out_features=16, bias=True)\n  (lin2): Linear(in_features=16, out_features=32, bias=True)\n  (act): Softmax(dim=-1)\n)\nModel parameter count: 15421\nTrain dataset: DEAPDataset(800) | Validation dataset: DEAPDataset(160)\nTraining...\n--Finished training--\nTraining time (s): 171.28\nTotal epochs: 205 ; Model picked from epoch 175\nAverage time per epoch: 0.84\n\n--Testing--\nTest loss: 2.52112\nTest acc: 0.997  \nTest F1: 0.997 \nTest precision: 0.997\nTest recall: 0.997\n'
Running: python3 main.py -m CNN -ef wav -ntt 10 -bs 16 -hc 16 -lr 0.0001 -dr 0 -st -wtr -esp 30 -trd test_2 -tmd best_params_2
b'Train/Val dataset: DEAPDataset(960) | Test dataset: DEAPDataset(320)\nDevice: cuda\nNumber of classes: 32\nCNN(\n  (cnn1): Conv1d(4, 1, kernel_size=(3,), stride=(2,))\n  (lin1): Linear(in_features=928, out_features=16, bias=True)\n  (lin2): Linear(in_features=16, out_features=32, bias=True)\n  (act): Softmax(dim=-1)\n)\nModel parameter count: 15421\nTrain dataset: DEAPDataset(800) | Validation dataset: DEAPDataset(160)\nTraining...\n--Finished training--\nTraining time (s): 44.89\nTotal epochs: 149 ; Model picked from epoch 119\nAverage time per epoch: 0.30\n\n--Testing--\nTest loss: 2.54964\nTest acc: 0.969  \nTest F1: 0.969 \nTest precision: 0.969\nTest recall: 0.969\n'
Running: python3 main.py -m CNN -ef wav -ntt 10 -bs 4 -hc 16 -lr 0.0001 -dr 0.4 -st -wtr -esp 30 -trd test_2 -tmd best_params_2
b'Train/Val dataset: DEAPDataset(960) | Test dataset: DEAPDataset(320)\nDevice: cuda\nNumber of classes: 32\nCNN(\n  (cnn1): Conv1d(4, 1, kernel_size=(3,), stride=(2,))\n  (lin1): Linear(in_features=928, out_features=16, bias=True)\n  (lin2): Linear(in_features=16, out_features=32, bias=True)\n  (act): Softmax(dim=-1)\n)\nModel parameter count: 15421\nTrain dataset: DEAPDataset(800) | Validation dataset: DEAPDataset(160)\nTraining...\n--Finished training--\nTraining time (s): 213.87\nTotal epochs: 238 ; Model picked from epoch 208\nAverage time per epoch: 0.90\n\n--Testing--\nTest loss: 2.52132\nTest acc: 0.997  \nTest F1: 0.997 \nTest precision: 0.997\nTest recall: 0.997\n'
Running: python3 main.py -m CNN -ef wav -ntt 10 -bs 16 -hc 16 -lr 0.0001 -dr 0.4 -st -wtr -esp 30 -trd test_2 -tmd best_params_2
b'Train/Val dataset: DEAPDataset(960) | Test dataset: DEAPDataset(320)\nDevice: cuda\nNumber of classes: 32\nCNN(\n  (cnn1): Conv1d(4, 1, kernel_size=(3,), stride=(2,))\n  (lin1): Linear(in_features=928, out_features=16, bias=True)\n  (lin2): Linear(in_features=16, out_features=32, bias=True)\n  (act): Softmax(dim=-1)\n)\nModel parameter count: 15421\nTrain dataset: DEAPDataset(800) | Validation dataset: DEAPDataset(160)\nTraining...\n--Finished training--\nTraining time (s): 128.96\nTotal epochs: 396 ; Model picked from epoch 366\nAverage time per epoch: 0.33\n\n--Testing--\nTest loss: 2.58386\nTest acc: 0.934  \nTest F1: 0.934 \nTest precision: 0.934\nTest recall: 0.934\n'
Running: python3 main.py -m CNN -ef wav -ntt 10 -bs 4 -hc 16 -lr 0.0045 -dr 0 -st -wtr -esp 30 -trd test_2 -tmd best_params_2
b'Train/Val dataset: DEAPDataset(960) | Test dataset: DEAPDataset(320)\nDevice: cuda\nNumber of classes: 32\nCNN(\n  (cnn1): Conv1d(4, 1, kernel_size=(3,), stride=(2,))\n  (lin1): Linear(in_features=928, out_features=16, bias=True)\n  (lin2): Linear(in_features=16, out_features=32, bias=True)\n  (act): Softmax(dim=-1)\n)\nModel parameter count: 15421\nTrain dataset: DEAPDataset(800) | Validation dataset: DEAPDataset(160)\nTraining...\n--Finished training--\nTraining time (s): 37.47\nTotal epochs: 42 ; Model picked from epoch 12\nAverage time per epoch: 0.89\n\n--Testing--\nTest loss: 2.60921\nTest acc: 0.906  \nTest F1: 0.906 \nTest precision: 0.906\nTest recall: 0.906\n'
Running: python3 main.py -m CNN -ef wav -ntt 10 -bs 16 -hc 16 -lr 0.0045 -dr 0 -st -wtr -esp 30 -trd test_2 -tmd best_params_2
b'Train/Val dataset: DEAPDataset(960) | Test dataset: DEAPDataset(320)\nDevice: cuda\nNumber of classes: 32\nCNN(\n  (cnn1): Conv1d(4, 1, kernel_size=(3,), stride=(2,))\n  (lin1): Linear(in_features=928, out_features=16, bias=True)\n  (lin2): Linear(in_features=16, out_features=32, bias=True)\n  (act): Softmax(dim=-1)\n)\nModel parameter count: 15421\nTrain dataset: DEAPDataset(800) | Validation dataset: DEAPDataset(160)\nTraining...\n--Finished training--\nTraining time (s): 18.56\nTotal epochs: 59 ; Model picked from epoch 29\nAverage time per epoch: 0.31\n\n--Testing--\nTest loss: 2.58633\nTest acc: 0.931  \nTest F1: 0.931 \nTest precision: 0.931\nTest recall: 0.931\n'
Running: python3 main.py -m CNN -ef wav -ntt 10 -bs 4 -hc 16 -lr 0.0045 -dr 0.4 -st -wtr -esp 30 -trd test_2 -tmd best_params_2
b'Train/Val dataset: DEAPDataset(960) | Test dataset: DEAPDataset(320)\nDevice: cuda\nNumber of classes: 32\nCNN(\n  (cnn1): Conv1d(4, 1, kernel_size=(3,), stride=(2,))\n  (lin1): Linear(in_features=928, out_features=16, bias=True)\n  (lin2): Linear(in_features=16, out_features=32, bias=True)\n  (act): Softmax(dim=-1)\n)\nModel parameter count: 15421\nTrain dataset: DEAPDataset(800) | Validation dataset: DEAPDataset(160)\nTraining...\n--Finished training--\nTraining time (s): 52.17\nTotal epochs: 58 ; Model picked from epoch 28\nAverage time per epoch: 0.90\n\n--Testing--\nTest loss: 2.58338\nTest acc: 0.934  \nTest F1: 0.934 \nTest precision: 0.934\nTest recall: 0.934\n'
Running: python3 main.py -m CNN -ef wav -ntt 10 -bs 16 -hc 16 -lr 0.0045 -dr 0.4 -st -wtr -esp 30 -trd test_2 -tmd best_params_2
b'Train/Val dataset: DEAPDataset(960) | Test dataset: DEAPDataset(320)\nDevice: cuda\nNumber of classes: 32\nCNN(\n  (cnn1): Conv1d(4, 1, kernel_size=(3,), stride=(2,))\n  (lin1): Linear(in_features=928, out_features=16, bias=True)\n  (lin2): Linear(in_features=16, out_features=32, bias=True)\n  (act): Softmax(dim=-1)\n)\nModel parameter count: 15421\nTrain dataset: DEAPDataset(800) | Validation dataset: DEAPDataset(160)\nTraining...\n--Finished training--\nTraining time (s): 16.06\nTotal epochs: 51 ; Model picked from epoch 21\nAverage time per epoch: 0.31\n\n--Testing--\nTest loss: 2.58038\nTest acc: 0.938  \nTest F1: 0.938 \nTest precision: 0.938\nTest recall: 0.938\n'
Running: python3 main.py -m CNN -ef wav -ntt 10 -bs 4 -hc 16 -lr 0.009 -dr 0 -st -wtr -esp 30 -trd test_2 -tmd best_params_2
b'Train/Val dataset: DEAPDataset(960) | Test dataset: DEAPDataset(320)\nDevice: cuda\nNumber of classes: 32\nCNN(\n  (cnn1): Conv1d(4, 1, kernel_size=(3,), stride=(2,))\n  (lin1): Linear(in_features=928, out_features=16, bias=True)\n  (lin2): Linear(in_features=16, out_features=32, bias=True)\n  (act): Softmax(dim=-1)\n)\nModel parameter count: 15421\nTrain dataset: DEAPDataset(800) | Validation dataset: DEAPDataset(160)\nTraining...\n--Finished training--\nTraining time (s): 46.76\nTotal epochs: 52 ; Model picked from epoch 22\nAverage time per epoch: 0.90\n\n--Testing--\nTest loss: 2.67963\nTest acc: 0.838  \nTest F1: 0.838 \nTest precision: 0.838\nTest recall: 0.838\n'
Running: python3 main.py -m CNN -ef wav -ntt 10 -bs 16 -hc 16 -lr 0.009 -dr 0 -st -wtr -esp 30 -trd test_2 -tmd best_params_2
b'Train/Val dataset: DEAPDataset(960) | Test dataset: DEAPDataset(320)\nDevice: cuda\nNumber of classes: 32\nCNN(\n  (cnn1): Conv1d(4, 1, kernel_size=(3,), stride=(2,))\n  (lin1): Linear(in_features=928, out_features=16, bias=True)\n  (lin2): Linear(in_features=16, out_features=32, bias=True)\n  (act): Softmax(dim=-1)\n)\nModel parameter count: 15421\nTrain dataset: DEAPDataset(800) | Validation dataset: DEAPDataset(160)\nTraining...\n--Finished training--\nTraining time (s): 19.38\nTotal epochs: 62 ; Model picked from epoch 32\nAverage time per epoch: 0.31\n\n--Testing--\nTest loss: 2.61503\nTest acc: 0.903  \nTest F1: 0.903 \nTest precision: 0.903\nTest recall: 0.903\n'
Running: python3 main.py -m CNN -ef wav -ntt 10 -bs 4 -hc 16 -lr 0.009 -dr 0.4 -st -wtr -esp 30 -trd test_2 -tmd best_params_2
b'Train/Val dataset: DEAPDataset(960) | Test dataset: DEAPDataset(320)\nDevice: cuda\nNumber of classes: 32\nCNN(\n  (cnn1): Conv1d(4, 1, kernel_size=(3,), stride=(2,))\n  (lin1): Linear(in_features=928, out_features=16, bias=True)\n  (lin2): Linear(in_features=16, out_features=32, bias=True)\n  (act): Softmax(dim=-1)\n)\nModel parameter count: 15421\nTrain dataset: DEAPDataset(800) | Validation dataset: DEAPDataset(160)\nTraining...\n--Finished training--\nTraining time (s): 43.65\nTotal epochs: 47 ; Model picked from epoch 17\nAverage time per epoch: 0.93\n\n--Testing--\nTest loss: 2.71230\nTest acc: 0.806  \nTest F1: 0.806 \nTest precision: 0.806\nTest recall: 0.806\n'
Running: python3 main.py -m CNN -ef wav -ntt 10 -bs 16 -hc 16 -lr 0.009 -dr 0.4 -st -wtr -esp 30 -trd test_2 -tmd best_params_2
b'Train/Val dataset: DEAPDataset(960) | Test dataset: DEAPDataset(320)\nDevice: cuda\nNumber of classes: 32\nCNN(\n  (cnn1): Conv1d(4, 1, kernel_size=(3,), stride=(2,))\n  (lin1): Linear(in_features=928, out_features=16, bias=True)\n  (lin2): Linear(in_features=16, out_features=32, bias=True)\n  (act): Softmax(dim=-1)\n)\nModel parameter count: 15421\nTrain dataset: DEAPDataset(800) | Validation dataset: DEAPDataset(160)\nTraining...\n--Finished training--\nTraining time (s): 17.71\nTotal epochs: 56 ; Model picked from epoch 26\nAverage time per epoch: 0.32\n\n--Testing--\nTest loss: 2.61157\nTest acc: 0.906  \nTest F1: 0.906 \nTest precision: 0.906\nTest recall: 0.906\n'
Running: python3 main.py -m CNN -ef wav -ntt 10 -bs 4 -hc 64 -lr 0.0001 -dr 0 -st -wtr -esp 30 -trd test_2 -tmd best_params_2
b'Train/Val dataset: DEAPDataset(960) | Test dataset: DEAPDataset(320)\nDevice: cuda\nNumber of classes: 32\nCNN(\n  (cnn1): Conv1d(4, 1, kernel_size=(3,), stride=(2,))\n  (lin1): Linear(in_features=928, out_features=64, bias=True)\n  (lin2): Linear(in_features=64, out_features=32, bias=True)\n  (act): Softmax(dim=-1)\n)\nModel parameter count: 61549\nTrain dataset: DEAPDataset(800) | Validation dataset: DEAPDataset(160)\nTraining...\n--Finished training--\nTraining time (s): 97.24\nTotal epochs: 107 ; Model picked from epoch 77\nAverage time per epoch: 0.91\n\n--Testing--\nTest loss: 2.51952\nTest acc: 1.000  \nTest F1: 1.000 \nTest precision: 1.000\nTest recall: 1.000\n'
Running: python3 main.py -m CNN -ef wav -ntt 10 -bs 16 -hc 64 -lr 0.0001 -dr 0 -st -wtr -esp 30 -trd test_2 -tmd best_params_2
b'Train/Val dataset: DEAPDataset(960) | Test dataset: DEAPDataset(320)\nDevice: cuda\nNumber of classes: 32\nCNN(\n  (cnn1): Conv1d(4, 1, kernel_size=(3,), stride=(2,))\n  (lin1): Linear(in_features=928, out_features=64, bias=True)\n  (lin2): Linear(in_features=64, out_features=32, bias=True)\n  (act): Softmax(dim=-1)\n)\nModel parameter count: 61549\nTrain dataset: DEAPDataset(800) | Validation dataset: DEAPDataset(160)\nTraining...\n--Finished training--\nTraining time (s): 44.13\nTotal epochs: 147 ; Model picked from epoch 117\nAverage time per epoch: 0.30\n\n--Testing--\nTest loss: 2.52129\nTest acc: 0.997  \nTest F1: 0.997 \nTest precision: 0.997\nTest recall: 0.997\n'
Running: python3 main.py -m CNN -ef wav -ntt 10 -bs 4 -hc 64 -lr 0.0001 -dr 0.4 -st -wtr -esp 30 -trd test_2 -tmd best_params_2
b'Train/Val dataset: DEAPDataset(960) | Test dataset: DEAPDataset(320)\nDevice: cuda\nNumber of classes: 32\nCNN(\n  (cnn1): Conv1d(4, 1, kernel_size=(3,), stride=(2,))\n  (lin1): Linear(in_features=928, out_features=64, bias=True)\n  (lin2): Linear(in_features=64, out_features=32, bias=True)\n  (act): Softmax(dim=-1)\n)\nModel parameter count: 61549\nTrain dataset: DEAPDataset(800) | Validation dataset: DEAPDataset(160)\nTraining...\n--Finished training--\nTraining time (s): 122.47\nTotal epochs: 133 ; Model picked from epoch 103\nAverage time per epoch: 0.92\n\n--Testing--\nTest loss: 2.52109\nTest acc: 0.997  \nTest F1: 0.997 \nTest precision: 0.997\nTest recall: 0.997\n'
Running: python3 main.py -m CNN -ef wav -ntt 10 -bs 16 -hc 64 -lr 0.0001 -dr 0.4 -st -wtr -esp 30 -trd test_2 -tmd best_params_2
b'Train/Val dataset: DEAPDataset(960) | Test dataset: DEAPDataset(320)\nDevice: cuda\nNumber of classes: 32\nCNN(\n  (cnn1): Conv1d(4, 1, kernel_size=(3,), stride=(2,))\n  (lin1): Linear(in_features=928, out_features=64, bias=True)\n  (lin2): Linear(in_features=64, out_features=32, bias=True)\n  (act): Softmax(dim=-1)\n)\nModel parameter count: 61549\nTrain dataset: DEAPDataset(800) | Validation dataset: DEAPDataset(160)\nTraining...\n--Finished training--\nTraining time (s): 49.23\nTotal epochs: 155 ; Model picked from epoch 125\nAverage time per epoch: 0.32\n\n--Testing--\nTest loss: 2.52108\nTest acc: 0.997  \nTest F1: 0.997 \nTest precision: 0.997\nTest recall: 0.997\n'
Running: python3 main.py -m CNN -ef wav -ntt 10 -bs 4 -hc 64 -lr 0.0045 -dr 0 -st -wtr -esp 30 -trd test_2 -tmd best_params_2
b'Train/Val dataset: DEAPDataset(960) | Test dataset: DEAPDataset(320)\nDevice: cuda\nNumber of classes: 32\nCNN(\n  (cnn1): Conv1d(4, 1, kernel_size=(3,), stride=(2,))\n  (lin1): Linear(in_features=928, out_features=64, bias=True)\n  (lin2): Linear(in_features=64, out_features=32, bias=True)\n  (act): Softmax(dim=-1)\n)\nModel parameter count: 61549\nTrain dataset: DEAPDataset(800) | Validation dataset: DEAPDataset(160)\nTraining...\n--Finished training--\nTraining time (s): 31.15\nTotal epochs: 35 ; Model picked from epoch 5\nAverage time per epoch: 0.89\n\n--Testing--\nTest loss: 2.55515\nTest acc: 0.963  \nTest F1: 0.963 \nTest precision: 0.963\nTest recall: 0.963\n'
Running: python3 main.py -m CNN -ef wav -ntt 10 -bs 16 -hc 64 -lr 0.0045 -dr 0 -st -wtr -esp 30 -trd test_2 -tmd best_params_2
b'Train/Val dataset: DEAPDataset(960) | Test dataset: DEAPDataset(320)\nDevice: cuda\nNumber of classes: 32\nCNN(\n  (cnn1): Conv1d(4, 1, kernel_size=(3,), stride=(2,))\n  (lin1): Linear(in_features=928, out_features=64, bias=True)\n  (lin2): Linear(in_features=64, out_features=32, bias=True)\n  (act): Softmax(dim=-1)\n)\nModel parameter count: 61549\nTrain dataset: DEAPDataset(800) | Validation dataset: DEAPDataset(160)\nTraining...\n--Finished training--\nTraining time (s): 11.37\nTotal epochs: 36 ; Model picked from epoch 6\nAverage time per epoch: 0.32\n\n--Testing--\nTest loss: 2.52150\nTest acc: 0.997  \nTest F1: 0.997 \nTest precision: 0.997\nTest recall: 0.997\n'
Running: python3 main.py -m CNN -ef wav -ntt 10 -bs 4 -hc 64 -lr 0.0045 -dr 0.4 -st -wtr -esp 30 -trd test_2 -tmd best_params_2
b'Train/Val dataset: DEAPDataset(960) | Test dataset: DEAPDataset(320)\nDevice: cuda\nNumber of classes: 32\nCNN(\n  (cnn1): Conv1d(4, 1, kernel_size=(3,), stride=(2,))\n  (lin1): Linear(in_features=928, out_features=64, bias=True)\n  (lin2): Linear(in_features=64, out_features=32, bias=True)\n  (act): Softmax(dim=-1)\n)\nModel parameter count: 61549\nTrain dataset: DEAPDataset(800) | Validation dataset: DEAPDataset(160)\nTraining...\n--Finished training--\nTraining time (s): 74.48\nTotal epochs: 82 ; Model picked from epoch 52\nAverage time per epoch: 0.91\n\n--Testing--\nTest loss: 2.61483\nTest acc: 0.903  \nTest F1: 0.903 \nTest precision: 0.903\nTest recall: 0.903\n'
Running: python3 main.py -m CNN -ef wav -ntt 10 -bs 16 -hc 64 -lr 0.0045 -dr 0.4 -st -wtr -esp 30 -trd test_2 -tmd best_params_2
b'Train/Val dataset: DEAPDataset(960) | Test dataset: DEAPDataset(320)\nDevice: cuda\nNumber of classes: 32\nCNN(\n  (cnn1): Conv1d(4, 1, kernel_size=(3,), stride=(2,))\n  (lin1): Linear(in_features=928, out_features=64, bias=True)\n  (lin2): Linear(in_features=64, out_features=32, bias=True)\n  (act): Softmax(dim=-1)\n)\nModel parameter count: 61549\nTrain dataset: DEAPDataset(800) | Validation dataset: DEAPDataset(160)\nTraining...\n--Finished training--\nTraining time (s): 11.55\nTotal epochs: 37 ; Model picked from epoch 7\nAverage time per epoch: 0.31\n\n--Testing--\nTest loss: 2.55206\nTest acc: 0.966  \nTest F1: 0.966 \nTest precision: 0.966\nTest recall: 0.966\n'
Running: python3 main.py -m CNN -ef wav -ntt 10 -bs 4 -hc 64 -lr 0.009 -dr 0 -st -wtr -esp 30 -trd test_2 -tmd best_params_2
b'Train/Val dataset: DEAPDataset(960) | Test dataset: DEAPDataset(320)\nDevice: cuda\nNumber of classes: 32\nCNN(\n  (cnn1): Conv1d(4, 1, kernel_size=(3,), stride=(2,))\n  (lin1): Linear(in_features=928, out_features=64, bias=True)\n  (lin2): Linear(in_features=64, out_features=32, bias=True)\n  (act): Softmax(dim=-1)\n)\nModel parameter count: 61549\nTrain dataset: DEAPDataset(800) | Validation dataset: DEAPDataset(160)\nTraining...\n--Finished training--\nTraining time (s): 28.97\nTotal epochs: 32 ; Model picked from epoch 2\nAverage time per epoch: 0.91\n\n--Testing--\nTest loss: 3.26783\nTest acc: 0.250  \nTest F1: 0.250 \nTest precision: 0.250\nTest recall: 0.250\n'
Running: python3 main.py -m CNN -ef wav -ntt 10 -bs 16 -hc 64 -lr 0.009 -dr 0 -st -wtr -esp 30 -trd test_2 -tmd best_params_2
b'Train/Val dataset: DEAPDataset(960) | Test dataset: DEAPDataset(320)\nDevice: cuda\nNumber of classes: 32\nCNN(\n  (cnn1): Conv1d(4, 1, kernel_size=(3,), stride=(2,))\n  (lin1): Linear(in_features=928, out_features=64, bias=True)\n  (lin2): Linear(in_features=64, out_features=32, bias=True)\n  (act): Softmax(dim=-1)\n)\nModel parameter count: 61549\nTrain dataset: DEAPDataset(800) | Validation dataset: DEAPDataset(160)\nTraining...\n--Finished training--\nTraining time (s): 12.34\nTotal epochs: 40 ; Model picked from epoch 10\nAverage time per epoch: 0.31\n\n--Testing--\nTest loss: 2.82994\nTest acc: 0.688  \nTest F1: 0.688 \nTest precision: 0.688\nTest recall: 0.688\n'
Running: python3 main.py -m CNN -ef wav -ntt 10 -bs 4 -hc 64 -lr 0.009 -dr 0.4 -st -wtr -esp 30 -trd test_2 -tmd best_params_2
b'Train/Val dataset: DEAPDataset(960) | Test dataset: DEAPDataset(320)\nDevice: cuda\nNumber of classes: 32\nCNN(\n  (cnn1): Conv1d(4, 1, kernel_size=(3,), stride=(2,))\n  (lin1): Linear(in_features=928, out_features=64, bias=True)\n  (lin2): Linear(in_features=64, out_features=32, bias=True)\n  (act): Softmax(dim=-1)\n)\nModel parameter count: 61549\nTrain dataset: DEAPDataset(800) | Validation dataset: DEAPDataset(160)\nTraining...\n--Finished training--\nTraining time (s): 28.22\nTotal epochs: 31 ; Model picked from epoch 1\nAverage time per epoch: 0.91\n\n--Testing--\nTest loss: 2.80159\nTest acc: 0.716  \nTest F1: 0.716 \nTest precision: 0.716\nTest recall: 0.716\n'
Running: python3 main.py -m CNN -ef wav -ntt 10 -bs 16 -hc 64 -lr 0.009 -dr 0.4 -st -wtr -esp 30 -trd test_2 -tmd best_params_2
b'Train/Val dataset: DEAPDataset(960) | Test dataset: DEAPDataset(320)\nDevice: cuda\nNumber of classes: 32\nCNN(\n  (cnn1): Conv1d(4, 1, kernel_size=(3,), stride=(2,))\n  (lin1): Linear(in_features=928, out_features=64, bias=True)\n  (lin2): Linear(in_features=64, out_features=32, bias=True)\n  (act): Softmax(dim=-1)\n)\nModel parameter count: 61549\nTrain dataset: DEAPDataset(800) | Validation dataset: DEAPDataset(160)\nTraining...\n--Finished training--\nTraining time (s): 11.52\nTotal epochs: 37 ; Model picked from epoch 7\nAverage time per epoch: 0.31\n\n--Testing--\nTest loss: 2.73901\nTest acc: 0.778  \nTest F1: 0.778 \nTest precision: 0.778\nTest recall: 0.778\n'
Running: python3 main.py -m CNN -ef wav -ntt 10 -bs 4 -hc 128 -lr 0.0001 -dr 0 -st -wtr -esp 30 -trd test_2 -tmd best_params_2
b'Train/Val dataset: DEAPDataset(960) | Test dataset: DEAPDataset(320)\nDevice: cuda\nNumber of classes: 32\nCNN(\n  (cnn1): Conv1d(4, 1, kernel_size=(3,), stride=(2,))\n  (lin1): Linear(in_features=928, out_features=128, bias=True)\n  (lin2): Linear(in_features=128, out_features=32, bias=True)\n  (act): Softmax(dim=-1)\n)\nModel parameter count: 123053\nTrain dataset: DEAPDataset(800) | Validation dataset: DEAPDataset(160)\nTraining...\n--Finished training--\nTraining time (s): 101.83\nTotal epochs: 110 ; Model picked from epoch 80\nAverage time per epoch: 0.93\n\n--Testing--\nTest loss: 2.52116\nTest acc: 0.997  \nTest F1: 0.997 \nTest precision: 0.997\nTest recall: 0.997\n'
Running: python3 main.py -m CNN -ef wav -ntt 10 -bs 16 -hc 128 -lr 0.0001 -dr 0 -st -wtr -esp 30 -trd test_2 -tmd best_params_2
b'Train/Val dataset: DEAPDataset(960) | Test dataset: DEAPDataset(320)\nDevice: cuda\nNumber of classes: 32\nCNN(\n  (cnn1): Conv1d(4, 1, kernel_size=(3,), stride=(2,))\n  (lin1): Linear(in_features=928, out_features=128, bias=True)\n  (lin2): Linear(in_features=128, out_features=32, bias=True)\n  (act): Softmax(dim=-1)\n)\nModel parameter count: 123053\nTrain dataset: DEAPDataset(800) | Validation dataset: DEAPDataset(160)\nTraining...\n--Finished training--\nTraining time (s): 43.01\nTotal epochs: 131 ; Model picked from epoch 101\nAverage time per epoch: 0.33\n\n--Testing--\nTest loss: 2.52125\nTest acc: 0.997  \nTest F1: 0.997 \nTest precision: 0.997\nTest recall: 0.997\n'
Running: python3 main.py -m CNN -ef wav -ntt 10 -bs 4 -hc 128 -lr 0.0001 -dr 0.4 -st -wtr -esp 30 -trd test_2 -tmd best_params_2
b'Train/Val dataset: DEAPDataset(960) | Test dataset: DEAPDataset(320)\nDevice: cuda\nNumber of classes: 32\nCNN(\n  (cnn1): Conv1d(4, 1, kernel_size=(3,), stride=(2,))\n  (lin1): Linear(in_features=928, out_features=128, bias=True)\n  (lin2): Linear(in_features=128, out_features=32, bias=True)\n  (act): Softmax(dim=-1)\n)\nModel parameter count: 123053\nTrain dataset: DEAPDataset(800) | Validation dataset: DEAPDataset(160)\nTraining...\n--Finished training--\nTraining time (s): 60.51\nTotal epochs: 63 ; Model picked from epoch 33\nAverage time per epoch: 0.96\n\n--Testing--\nTest loss: 2.52117\nTest acc: 0.997  \nTest F1: 0.997 \nTest precision: 0.997\nTest recall: 0.997\n'
Running: python3 main.py -m CNN -ef wav -ntt 10 -bs 16 -hc 128 -lr 0.0001 -dr 0.4 -st -wtr -esp 30 -trd test_2 -tmd best_params_2
b'Train/Val dataset: DEAPDataset(960) | Test dataset: DEAPDataset(320)\nDevice: cuda\nNumber of classes: 32\nCNN(\n  (cnn1): Conv1d(4, 1, kernel_size=(3,), stride=(2,))\n  (lin1): Linear(in_features=928, out_features=128, bias=True)\n  (lin2): Linear(in_features=128, out_features=32, bias=True)\n  (act): Softmax(dim=-1)\n)\nModel parameter count: 123053\nTrain dataset: DEAPDataset(800) | Validation dataset: DEAPDataset(160)\nTraining...\n--Finished training--\nTraining time (s): 52.79\nTotal epochs: 158 ; Model picked from epoch 128\nAverage time per epoch: 0.33\n\n--Testing--\nTest loss: 2.51930\nTest acc: 1.000  \nTest F1: 1.000 \nTest precision: 1.000\nTest recall: 1.000\n'
Running: python3 main.py -m CNN -ef wav -ntt 10 -bs 4 -hc 128 -lr 0.0045 -dr 0 -st -wtr -esp 30 -trd test_2 -tmd best_params_2
b'Train/Val dataset: DEAPDataset(960) | Test dataset: DEAPDataset(320)\nDevice: cuda\nNumber of classes: 32\nCNN(\n  (cnn1): Conv1d(4, 1, kernel_size=(3,), stride=(2,))\n  (lin1): Linear(in_features=928, out_features=128, bias=True)\n  (lin2): Linear(in_features=128, out_features=32, bias=True)\n  (act): Softmax(dim=-1)\n)\nModel parameter count: 123053\nTrain dataset: DEAPDataset(800) | Validation dataset: DEAPDataset(160)\nTraining...\n--Finished training--\nTraining time (s): 30.76\nTotal epochs: 31 ; Model picked from epoch 1\nAverage time per epoch: 0.99\n\n--Testing--\nTest loss: 2.67737\nTest acc: 0.841  \nTest F1: 0.841 \nTest precision: 0.841\nTest recall: 0.841\n'
Running: python3 main.py -m CNN -ef wav -ntt 10 -bs 16 -hc 128 -lr 0.0045 -dr 0 -st -wtr -esp 30 -trd test_2 -tmd best_params_2
b'Train/Val dataset: DEAPDataset(960) | Test dataset: DEAPDataset(320)\nDevice: cuda\nNumber of classes: 32\nCNN(\n  (cnn1): Conv1d(4, 1, kernel_size=(3,), stride=(2,))\n  (lin1): Linear(in_features=928, out_features=128, bias=True)\n  (lin2): Linear(in_features=128, out_features=32, bias=True)\n  (act): Softmax(dim=-1)\n)\nModel parameter count: 123053\nTrain dataset: DEAPDataset(800) | Validation dataset: DEAPDataset(160)\nTraining...\n--Finished training--\nTraining time (s): 17.03\nTotal epochs: 52 ; Model picked from epoch 22\nAverage time per epoch: 0.33\n\n--Testing--\nTest loss: 2.58255\nTest acc: 0.934  \nTest F1: 0.934 \nTest precision: 0.934\nTest recall: 0.934\n'
Running: python3 main.py -m CNN -ef wav -ntt 10 -bs 4 -hc 128 -lr 0.0045 -dr 0.4 -st -wtr -esp 30 -trd test_2 -tmd best_params_2
b'Train/Val dataset: DEAPDataset(960) | Test dataset: DEAPDataset(320)\nDevice: cuda\nNumber of classes: 32\nCNN(\n  (cnn1): Conv1d(4, 1, kernel_size=(3,), stride=(2,))\n  (lin1): Linear(in_features=928, out_features=128, bias=True)\n  (lin2): Linear(in_features=128, out_features=32, bias=True)\n  (act): Softmax(dim=-1)\n)\nModel parameter count: 123053\nTrain dataset: DEAPDataset(800) | Validation dataset: DEAPDataset(160)\nTraining...\n--Finished training--\nTraining time (s): 34.84\nTotal epochs: 36 ; Model picked from epoch 6\nAverage time per epoch: 0.97\n\n--Testing--\nTest loss: 2.64788\nTest acc: 0.869  \nTest F1: 0.869 \nTest precision: 0.869\nTest recall: 0.869\n'
Running: python3 main.py -m CNN -ef wav -ntt 10 -bs 16 -hc 128 -lr 0.0045 -dr 0.4 -st -wtr -esp 30 -trd test_2 -tmd best_params_2
b'Train/Val dataset: DEAPDataset(960) | Test dataset: DEAPDataset(320)\nDevice: cuda\nNumber of classes: 32\nCNN(\n  (cnn1): Conv1d(4, 1, kernel_size=(3,), stride=(2,))\n  (lin1): Linear(in_features=928, out_features=128, bias=True)\n  (lin2): Linear(in_features=128, out_features=32, bias=True)\n  (act): Softmax(dim=-1)\n)\nModel parameter count: 123053\nTrain dataset: DEAPDataset(800) | Validation dataset: DEAPDataset(160)\nTraining...\n--Finished training--\nTraining time (s): 10.42\nTotal epochs: 33 ; Model picked from epoch 3\nAverage time per epoch: 0.32\n\n--Testing--\nTest loss: 2.52118\nTest acc: 0.997  \nTest F1: 0.997 \nTest precision: 0.997\nTest recall: 0.997\n'
Running: python3 main.py -m CNN -ef wav -ntt 10 -bs 4 -hc 128 -lr 0.009 -dr 0 -st -wtr -esp 30 -trd test_2 -tmd best_params_2
b'Train/Val dataset: DEAPDataset(960) | Test dataset: DEAPDataset(320)\nDevice: cuda\nNumber of classes: 32\nCNN(\n  (cnn1): Conv1d(4, 1, kernel_size=(3,), stride=(2,))\n  (lin1): Linear(in_features=928, out_features=128, bias=True)\n  (lin2): Linear(in_features=128, out_features=32, bias=True)\n  (act): Softmax(dim=-1)\n)\nModel parameter count: 123053\nTrain dataset: DEAPDataset(800) | Validation dataset: DEAPDataset(160)\nTraining...\n--Finished training--\nTraining time (s): 29.87\nTotal epochs: 31 ; Model picked from epoch 1\nAverage time per epoch: 0.96\n\n--Testing--\nTest loss: 3.14244\nTest acc: 0.375  \nTest F1: 0.375 \nTest precision: 0.375\nTest recall: 0.375\n'
Running: python3 main.py -m CNN -ef wav -ntt 10 -bs 16 -hc 128 -lr 0.009 -dr 0 -st -wtr -esp 30 -trd test_2 -tmd best_params_2
b'Train/Val dataset: DEAPDataset(960) | Test dataset: DEAPDataset(320)\nDevice: cuda\nNumber of classes: 32\nCNN(\n  (cnn1): Conv1d(4, 1, kernel_size=(3,), stride=(2,))\n  (lin1): Linear(in_features=928, out_features=128, bias=True)\n  (lin2): Linear(in_features=128, out_features=32, bias=True)\n  (act): Softmax(dim=-1)\n)\nModel parameter count: 123053\nTrain dataset: DEAPDataset(800) | Validation dataset: DEAPDataset(160)\nTraining...\n--Finished training--\nTraining time (s): 11.07\nTotal epochs: 35 ; Model picked from epoch 5\nAverage time per epoch: 0.32\n\n--Testing--\nTest loss: 2.77316\nTest acc: 0.744  \nTest F1: 0.744 \nTest precision: 0.744\nTest recall: 0.744\n'
Running: python3 main.py -m CNN -ef wav -ntt 10 -bs 4 -hc 128 -lr 0.009 -dr 0.4 -st -wtr -esp 30 -trd test_2 -tmd best_params_2
b'Train/Val dataset: DEAPDataset(960) | Test dataset: DEAPDataset(320)\nDevice: cuda\nNumber of classes: 32\nCNN(\n  (cnn1): Conv1d(4, 1, kernel_size=(3,), stride=(2,))\n  (lin1): Linear(in_features=928, out_features=128, bias=True)\n  (lin2): Linear(in_features=128, out_features=32, bias=True)\n  (act): Softmax(dim=-1)\n)\nModel parameter count: 123053\nTrain dataset: DEAPDataset(800) | Validation dataset: DEAPDataset(160)\nTraining...\n--Finished training--\nTraining time (s): 31.86\nTotal epochs: 33 ; Model picked from epoch 3\nAverage time per epoch: 0.97\n\n--Testing--\nTest loss: 3.04879\nTest acc: 0.469  \nTest F1: 0.469 \nTest precision: 0.469\nTest recall: 0.469\n'
Running: python3 main.py -m CNN -ef wav -ntt 10 -bs 16 -hc 128 -lr 0.009 -dr 0.4 -st -wtr -esp 30 -trd test_2 -tmd best_params_2
b'Train/Val dataset: DEAPDataset(960) | Test dataset: DEAPDataset(320)\nDevice: cuda\nNumber of classes: 32\nCNN(\n  (cnn1): Conv1d(4, 1, kernel_size=(3,), stride=(2,))\n  (lin1): Linear(in_features=928, out_features=128, bias=True)\n  (lin2): Linear(in_features=128, out_features=32, bias=True)\n  (act): Softmax(dim=-1)\n)\nModel parameter count: 123053\nTrain dataset: DEAPDataset(800) | Validation dataset: DEAPDataset(160)\nTraining...\n--Finished training--\nTraining time (s): 10.81\nTotal epochs: 34 ; Model picked from epoch 4\nAverage time per epoch: 0.32\n\n--Testing--\nTest loss: 2.98589\nTest acc: 0.531  \nTest F1: 0.531 \nTest precision: 0.531\nTest recall: 0.531\n'
Running: python3 main.py -m CNN -ef wav -ntt 30 -bs 4 -hc 16 -lr 0.0001 -dr 0 -st -wtr -esp 30 -trd test_2 -tmd best_params_2
b'Train/Val dataset: DEAPDataset(320) | Test dataset: DEAPDataset(960)\nDevice: cuda\nNumber of classes: 32\nCNN(\n  (cnn1): Conv1d(4, 1, kernel_size=(3,), stride=(2,))\n  (lin1): Linear(in_features=928, out_features=16, bias=True)\n  (lin2): Linear(in_features=16, out_features=32, bias=True)\n  (act): Softmax(dim=-1)\n)\nModel parameter count: 15421\nTrain dataset: DEAPDataset(160) | Validation dataset: DEAPDataset(160)\nTraining...\n--Finished training--\nTraining time (s): 106.63\nTotal epochs: 401 ; Model picked from epoch 371\nAverage time per epoch: 0.27\n\n--Testing--\nTest loss: 2.58175\nTest acc: 0.936  \nTest F1: 0.936 \nTest precision: 0.936\nTest recall: 0.936\n'
Running: python3 main.py -m CNN -ef wav -ntt 30 -bs 16 -hc 16 -lr 0.0001 -dr 0 -st -wtr -esp 30 -trd test_2 -tmd best_params_2
b'Train/Val dataset: DEAPDataset(320) | Test dataset: DEAPDataset(960)\nDevice: cuda\nNumber of classes: 32\nCNN(\n  (cnn1): Conv1d(4, 1, kernel_size=(3,), stride=(2,))\n  (lin1): Linear(in_features=928, out_features=16, bias=True)\n  (lin2): Linear(in_features=16, out_features=32, bias=True)\n  (act): Softmax(dim=-1)\n)\nModel parameter count: 15421\nTrain dataset: DEAPDataset(160) | Validation dataset: DEAPDataset(160)\nTraining...\n--Finished training--\nTraining time (s): 81.44\nTotal epochs: 815 ; Model picked from epoch 785\nAverage time per epoch: 0.10\n\n--Testing--\nTest loss: 2.58493\nTest acc: 0.935  \nTest F1: 0.935 \nTest precision: 0.935\nTest recall: 0.935\n'
Running: python3 main.py -m CNN -ef wav -ntt 30 -bs 4 -hc 16 -lr 0.0001 -dr 0.4 -st -wtr -esp 30 -trd test_2 -tmd best_params_2
b'Train/Val dataset: DEAPDataset(320) | Test dataset: DEAPDataset(960)\nDevice: cuda\nNumber of classes: 32\nCNN(\n  (cnn1): Conv1d(4, 1, kernel_size=(3,), stride=(2,))\n  (lin1): Linear(in_features=928, out_features=16, bias=True)\n  (lin2): Linear(in_features=16, out_features=32, bias=True)\n  (act): Softmax(dim=-1)\n)\nModel parameter count: 15421\nTrain dataset: DEAPDataset(160) | Validation dataset: DEAPDataset(160)\nTraining...\n--Finished training--\nTraining time (s): 149.94\nTotal epochs: 501 ; Model picked from epoch 471\nAverage time per epoch: 0.30\n\n--Testing--\nTest loss: 2.61404\nTest acc: 0.905  \nTest F1: 0.905 \nTest precision: 0.905\nTest recall: 0.905\n'
Running: python3 main.py -m CNN -ef wav -ntt 30 -bs 16 -hc 16 -lr 0.0001 -dr 0.4 -st -wtr -esp 30 -trd test_2 -tmd best_params_2
b'Train/Val dataset: DEAPDataset(320) | Test dataset: DEAPDataset(960)\nDevice: cuda\nNumber of classes: 32\nCNN(\n  (cnn1): Conv1d(4, 1, kernel_size=(3,), stride=(2,))\n  (lin1): Linear(in_features=928, out_features=16, bias=True)\n  (lin2): Linear(in_features=16, out_features=32, bias=True)\n  (act): Softmax(dim=-1)\n)\nModel parameter count: 15421\nTrain dataset: DEAPDataset(160) | Validation dataset: DEAPDataset(160)\nTraining...\n--Finished training--\nTraining time (s): 67.92\nTotal epochs: 649 ; Model picked from epoch 619\nAverage time per epoch: 0.10\n\n--Testing--\nTest loss: 2.61407\nTest acc: 0.904  \nTest F1: 0.904 \nTest precision: 0.904\nTest recall: 0.904\n'
Running: python3 main.py -m CNN -ef wav -ntt 30 -bs 4 -hc 16 -lr 0.0045 -dr 0 -st -wtr -esp 30 -trd test_2 -tmd best_params_2
b'Train/Val dataset: DEAPDataset(320) | Test dataset: DEAPDataset(960)\nDevice: cuda\nNumber of classes: 32\nCNN(\n  (cnn1): Conv1d(4, 1, kernel_size=(3,), stride=(2,))\n  (lin1): Linear(in_features=928, out_features=16, bias=True)\n  (lin2): Linear(in_features=16, out_features=32, bias=True)\n  (act): Softmax(dim=-1)\n)\nModel parameter count: 15421\nTrain dataset: DEAPDataset(160) | Validation dataset: DEAPDataset(160)\nTraining...\n--Finished training--\nTraining time (s): 32.88\nTotal epochs: 119 ; Model picked from epoch 89\nAverage time per epoch: 0.28\n\n--Testing--\nTest loss: 2.52137\nTest acc: 0.998  \nTest F1: 0.998 \nTest precision: 0.998\nTest recall: 0.998\n'
Running: python3 main.py -m CNN -ef wav -ntt 30 -bs 16 -hc 16 -lr 0.0045 -dr 0 -st -wtr -esp 30 -trd test_2 -tmd best_params_2
b'Train/Val dataset: DEAPDataset(320) | Test dataset: DEAPDataset(960)\nDevice: cuda\nNumber of classes: 32\nCNN(\n  (cnn1): Conv1d(4, 1, kernel_size=(3,), stride=(2,))\n  (lin1): Linear(in_features=928, out_features=16, bias=True)\n  (lin2): Linear(in_features=16, out_features=32, bias=True)\n  (act): Softmax(dim=-1)\n)\nModel parameter count: 15421\nTrain dataset: DEAPDataset(160) | Validation dataset: DEAPDataset(160)\nTraining...\n--Finished training--\nTraining time (s): 17.14\nTotal epochs: 161 ; Model picked from epoch 131\nAverage time per epoch: 0.11\n\n--Testing--\nTest loss: 2.70381\nTest acc: 0.811  \nTest F1: 0.811 \nTest precision: 0.811\nTest recall: 0.811\n'
Running: python3 main.py -m CNN -ef wav -ntt 30 -bs 4 -hc 16 -lr 0.0045 -dr 0.4 -st -wtr -esp 30 -trd test_2 -tmd best_params_2
b'Train/Val dataset: DEAPDataset(320) | Test dataset: DEAPDataset(960)\nDevice: cuda\nNumber of classes: 32\nCNN(\n  (cnn1): Conv1d(4, 1, kernel_size=(3,), stride=(2,))\n  (lin1): Linear(in_features=928, out_features=16, bias=True)\n  (lin2): Linear(in_features=16, out_features=32, bias=True)\n  (act): Softmax(dim=-1)\n)\nModel parameter count: 15421\nTrain dataset: DEAPDataset(160) | Validation dataset: DEAPDataset(160)\nTraining...\n--Finished training--\nTraining time (s): 22.12\nTotal epochs: 81 ; Model picked from epoch 51\nAverage time per epoch: 0.27\n\n--Testing--\nTest loss: 2.61894\nTest acc: 0.898  \nTest F1: 0.898 \nTest precision: 0.898\nTest recall: 0.898\n'
Running: python3 main.py -m CNN -ef wav -ntt 30 -bs 16 -hc 16 -lr 0.0045 -dr 0.4 -st -wtr -esp 30 -trd test_2 -tmd best_params_2
b'Train/Val dataset: DEAPDataset(320) | Test dataset: DEAPDataset(960)\nDevice: cuda\nNumber of classes: 32\nCNN(\n  (cnn1): Conv1d(4, 1, kernel_size=(3,), stride=(2,))\n  (lin1): Linear(in_features=928, out_features=16, bias=True)\n  (lin2): Linear(in_features=16, out_features=32, bias=True)\n  (act): Softmax(dim=-1)\n)\nModel parameter count: 15421\nTrain dataset: DEAPDataset(160) | Validation dataset: DEAPDataset(160)\nTraining...\n--Finished training--\nTraining time (s): 16.62\nTotal epochs: 157 ; Model picked from epoch 127\nAverage time per epoch: 0.11\n\n--Testing--\nTest loss: 2.55065\nTest acc: 0.967  \nTest F1: 0.967 \nTest precision: 0.967\nTest recall: 0.967\n'
Running: python3 main.py -m CNN -ef wav -ntt 30 -bs 4 -hc 16 -lr 0.009 -dr 0 -st -wtr -esp 30 -trd test_2 -tmd best_params_2
b'Train/Val dataset: DEAPDataset(320) | Test dataset: DEAPDataset(960)\nDevice: cuda\nNumber of classes: 32\nCNN(\n  (cnn1): Conv1d(4, 1, kernel_size=(3,), stride=(2,))\n  (lin1): Linear(in_features=928, out_features=16, bias=True)\n  (lin2): Linear(in_features=16, out_features=32, bias=True)\n  (act): Softmax(dim=-1)\n)\nModel parameter count: 15421\nTrain dataset: DEAPDataset(160) | Validation dataset: DEAPDataset(160)\nTraining...\n--Finished training--\nTraining time (s): 11.34\nTotal epochs: 44 ; Model picked from epoch 14\nAverage time per epoch: 0.26\n\n--Testing--\nTest loss: 2.73764\nTest acc: 0.779  \nTest F1: 0.779 \nTest precision: 0.779\nTest recall: 0.779\n'
Running: python3 main.py -m CNN -ef wav -ntt 30 -bs 16 -hc 16 -lr 0.009 -dr 0 -st -wtr -esp 30 -trd test_2 -tmd best_params_2
b'Train/Val dataset: DEAPDataset(320) | Test dataset: DEAPDataset(960)\nDevice: cuda\nNumber of classes: 32\nCNN(\n  (cnn1): Conv1d(4, 1, kernel_size=(3,), stride=(2,))\n  (lin1): Linear(in_features=928, out_features=16, bias=True)\n  (lin2): Linear(in_features=16, out_features=32, bias=True)\n  (act): Softmax(dim=-1)\n)\nModel parameter count: 15421\nTrain dataset: DEAPDataset(160) | Validation dataset: DEAPDataset(160)\nTraining...\n--Finished training--\nTraining time (s): 7.44\nTotal epochs: 77 ; Model picked from epoch 47\nAverage time per epoch: 0.10\n\n--Testing--\nTest loss: 2.58296\nTest acc: 0.934  \nTest F1: 0.934 \nTest precision: 0.934\nTest recall: 0.934\n'
Running: python3 main.py -m CNN -ef wav -ntt 30 -bs 4 -hc 16 -lr 0.009 -dr 0.4 -st -wtr -esp 30 -trd test_2 -tmd best_params_2
b'Train/Val dataset: DEAPDataset(320) | Test dataset: DEAPDataset(960)\nDevice: cuda\nNumber of classes: 32\nCNN(\n  (cnn1): Conv1d(4, 1, kernel_size=(3,), stride=(2,))\n  (lin1): Linear(in_features=928, out_features=16, bias=True)\n  (lin2): Linear(in_features=16, out_features=32, bias=True)\n  (act): Softmax(dim=-1)\n)\nModel parameter count: 15421\nTrain dataset: DEAPDataset(160) | Validation dataset: DEAPDataset(160)\nTraining...\n--Finished training--\nTraining time (s): 20.19\nTotal epochs: 64 ; Model picked from epoch 34\nAverage time per epoch: 0.32\n\n--Testing--\nTest loss: 2.75137\nTest acc: 0.767  \nTest F1: 0.767 \nTest precision: 0.767\nTest recall: 0.767\n'
Running: python3 main.py -m CNN -ef wav -ntt 30 -bs 16 -hc 16 -lr 0.009 -dr 0.4 -st -wtr -esp 30 -trd test_2 -tmd best_params_2
b'Train/Val dataset: DEAPDataset(320) | Test dataset: DEAPDataset(960)\nDevice: cuda\nNumber of classes: 32\nCNN(\n  (cnn1): Conv1d(4, 1, kernel_size=(3,), stride=(2,))\n  (lin1): Linear(in_features=928, out_features=16, bias=True)\n  (lin2): Linear(in_features=16, out_features=32, bias=True)\n  (act): Softmax(dim=-1)\n)\nModel parameter count: 15421\nTrain dataset: DEAPDataset(160) | Validation dataset: DEAPDataset(160)\nTraining...\n--Finished training--\nTraining time (s): 8.35\nTotal epochs: 84 ; Model picked from epoch 54\nAverage time per epoch: 0.10\n\n--Testing--\nTest loss: 2.59078\nTest acc: 0.928  \nTest F1: 0.928 \nTest precision: 0.928\nTest recall: 0.928\n'
Running: python3 main.py -m CNN -ef wav -ntt 30 -bs 4 -hc 64 -lr 0.0001 -dr 0 -st -wtr -esp 30 -trd test_2 -tmd best_params_2
b'Train/Val dataset: DEAPDataset(320) | Test dataset: DEAPDataset(960)\nDevice: cuda\nNumber of classes: 32\nCNN(\n  (cnn1): Conv1d(4, 1, kernel_size=(3,), stride=(2,))\n  (lin1): Linear(in_features=928, out_features=64, bias=True)\n  (lin2): Linear(in_features=64, out_features=32, bias=True)\n  (act): Softmax(dim=-1)\n)\nModel parameter count: 61549\nTrain dataset: DEAPDataset(160) | Validation dataset: DEAPDataset(160)\nTraining...\n--Finished training--\nTraining time (s): 66.24\nTotal epochs: 235 ; Model picked from epoch 205\nAverage time per epoch: 0.28\n\n--Testing--\nTest loss: 2.51947\nTest acc: 0.999  \nTest F1: 0.999 \nTest precision: 0.999\nTest recall: 0.999\n'
Running: python3 main.py -m CNN -ef wav -ntt 30 -bs 16 -hc 64 -lr 0.0001 -dr 0 -st -wtr -esp 30 -trd test_2 -tmd best_params_2
b'Train/Val dataset: DEAPDataset(320) | Test dataset: DEAPDataset(960)\nDevice: cuda\nNumber of classes: 32\nCNN(\n  (cnn1): Conv1d(4, 1, kernel_size=(3,), stride=(2,))\n  (lin1): Linear(in_features=928, out_features=64, bias=True)\n  (lin2): Linear(in_features=64, out_features=32, bias=True)\n  (act): Softmax(dim=-1)\n)\nModel parameter count: 61549\nTrain dataset: DEAPDataset(160) | Validation dataset: DEAPDataset(160)\nTraining...\n--Finished training--\nTraining time (s): 35.75\nTotal epochs: 364 ; Model picked from epoch 334\nAverage time per epoch: 0.10\n\n--Testing--\nTest loss: 2.52003\nTest acc: 0.999  \nTest F1: 0.999 \nTest precision: 0.999\nTest recall: 0.999\n'
Running: python3 main.py -m CNN -ef wav -ntt 30 -bs 4 -hc 64 -lr 0.0001 -dr 0.4 -st -wtr -esp 30 -trd test_2 -tmd best_params_2
b'Train/Val dataset: DEAPDataset(320) | Test dataset: DEAPDataset(960)\nDevice: cuda\nNumber of classes: 32\nCNN(\n  (cnn1): Conv1d(4, 1, kernel_size=(3,), stride=(2,))\n  (lin1): Linear(in_features=928, out_features=64, bias=True)\n  (lin2): Linear(in_features=64, out_features=32, bias=True)\n  (act): Softmax(dim=-1)\n)\nModel parameter count: 61549\nTrain dataset: DEAPDataset(160) | Validation dataset: DEAPDataset(160)\nTraining...\n--Finished training--\nTraining time (s): 46.56\nTotal epochs: 171 ; Model picked from epoch 141\nAverage time per epoch: 0.27\n\n--Testing--\nTest loss: 2.51947\nTest acc: 0.999  \nTest F1: 0.999 \nTest precision: 0.999\nTest recall: 0.999\n'
Running: python3 main.py -m CNN -ef wav -ntt 30 -bs 16 -hc 64 -lr 0.0001 -dr 0.4 -st -wtr -esp 30 -trd test_2 -tmd best_params_2
b'Train/Val dataset: DEAPDataset(320) | Test dataset: DEAPDataset(960)\nDevice: cuda\nNumber of classes: 32\nCNN(\n  (cnn1): Conv1d(4, 1, kernel_size=(3,), stride=(2,))\n  (lin1): Linear(in_features=928, out_features=64, bias=True)\n  (lin2): Linear(in_features=64, out_features=32, bias=True)\n  (act): Softmax(dim=-1)\n)\nModel parameter count: 61549\nTrain dataset: DEAPDataset(160) | Validation dataset: DEAPDataset(160)\nTraining...\n--Finished training--\nTraining time (s): 31.33\nTotal epochs: 351 ; Model picked from epoch 321\nAverage time per epoch: 0.09\n\n--Testing--\nTest loss: 2.55064\nTest acc: 0.968  \nTest F1: 0.968 \nTest precision: 0.968\nTest recall: 0.968\n'
Running: python3 main.py -m CNN -ef wav -ntt 30 -bs 4 -hc 64 -lr 0.0045 -dr 0 -st -wtr -esp 30 -trd test_2 -tmd best_params_2
b'Train/Val dataset: DEAPDataset(320) | Test dataset: DEAPDataset(960)\nDevice: cuda\nNumber of classes: 32\nCNN(\n  (cnn1): Conv1d(4, 1, kernel_size=(3,), stride=(2,))\n  (lin1): Linear(in_features=928, out_features=64, bias=True)\n  (lin2): Linear(in_features=64, out_features=32, bias=True)\n  (act): Softmax(dim=-1)\n)\nModel parameter count: 61549\nTrain dataset: DEAPDataset(160) | Validation dataset: DEAPDataset(160)\nTraining...\n--Finished training--\nTraining time (s): 11.63\nTotal epochs: 55 ; Model picked from epoch 25\nAverage time per epoch: 0.21\n\n--Testing--\nTest loss: 2.52022\nTest acc: 0.998  \nTest F1: 0.998 \nTest precision: 0.998\nTest recall: 0.998\n'
Running: python3 main.py -m CNN -ef wav -ntt 30 -bs 16 -hc 64 -lr 0.0045 -dr 0 -st -wtr -esp 30 -trd test_2 -tmd best_params_2
b'Train/Val dataset: DEAPDataset(320) | Test dataset: DEAPDataset(960)\nDevice: cuda\nNumber of classes: 32\nCNN(\n  (cnn1): Conv1d(4, 1, kernel_size=(3,), stride=(2,))\n  (lin1): Linear(in_features=928, out_features=64, bias=True)\n  (lin2): Linear(in_features=64, out_features=32, bias=True)\n  (act): Softmax(dim=-1)\n)\nModel parameter count: 61549\nTrain dataset: DEAPDataset(160) | Validation dataset: DEAPDataset(160)\nTraining...\n--Finished training--\nTraining time (s): 9.87\nTotal epochs: 110 ; Model picked from epoch 80\nAverage time per epoch: 0.09\n\n--Testing--\nTest loss: 2.51924\nTest acc: 0.999  \nTest F1: 0.999 \nTest precision: 0.999\nTest recall: 0.999\n'
Running: python3 main.py -m CNN -ef wav -ntt 30 -bs 4 -hc 64 -lr 0.0045 -dr 0.4 -st -wtr -esp 30 -trd test_2 -tmd best_params_2
b'Train/Val dataset: DEAPDataset(320) | Test dataset: DEAPDataset(960)\nDevice: cuda\nNumber of classes: 32\nCNN(\n  (cnn1): Conv1d(4, 1, kernel_size=(3,), stride=(2,))\n  (lin1): Linear(in_features=928, out_features=64, bias=True)\n  (lin2): Linear(in_features=64, out_features=32, bias=True)\n  (act): Softmax(dim=-1)\n)\nModel parameter count: 61549\nTrain dataset: DEAPDataset(160) | Validation dataset: DEAPDataset(160)\nTraining...\n--Finished training--\nTraining time (s): 9.21\nTotal epochs: 37 ; Model picked from epoch 7\nAverage time per epoch: 0.25\n\n--Testing--\nTest loss: 2.52213\nTest acc: 0.997  \nTest F1: 0.997 \nTest precision: 0.997\nTest recall: 0.997\n'
Running: python3 main.py -m CNN -ef wav -ntt 30 -bs 16 -hc 64 -lr 0.0045 -dr 0.4 -st -wtr -esp 30 -trd test_2 -tmd best_params_2
b'Train/Val dataset: DEAPDataset(320) | Test dataset: DEAPDataset(960)\nDevice: cuda\nNumber of classes: 32\nCNN(\n  (cnn1): Conv1d(4, 1, kernel_size=(3,), stride=(2,))\n  (lin1): Linear(in_features=928, out_features=64, bias=True)\n  (lin2): Linear(in_features=64, out_features=32, bias=True)\n  (act): Softmax(dim=-1)\n)\nModel parameter count: 61549\nTrain dataset: DEAPDataset(160) | Validation dataset: DEAPDataset(160)\nTraining...\n--Finished training--\nTraining time (s): 4.94\nTotal epochs: 54 ; Model picked from epoch 24\nAverage time per epoch: 0.09\n\n--Testing--\nTest loss: 2.51989\nTest acc: 0.998  \nTest F1: 0.998 \nTest precision: 0.998\nTest recall: 0.998\n'
Running: python3 main.py -m CNN -ef wav -ntt 30 -bs 4 -hc 64 -lr 0.009 -dr 0 -st -wtr -esp 30 -trd test_2 -tmd best_params_2
b'Train/Val dataset: DEAPDataset(320) | Test dataset: DEAPDataset(960)\nDevice: cuda\nNumber of classes: 32\nCNN(\n  (cnn1): Conv1d(4, 1, kernel_size=(3,), stride=(2,))\n  (lin1): Linear(in_features=928, out_features=64, bias=True)\n  (lin2): Linear(in_features=64, out_features=32, bias=True)\n  (act): Softmax(dim=-1)\n)\nModel parameter count: 61549\nTrain dataset: DEAPDataset(160) | Validation dataset: DEAPDataset(160)\nTraining...\n--Finished training--\nTraining time (s): 10.65\nTotal epochs: 45 ; Model picked from epoch 15\nAverage time per epoch: 0.24\n\n--Testing--\nTest loss: 2.68039\nTest acc: 0.838  \nTest F1: 0.838 \nTest precision: 0.838\nTest recall: 0.838\n'
Running: python3 main.py -m CNN -ef wav -ntt 30 -bs 16 -hc 64 -lr 0.009 -dr 0 -st -wtr -esp 30 -trd test_2 -tmd best_params_2
b'Train/Val dataset: DEAPDataset(320) | Test dataset: DEAPDataset(960)\nDevice: cuda\nNumber of classes: 32\nCNN(\n  (cnn1): Conv1d(4, 1, kernel_size=(3,), stride=(2,))\n  (lin1): Linear(in_features=928, out_features=64, bias=True)\n  (lin2): Linear(in_features=64, out_features=32, bias=True)\n  (act): Softmax(dim=-1)\n)\nModel parameter count: 61549\nTrain dataset: DEAPDataset(160) | Validation dataset: DEAPDataset(160)\nTraining...\n--Finished training--\nTraining time (s): 8.07\nTotal epochs: 90 ; Model picked from epoch 60\nAverage time per epoch: 0.09\n\n--Testing--\nTest loss: 2.59236\nTest acc: 0.934  \nTest F1: 0.934 \nTest precision: 0.934\nTest recall: 0.934\n'
Running: python3 main.py -m CNN -ef wav -ntt 30 -bs 4 -hc 64 -lr 0.009 -dr 0.4 -st -wtr -esp 30 -trd test_2 -tmd best_params_2
b'Train/Val dataset: DEAPDataset(320) | Test dataset: DEAPDataset(960)\nDevice: cuda\nNumber of classes: 32\nCNN(\n  (cnn1): Conv1d(4, 1, kernel_size=(3,), stride=(2,))\n  (lin1): Linear(in_features=928, out_features=64, bias=True)\n  (lin2): Linear(in_features=64, out_features=32, bias=True)\n  (act): Softmax(dim=-1)\n)\nModel parameter count: 61549\nTrain dataset: DEAPDataset(160) | Validation dataset: DEAPDataset(160)\nTraining...\n--Finished training--\nTraining time (s): 10.08\nTotal epochs: 46 ; Model picked from epoch 16\nAverage time per epoch: 0.22\n\n--Testing--\nTest loss: 2.67493\nTest acc: 0.843  \nTest F1: 0.843 \nTest precision: 0.843\nTest recall: 0.843\n'
Running: python3 main.py -m CNN -ef wav -ntt 30 -bs 16 -hc 64 -lr 0.009 -dr 0.4 -st -wtr -esp 30 -trd test_2 -tmd best_params_2
b'Train/Val dataset: DEAPDataset(320) | Test dataset: DEAPDataset(960)\nDevice: cuda\nNumber of classes: 32\nCNN(\n  (cnn1): Conv1d(4, 1, kernel_size=(3,), stride=(2,))\n  (lin1): Linear(in_features=928, out_features=64, bias=True)\n  (lin2): Linear(in_features=64, out_features=32, bias=True)\n  (act): Softmax(dim=-1)\n)\nModel parameter count: 61549\nTrain dataset: DEAPDataset(160) | Validation dataset: DEAPDataset(160)\nTraining...\n--Finished training--\nTraining time (s): 4.85\nTotal epochs: 54 ; Model picked from epoch 24\nAverage time per epoch: 0.09\n\n--Testing--\nTest loss: 2.67549\nTest acc: 0.842  \nTest F1: 0.842 \nTest precision: 0.842\nTest recall: 0.842\n'
Running: python3 main.py -m CNN -ef wav -ntt 30 -bs 4 -hc 128 -lr 0.0001 -dr 0 -st -wtr -esp 30 -trd test_2 -tmd best_params_2
b'Train/Val dataset: DEAPDataset(320) | Test dataset: DEAPDataset(960)\nDevice: cuda\nNumber of classes: 32\nCNN(\n  (cnn1): Conv1d(4, 1, kernel_size=(3,), stride=(2,))\n  (lin1): Linear(in_features=928, out_features=128, bias=True)\n  (lin2): Linear(in_features=128, out_features=32, bias=True)\n  (act): Softmax(dim=-1)\n)\nModel parameter count: 123053\nTrain dataset: DEAPDataset(160) | Validation dataset: DEAPDataset(160)\nTraining...\n--Finished training--\nTraining time (s): 50.49\nTotal epochs: 196 ; Model picked from epoch 166\nAverage time per epoch: 0.26\n\n--Testing--\nTest loss: 2.51959\nTest acc: 0.999  \nTest F1: 0.999 \nTest precision: 0.999\nTest recall: 0.999\n'
Running: python3 main.py -m CNN -ef wav -ntt 30 -bs 16 -hc 128 -lr 0.0001 -dr 0 -st -wtr -esp 30 -trd test_2 -tmd best_params_2
b'Train/Val dataset: DEAPDataset(320) | Test dataset: DEAPDataset(960)\nDevice: cuda\nNumber of classes: 32\nCNN(\n  (cnn1): Conv1d(4, 1, kernel_size=(3,), stride=(2,))\n  (lin1): Linear(in_features=928, out_features=128, bias=True)\n  (lin2): Linear(in_features=128, out_features=32, bias=True)\n  (act): Softmax(dim=-1)\n)\nModel parameter count: 123053\nTrain dataset: DEAPDataset(160) | Validation dataset: DEAPDataset(160)\nTraining...\n--Finished training--\nTraining time (s): 33.04\nTotal epochs: 364 ; Model picked from epoch 334\nAverage time per epoch: 0.09\n\n--Testing--\nTest loss: 2.55063\nTest acc: 0.968  \nTest F1: 0.968 \nTest precision: 0.968\nTest recall: 0.968\n'
Running: python3 main.py -m CNN -ef wav -ntt 30 -bs 4 -hc 128 -lr 0.0001 -dr 0.4 -st -wtr -esp 30 -trd test_2 -tmd best_params_2
b'Train/Val dataset: DEAPDataset(320) | Test dataset: DEAPDataset(960)\nDevice: cuda\nNumber of classes: 32\nCNN(\n  (cnn1): Conv1d(4, 1, kernel_size=(3,), stride=(2,))\n  (lin1): Linear(in_features=928, out_features=128, bias=True)\n  (lin2): Linear(in_features=128, out_features=32, bias=True)\n  (act): Softmax(dim=-1)\n)\nModel parameter count: 123053\nTrain dataset: DEAPDataset(160) | Validation dataset: DEAPDataset(160)\nTraining...\n--Finished training--\nTraining time (s): 48.54\nTotal epochs: 187 ; Model picked from epoch 157\nAverage time per epoch: 0.26\n\n--Testing--\nTest loss: 2.55003\nTest acc: 0.968  \nTest F1: 0.968 \nTest precision: 0.968\nTest recall: 0.968\n'
Running: python3 main.py -m CNN -ef wav -ntt 30 -bs 16 -hc 128 -lr 0.0001 -dr 0.4 -st -wtr -esp 30 -trd test_2 -tmd best_params_2
b'Train/Val dataset: DEAPDataset(320) | Test dataset: DEAPDataset(960)\nDevice: cuda\nNumber of classes: 32\nCNN(\n  (cnn1): Conv1d(4, 1, kernel_size=(3,), stride=(2,))\n  (lin1): Linear(in_features=928, out_features=128, bias=True)\n  (lin2): Linear(in_features=128, out_features=32, bias=True)\n  (act): Softmax(dim=-1)\n)\nModel parameter count: 123053\nTrain dataset: DEAPDataset(160) | Validation dataset: DEAPDataset(160)\nTraining...\n--Finished training--\nTraining time (s): 28.84\nTotal epochs: 324 ; Model picked from epoch 294\nAverage time per epoch: 0.09\n\n--Testing--\nTest loss: 2.52032\nTest acc: 0.999  \nTest F1: 0.999 \nTest precision: 0.999\nTest recall: 0.999\n'
Running: python3 main.py -m CNN -ef wav -ntt 30 -bs 4 -hc 128 -lr 0.0045 -dr 0 -st -wtr -esp 30 -trd test_2 -tmd best_params_2
b'Train/Val dataset: DEAPDataset(320) | Test dataset: DEAPDataset(960)\nDevice: cuda\nNumber of classes: 32\nCNN(\n  (cnn1): Conv1d(4, 1, kernel_size=(3,), stride=(2,))\n  (lin1): Linear(in_features=928, out_features=128, bias=True)\n  (lin2): Linear(in_features=128, out_features=32, bias=True)\n  (act): Softmax(dim=-1)\n)\nModel parameter count: 123053\nTrain dataset: DEAPDataset(160) | Validation dataset: DEAPDataset(160)\nTraining...\n--Finished training--\nTraining time (s): 9.18\nTotal epochs: 37 ; Model picked from epoch 7\nAverage time per epoch: 0.25\n\n--Testing--\nTest loss: 2.73749\nTest acc: 0.779  \nTest F1: 0.779 \nTest precision: 0.779\nTest recall: 0.779\n'
Running: python3 main.py -m CNN -ef wav -ntt 30 -bs 16 -hc 128 -lr 0.0045 -dr 0 -st -wtr -esp 30 -trd test_2 -tmd best_params_2
b'Train/Val dataset: DEAPDataset(320) | Test dataset: DEAPDataset(960)\nDevice: cuda\nNumber of classes: 32\nCNN(\n  (cnn1): Conv1d(4, 1, kernel_size=(3,), stride=(2,))\n  (lin1): Linear(in_features=928, out_features=128, bias=True)\n  (lin2): Linear(in_features=128, out_features=32, bias=True)\n  (act): Softmax(dim=-1)\n)\nModel parameter count: 123053\nTrain dataset: DEAPDataset(160) | Validation dataset: DEAPDataset(160)\nTraining...\n--Finished training--\nTraining time (s): 7.68\nTotal epochs: 86 ; Model picked from epoch 56\nAverage time per epoch: 0.09\n\n--Testing--\nTest loss: 2.55013\nTest acc: 0.968  \nTest F1: 0.968 \nTest precision: 0.968\nTest recall: 0.968\n'
Running: python3 main.py -m CNN -ef wav -ntt 30 -bs 4 -hc 128 -lr 0.0045 -dr 0.4 -st -wtr -esp 30 -trd test_2 -tmd best_params_2
b'Train/Val dataset: DEAPDataset(320) | Test dataset: DEAPDataset(960)\nDevice: cuda\nNumber of classes: 32\nCNN(\n  (cnn1): Conv1d(4, 1, kernel_size=(3,), stride=(2,))\n  (lin1): Linear(in_features=928, out_features=128, bias=True)\n  (lin2): Linear(in_features=128, out_features=32, bias=True)\n  (act): Softmax(dim=-1)\n)\nModel parameter count: 123053\nTrain dataset: DEAPDataset(160) | Validation dataset: DEAPDataset(160)\nTraining...\n--Finished training--\nTraining time (s): 11.55\nTotal epochs: 46 ; Model picked from epoch 16\nAverage time per epoch: 0.25\n\n--Testing--\nTest loss: 2.55075\nTest acc: 0.968  \nTest F1: 0.968 \nTest precision: 0.968\nTest recall: 0.968\n'
Running: python3 main.py -m CNN -ef wav -ntt 30 -bs 16 -hc 128 -lr 0.0045 -dr 0.4 -st -wtr -esp 30 -trd test_2 -tmd best_params_2
b'Train/Val dataset: DEAPDataset(320) | Test dataset: DEAPDataset(960)\nDevice: cuda\nNumber of classes: 32\nCNN(\n  (cnn1): Conv1d(4, 1, kernel_size=(3,), stride=(2,))\n  (lin1): Linear(in_features=928, out_features=128, bias=True)\n  (lin2): Linear(in_features=128, out_features=32, bias=True)\n  (act): Softmax(dim=-1)\n)\nModel parameter count: 123053\nTrain dataset: DEAPDataset(160) | Validation dataset: DEAPDataset(160)\nTraining...\n--Finished training--\nTraining time (s): 4.33\nTotal epochs: 48 ; Model picked from epoch 18\nAverage time per epoch: 0.09\n\n--Testing--\nTest loss: 2.55061\nTest acc: 0.968  \nTest F1: 0.968 \nTest precision: 0.968\nTest recall: 0.968\n'
Running: python3 main.py -m CNN -ef wav -ntt 30 -bs 4 -hc 128 -lr 0.009 -dr 0 -st -wtr -esp 30 -trd test_2 -tmd best_params_2
b'Train/Val dataset: DEAPDataset(320) | Test dataset: DEAPDataset(960)\nDevice: cuda\nNumber of classes: 32\nCNN(\n  (cnn1): Conv1d(4, 1, kernel_size=(3,), stride=(2,))\n  (lin1): Linear(in_features=928, out_features=128, bias=True)\n  (lin2): Linear(in_features=128, out_features=32, bias=True)\n  (act): Softmax(dim=-1)\n)\nModel parameter count: 123053\nTrain dataset: DEAPDataset(160) | Validation dataset: DEAPDataset(160)\nTraining...\n--Finished training--\nTraining time (s): 10.56\nTotal epochs: 45 ; Model picked from epoch 15\nAverage time per epoch: 0.23\n\n--Testing--\nTest loss: 3.42461\nTest acc: 0.094  \nTest F1: 0.094 \nTest precision: 0.094\nTest recall: 0.094\n'
Running: python3 main.py -m CNN -ef wav -ntt 30 -bs 16 -hc 128 -lr 0.009 -dr 0 -st -wtr -esp 30 -trd test_2 -tmd best_params_2
b'Train/Val dataset: DEAPDataset(320) | Test dataset: DEAPDataset(960)\nDevice: cuda\nNumber of classes: 32\nCNN(\n  (cnn1): Conv1d(4, 1, kernel_size=(3,), stride=(2,))\n  (lin1): Linear(in_features=928, out_features=128, bias=True)\n  (lin2): Linear(in_features=128, out_features=32, bias=True)\n  (act): Softmax(dim=-1)\n)\nModel parameter count: 123053\nTrain dataset: DEAPDataset(160) | Validation dataset: DEAPDataset(160)\nTraining...\n--Finished training--\nTraining time (s): 3.79\nTotal epochs: 52 ; Model picked from epoch 22\nAverage time per epoch: 0.07\n\n--Testing--\nTest loss: 3.14545\nTest acc: 0.371  \nTest F1: 0.371 \nTest precision: 0.371\nTest recall: 0.371\n'
Running: python3 main.py -m CNN -ef wav -ntt 30 -bs 4 -hc 128 -lr 0.009 -dr 0.4 -st -wtr -esp 30 -trd test_2 -tmd best_params_2
b'Train/Val dataset: DEAPDataset(320) | Test dataset: DEAPDataset(960)\nDevice: cuda\nNumber of classes: 32\nCNN(\n  (cnn1): Conv1d(4, 1, kernel_size=(3,), stride=(2,))\n  (lin1): Linear(in_features=928, out_features=128, bias=True)\n  (lin2): Linear(in_features=128, out_features=32, bias=True)\n  (act): Softmax(dim=-1)\n)\nModel parameter count: 123053\nTrain dataset: DEAPDataset(160) | Validation dataset: DEAPDataset(160)\nTraining...\n--Finished training--\nTraining time (s): 9.30\nTotal epochs: 37 ; Model picked from epoch 7\nAverage time per epoch: 0.25\n\n--Testing--\nTest loss: 2.73671\nTest acc: 0.781  \nTest F1: 0.781 \nTest precision: 0.781\nTest recall: 0.781\n'
Running: python3 main.py -m CNN -ef wav -ntt 30 -bs 16 -hc 128 -lr 0.009 -dr 0.4 -st -wtr -esp 30 -trd test_2 -tmd best_params_2
b'Train/Val dataset: DEAPDataset(320) | Test dataset: DEAPDataset(960)\nDevice: cuda\nNumber of classes: 32\nCNN(\n  (cnn1): Conv1d(4, 1, kernel_size=(3,), stride=(2,))\n  (lin1): Linear(in_features=928, out_features=128, bias=True)\n  (lin2): Linear(in_features=128, out_features=32, bias=True)\n  (act): Softmax(dim=-1)\n)\nModel parameter count: 123053\nTrain dataset: DEAPDataset(160) | Validation dataset: DEAPDataset(160)\nTraining...\n--Finished training--\nTraining time (s): 3.88\nTotal epochs: 44 ; Model picked from epoch 14\nAverage time per epoch: 0.09\n\n--Testing--\nTest loss: 2.64307\nTest acc: 0.874  \nTest F1: 0.874 \nTest precision: 0.874\nTest recall: 0.874\n'
Running: python3 main.py -m CNN -ef wav -ntt 34 -bs 4 -hc 16 -lr 0.0001 -dr 0 -st -wtr -esp 30 -trd test_2 -tmd best_params_2
b'Train/Val dataset: DEAPDataset(192) | Test dataset: DEAPDataset(1088)\nDevice: cuda\nNumber of classes: 32\nCNN(\n  (cnn1): Conv1d(4, 1, kernel_size=(3,), stride=(2,))\n  (lin1): Linear(in_features=928, out_features=16, bias=True)\n  (lin2): Linear(in_features=16, out_features=32, bias=True)\n  (act): Softmax(dim=-1)\n)\nModel parameter count: 15421\nTrain dataset: DEAPDataset(32) | Validation dataset: DEAPDataset(160)\nTraining...\n--Finished training--\nTraining time (s): 132.18\nTotal epochs: 1142 ; Model picked from epoch 1112\nAverage time per epoch: 0.12\n\n--Testing--\nTest loss: 2.62752\nTest acc: 0.902  \nTest F1: 0.902 \nTest precision: 0.902\nTest recall: 0.902\n'
Running: python3 main.py -m CNN -ef wav -ntt 34 -bs 16 -hc 16 -lr 0.0001 -dr 0 -st -wtr -esp 30 -trd test_2 -tmd best_params_2
b'Train/Val dataset: DEAPDataset(192) | Test dataset: DEAPDataset(1088)\nDevice: cuda\nNumber of classes: 32\nCNN(\n  (cnn1): Conv1d(4, 1, kernel_size=(3,), stride=(2,))\n  (lin1): Linear(in_features=928, out_features=16, bias=True)\n  (lin2): Linear(in_features=16, out_features=32, bias=True)\n  (act): Softmax(dim=-1)\n)\nModel parameter count: 15421\nTrain dataset: DEAPDataset(32) | Validation dataset: DEAPDataset(160)\nTraining...\n--Finished training--\nTraining time (s): 90.29\nTotal epochs: 1976 ; Model picked from epoch 1946\nAverage time per epoch: 0.05\n\n--Testing--\nTest loss: 2.59369\nTest acc: 0.943  \nTest F1: 0.943 \nTest precision: 0.943\nTest recall: 0.943\n'
Running: python3 main.py -m CNN -ef wav -ntt 34 -bs 4 -hc 16 -lr 0.0001 -dr 0.4 -st -wtr -esp 30 -trd test_2 -tmd best_params_2
b'Train/Val dataset: DEAPDataset(192) | Test dataset: DEAPDataset(1088)\nDevice: cuda\nNumber of classes: 32\nCNN(\n  (cnn1): Conv1d(4, 1, kernel_size=(3,), stride=(2,))\n  (lin1): Linear(in_features=928, out_features=16, bias=True)\n  (lin2): Linear(in_features=16, out_features=32, bias=True)\n  (act): Softmax(dim=-1)\n)\nModel parameter count: 15421\nTrain dataset: DEAPDataset(32) | Validation dataset: DEAPDataset(160)\nTraining...\n--Finished training--\nTraining time (s): 117.42\nTotal epochs: 914 ; Model picked from epoch 884\nAverage time per epoch: 0.13\n\n--Testing--\nTest loss: 2.66706\nTest acc: 0.869  \nTest F1: 0.869 \nTest precision: 0.869\nTest recall: 0.869\n'
Running: python3 main.py -m CNN -ef wav -ntt 34 -bs 16 -hc 16 -lr 0.0001 -dr 0.4 -st -wtr -esp 30 -trd test_2 -tmd best_params_2
b'Train/Val dataset: DEAPDataset(192) | Test dataset: DEAPDataset(1088)\nDevice: cuda\nNumber of classes: 32\nCNN(\n  (cnn1): Conv1d(4, 1, kernel_size=(3,), stride=(2,))\n  (lin1): Linear(in_features=928, out_features=16, bias=True)\n  (lin2): Linear(in_features=16, out_features=32, bias=True)\n  (act): Softmax(dim=-1)\n)\nModel parameter count: 15421\nTrain dataset: DEAPDataset(32) | Validation dataset: DEAPDataset(160)\nTraining...\n--Finished training--\nTraining time (s): 144.73\nTotal epochs: 3122 ; Model picked from epoch 3092\nAverage time per epoch: 0.05\n\n--Testing--\nTest loss: 2.63222\nTest acc: 0.892  \nTest F1: 0.892 \nTest precision: 0.892\nTest recall: 0.892\n'
Running: python3 main.py -m CNN -ef wav -ntt 34 -bs 4 -hc 16 -lr 0.0045 -dr 0 -st -wtr -esp 30 -trd test_2 -tmd best_params_2
b'Train/Val dataset: DEAPDataset(192) | Test dataset: DEAPDataset(1088)\nDevice: cuda\nNumber of classes: 32\nCNN(\n  (cnn1): Conv1d(4, 1, kernel_size=(3,), stride=(2,))\n  (lin1): Linear(in_features=928, out_features=16, bias=True)\n  (lin2): Linear(in_features=16, out_features=32, bias=True)\n  (act): Softmax(dim=-1)\n)\nModel parameter count: 15421\nTrain dataset: DEAPDataset(32) | Validation dataset: DEAPDataset(160)\nTraining...\n--Finished training--\nTraining time (s): 38.27\nTotal epochs: 275 ; Model picked from epoch 245\nAverage time per epoch: 0.14\n\n--Testing--\nTest loss: 2.59453\nTest acc: 0.937  \nTest F1: 0.937 \nTest precision: 0.937\nTest recall: 0.937\n'
Running: python3 main.py -m CNN -ef wav -ntt 34 -bs 16 -hc 16 -lr 0.0045 -dr 0 -st -wtr -esp 30 -trd test_2 -tmd best_params_2
b'Train/Val dataset: DEAPDataset(192) | Test dataset: DEAPDataset(1088)\nDevice: cuda\nNumber of classes: 32\nCNN(\n  (cnn1): Conv1d(4, 1, kernel_size=(3,), stride=(2,))\n  (lin1): Linear(in_features=928, out_features=16, bias=True)\n  (lin2): Linear(in_features=16, out_features=32, bias=True)\n  (act): Softmax(dim=-1)\n)\nModel parameter count: 15421\nTrain dataset: DEAPDataset(32) | Validation dataset: DEAPDataset(160)\nTraining...\n--Finished training--\nTraining time (s): 4.57\nTotal epochs: 81 ; Model picked from epoch 51\nAverage time per epoch: 0.06\n\n--Testing--\nTest loss: 2.60261\nTest acc: 0.937  \nTest F1: 0.937 \nTest precision: 0.937\nTest recall: 0.937\n'
Running: python3 main.py -m CNN -ef wav -ntt 34 -bs 4 -hc 16 -lr 0.0045 -dr 0.4 -st -wtr -esp 30 -trd test_2 -tmd best_params_2
b'Train/Val dataset: DEAPDataset(192) | Test dataset: DEAPDataset(1088)\nDevice: cuda\nNumber of classes: 32\nCNN(\n  (cnn1): Conv1d(4, 1, kernel_size=(3,), stride=(2,))\n  (lin1): Linear(in_features=928, out_features=16, bias=True)\n  (lin2): Linear(in_features=16, out_features=32, bias=True)\n  (act): Softmax(dim=-1)\n)\nModel parameter count: 15421\nTrain dataset: DEAPDataset(32) | Validation dataset: DEAPDataset(160)\nTraining...\n--Finished training--\nTraining time (s): 22.10\nTotal epochs: 158 ; Model picked from epoch 128\nAverage time per epoch: 0.14\n\n--Testing--\nTest loss: 2.62840\nTest acc: 0.897  \nTest F1: 0.897 \nTest precision: 0.897\nTest recall: 0.897\n'
Running: python3 main.py -m CNN -ef wav -ntt 34 -bs 16 -hc 16 -lr 0.0045 -dr 0.4 -st -wtr -esp 30 -trd test_2 -tmd best_params_2
b'Train/Val dataset: DEAPDataset(192) | Test dataset: DEAPDataset(1088)\nDevice: cuda\nNumber of classes: 32\nCNN(\n  (cnn1): Conv1d(4, 1, kernel_size=(3,), stride=(2,))\n  (lin1): Linear(in_features=928, out_features=16, bias=True)\n  (lin2): Linear(in_features=16, out_features=32, bias=True)\n  (act): Softmax(dim=-1)\n)\nModel parameter count: 15421\nTrain dataset: DEAPDataset(32) | Validation dataset: DEAPDataset(160)\nTraining...\n--Finished training--\nTraining time (s): 7.38\nTotal epochs: 140 ; Model picked from epoch 110\nAverage time per epoch: 0.05\n\n--Testing--\nTest loss: 2.61462\nTest acc: 0.911  \nTest F1: 0.911 \nTest precision: 0.911\nTest recall: 0.911\n'
Running: python3 main.py -m CNN -ef wav -ntt 34 -bs 4 -hc 16 -lr 0.009 -dr 0 -st -wtr -esp 30 -trd test_2 -tmd best_params_2
b'Train/Val dataset: DEAPDataset(192) | Test dataset: DEAPDataset(1088)\nDevice: cuda\nNumber of classes: 32\nCNN(\n  (cnn1): Conv1d(4, 1, kernel_size=(3,), stride=(2,))\n  (lin1): Linear(in_features=928, out_features=16, bias=True)\n  (lin2): Linear(in_features=16, out_features=32, bias=True)\n  (act): Softmax(dim=-1)\n)\nModel parameter count: 15421\nTrain dataset: DEAPDataset(32) | Validation dataset: DEAPDataset(160)\nTraining...\n--Finished training--\nTraining time (s): 8.82\nTotal epochs: 60 ; Model picked from epoch 30\nAverage time per epoch: 0.15\n\n--Testing--\nTest loss: 2.72650\nTest acc: 0.800  \nTest F1: 0.800 \nTest precision: 0.800\nTest recall: 0.800\n'
Running: python3 main.py -m CNN -ef wav -ntt 34 -bs 16 -hc 16 -lr 0.009 -dr 0 -st -wtr -esp 30 -trd test_2 -tmd best_params_2
b'Train/Val dataset: DEAPDataset(192) | Test dataset: DEAPDataset(1088)\nDevice: cuda\nNumber of classes: 32\nCNN(\n  (cnn1): Conv1d(4, 1, kernel_size=(3,), stride=(2,))\n  (lin1): Linear(in_features=928, out_features=16, bias=True)\n  (lin2): Linear(in_features=16, out_features=32, bias=True)\n  (act): Softmax(dim=-1)\n)\nModel parameter count: 15421\nTrain dataset: DEAPDataset(32) | Validation dataset: DEAPDataset(160)\nTraining...\n--Finished training--\nTraining time (s): 6.57\nTotal epochs: 119 ; Model picked from epoch 89\nAverage time per epoch: 0.06\n\n--Testing--\nTest loss: 2.70974\nTest acc: 0.817  \nTest F1: 0.817 \nTest precision: 0.817\nTest recall: 0.817\n'
Running: python3 main.py -m CNN -ef wav -ntt 34 -bs 4 -hc 16 -lr 0.009 -dr 0.4 -st -wtr -esp 30 -trd test_2 -tmd best_params_2
b'Train/Val dataset: DEAPDataset(192) | Test dataset: DEAPDataset(1088)\nDevice: cuda\nNumber of classes: 32\nCNN(\n  (cnn1): Conv1d(4, 1, kernel_size=(3,), stride=(2,))\n  (lin1): Linear(in_features=928, out_features=16, bias=True)\n  (lin2): Linear(in_features=16, out_features=32, bias=True)\n  (act): Softmax(dim=-1)\n)\nModel parameter count: 15421\nTrain dataset: DEAPDataset(32) | Validation dataset: DEAPDataset(160)\nTraining...\n--Finished training--\nTraining time (s): 8.88\nTotal epochs: 56 ; Model picked from epoch 26\nAverage time per epoch: 0.16\n\n--Testing--\nTest loss: 2.73080\nTest acc: 0.801  \nTest F1: 0.801 \nTest precision: 0.801\nTest recall: 0.801\n'
Running: python3 main.py -m CNN -ef wav -ntt 34 -bs 16 -hc 16 -lr 0.009 -dr 0.4 -st -wtr -esp 30 -trd test_2 -tmd best_params_2
b'Train/Val dataset: DEAPDataset(192) | Test dataset: DEAPDataset(1088)\nDevice: cuda\nNumber of classes: 32\nCNN(\n  (cnn1): Conv1d(4, 1, kernel_size=(3,), stride=(2,))\n  (lin1): Linear(in_features=928, out_features=16, bias=True)\n  (lin2): Linear(in_features=16, out_features=32, bias=True)\n  (act): Softmax(dim=-1)\n)\nModel parameter count: 15421\nTrain dataset: DEAPDataset(32) | Validation dataset: DEAPDataset(160)\nTraining...\n--Finished training--\nTraining time (s): 5.28\nTotal epochs: 95 ; Model picked from epoch 65\nAverage time per epoch: 0.06\n\n--Testing--\nTest loss: 2.65142\nTest acc: 0.874  \nTest F1: 0.874 \nTest precision: 0.874\nTest recall: 0.874\n'
Running: python3 main.py -m CNN -ef wav -ntt 34 -bs 4 -hc 64 -lr 0.0001 -dr 0 -st -wtr -esp 30 -trd test_2 -tmd best_params_2
b'Train/Val dataset: DEAPDataset(192) | Test dataset: DEAPDataset(1088)\nDevice: cuda\nNumber of classes: 32\nCNN(\n  (cnn1): Conv1d(4, 1, kernel_size=(3,), stride=(2,))\n  (lin1): Linear(in_features=928, out_features=64, bias=True)\n  (lin2): Linear(in_features=64, out_features=32, bias=True)\n  (act): Softmax(dim=-1)\n)\nModel parameter count: 61549\nTrain dataset: DEAPDataset(32) | Validation dataset: DEAPDataset(160)\nTraining...\n--Finished training--\nTraining time (s): 250.34\nTotal epochs: 1923 ; Model picked from epoch 1893\nAverage time per epoch: 0.13\n\n--Testing--\nTest loss: 2.53865\nTest acc: 0.984  \nTest F1: 0.984 \nTest precision: 0.984\nTest recall: 0.984\n'
Running: python3 main.py -m CNN -ef wav -ntt 34 -bs 16 -hc 64 -lr 0.0001 -dr 0 -st -wtr -esp 30 -trd test_2 -tmd best_params_2
b'Train/Val dataset: DEAPDataset(192) | Test dataset: DEAPDataset(1088)\nDevice: cuda\nNumber of classes: 32\nCNN(\n  (cnn1): Conv1d(4, 1, kernel_size=(3,), stride=(2,))\n  (lin1): Linear(in_features=928, out_features=64, bias=True)\n  (lin2): Linear(in_features=64, out_features=32, bias=True)\n  (act): Softmax(dim=-1)\n)\nModel parameter count: 61549\nTrain dataset: DEAPDataset(32) | Validation dataset: DEAPDataset(160)\nTraining...\n--Finished training--\nTraining time (s): 197.32\nTotal epochs: 4266 ; Model picked from epoch 4236\nAverage time per epoch: 0.05\n\n--Testing--\nTest loss: 2.53779\nTest acc: 0.985  \nTest F1: 0.985 \nTest precision: 0.985\nTest recall: 0.985\n'
Running: python3 main.py -m CNN -ef wav -ntt 34 -bs 4 -hc 64 -lr 0.0001 -dr 0.4 -st -wtr -esp 30 -trd test_2 -tmd best_params_2
b'Train/Val dataset: DEAPDataset(192) | Test dataset: DEAPDataset(1088)\nDevice: cuda\nNumber of classes: 32\nCNN(\n  (cnn1): Conv1d(4, 1, kernel_size=(3,), stride=(2,))\n  (lin1): Linear(in_features=928, out_features=64, bias=True)\n  (lin2): Linear(in_features=64, out_features=32, bias=True)\n  (act): Softmax(dim=-1)\n)\nModel parameter count: 61549\nTrain dataset: DEAPDataset(32) | Validation dataset: DEAPDataset(160)\nTraining...\n--Finished training--\nTraining time (s): 85.99\nTotal epochs: 681 ; Model picked from epoch 651\nAverage time per epoch: 0.13\n\n--Testing--\nTest loss: 2.56014\nTest acc: 0.966  \nTest F1: 0.966 \nTest precision: 0.966\nTest recall: 0.966\n'
Running: python3 main.py -m CNN -ef wav -ntt 34 -bs 16 -hc 64 -lr 0.0001 -dr 0.4 -st -wtr -esp 30 -trd test_2 -tmd best_params_2
b'Train/Val dataset: DEAPDataset(192) | Test dataset: DEAPDataset(1088)\nDevice: cuda\nNumber of classes: 32\nCNN(\n  (cnn1): Conv1d(4, 1, kernel_size=(3,), stride=(2,))\n  (lin1): Linear(in_features=928, out_features=64, bias=True)\n  (lin2): Linear(in_features=64, out_features=32, bias=True)\n  (act): Softmax(dim=-1)\n)\nModel parameter count: 61549\nTrain dataset: DEAPDataset(32) | Validation dataset: DEAPDataset(160)\nTraining...\n--Finished training--\nTraining time (s): 39.31\nTotal epochs: 820 ; Model picked from epoch 790\nAverage time per epoch: 0.05\n\n--Testing--\nTest loss: 2.57217\nTest acc: 0.958  \nTest F1: 0.958 \nTest precision: 0.958\nTest recall: 0.958\n'
Running: python3 main.py -m CNN -ef wav -ntt 34 -bs 4 -hc 64 -lr 0.0045 -dr 0 -st -wtr -esp 30 -trd test_2 -tmd best_params_2
b'Train/Val dataset: DEAPDataset(192) | Test dataset: DEAPDataset(1088)\nDevice: cuda\nNumber of classes: 32\nCNN(\n  (cnn1): Conv1d(4, 1, kernel_size=(3,), stride=(2,))\n  (lin1): Linear(in_features=928, out_features=64, bias=True)\n  (lin2): Linear(in_features=64, out_features=32, bias=True)\n  (act): Softmax(dim=-1)\n)\nModel parameter count: 61549\nTrain dataset: DEAPDataset(32) | Validation dataset: DEAPDataset(160)\nTraining...\n--Finished training--\nTraining time (s): 26.10\nTotal epochs: 205 ; Model picked from epoch 175\nAverage time per epoch: 0.13\n\n--Testing--\nTest loss: 2.76360\nTest acc: 0.769  \nTest F1: 0.769 \nTest precision: 0.769\nTest recall: 0.769\n'
Running: python3 main.py -m CNN -ef wav -ntt 34 -bs 16 -hc 64 -lr 0.0045 -dr 0 -st -wtr -esp 30 -trd test_2 -tmd best_params_2
b'Train/Val dataset: DEAPDataset(192) | Test dataset: DEAPDataset(1088)\nDevice: cuda\nNumber of classes: 32\nCNN(\n  (cnn1): Conv1d(4, 1, kernel_size=(3,), stride=(2,))\n  (lin1): Linear(in_features=928, out_features=64, bias=True)\n  (lin2): Linear(in_features=64, out_features=32, bias=True)\n  (act): Softmax(dim=-1)\n)\nModel parameter count: 61549\nTrain dataset: DEAPDataset(32) | Validation dataset: DEAPDataset(160)\nTraining...\n--Finished training--\nTraining time (s): 5.14\nTotal epochs: 108 ; Model picked from epoch 78\nAverage time per epoch: 0.05\n\n--Testing--\nTest loss: 3.17403\nTest acc: 0.377  \nTest F1: 0.377 \nTest precision: 0.377\nTest recall: 0.377\n'
Running: python3 main.py -m CNN -ef wav -ntt 34 -bs 4 -hc 64 -lr 0.0045 -dr 0.4 -st -wtr -esp 30 -trd test_2 -tmd best_params_2
b'Train/Val dataset: DEAPDataset(192) | Test dataset: DEAPDataset(1088)\nDevice: cuda\nNumber of classes: 32\nCNN(\n  (cnn1): Conv1d(4, 1, kernel_size=(3,), stride=(2,))\n  (lin1): Linear(in_features=928, out_features=64, bias=True)\n  (lin2): Linear(in_features=64, out_features=32, bias=True)\n  (act): Softmax(dim=-1)\n)\nModel parameter count: 61549\nTrain dataset: DEAPDataset(32) | Validation dataset: DEAPDataset(160)\nTraining...\n--Finished training--\nTraining time (s): 11.29\nTotal epochs: 88 ; Model picked from epoch 58\nAverage time per epoch: 0.13\n\n--Testing--\nTest loss: 2.73964\nTest acc: 0.786  \nTest F1: 0.786 \nTest precision: 0.786\nTest recall: 0.786\n'
Running: python3 main.py -m CNN -ef wav -ntt 34 -bs 16 -hc 64 -lr 0.0045 -dr 0.4 -st -wtr -esp 30 -trd test_2 -tmd best_params_2
b'Train/Val dataset: DEAPDataset(192) | Test dataset: DEAPDataset(1088)\nDevice: cuda\nNumber of classes: 32\nCNN(\n  (cnn1): Conv1d(4, 1, kernel_size=(3,), stride=(2,))\n  (lin1): Linear(in_features=928, out_features=64, bias=True)\n  (lin2): Linear(in_features=64, out_features=32, bias=True)\n  (act): Softmax(dim=-1)\n)\nModel parameter count: 61549\nTrain dataset: DEAPDataset(32) | Validation dataset: DEAPDataset(160)\nTraining...\n--Finished training--\nTraining time (s): 2.92\nTotal epochs: 61 ; Model picked from epoch 31\nAverage time per epoch: 0.05\n\n--Testing--\nTest loss: 2.56181\nTest acc: 0.960  \nTest F1: 0.960 \nTest precision: 0.960\nTest recall: 0.960\n'
Running: python3 main.py -m CNN -ef wav -ntt 34 -bs 4 -hc 64 -lr 0.009 -dr 0 -st -wtr -esp 30 -trd test_2 -tmd best_params_2
b'Train/Val dataset: DEAPDataset(192) | Test dataset: DEAPDataset(1088)\nDevice: cuda\nNumber of classes: 32\nCNN(\n  (cnn1): Conv1d(4, 1, kernel_size=(3,), stride=(2,))\n  (lin1): Linear(in_features=928, out_features=64, bias=True)\n  (lin2): Linear(in_features=64, out_features=32, bias=True)\n  (act): Softmax(dim=-1)\n)\nModel parameter count: 61549\nTrain dataset: DEAPDataset(32) | Validation dataset: DEAPDataset(160)\nTraining...\n--Finished training--\nTraining time (s): 4.46\nTotal epochs: 35 ; Model picked from epoch 5\nAverage time per epoch: 0.13\n\n--Testing--\nTest loss: 2.80775\nTest acc: 0.726  \nTest F1: 0.726 \nTest precision: 0.726\nTest recall: 0.726\n'
Running: python3 main.py -m CNN -ef wav -ntt 34 -bs 16 -hc 64 -lr 0.009 -dr 0 -st -wtr -esp 30 -trd test_2 -tmd best_params_2
b'Train/Val dataset: DEAPDataset(192) | Test dataset: DEAPDataset(1088)\nDevice: cuda\nNumber of classes: 32\nCNN(\n  (cnn1): Conv1d(4, 1, kernel_size=(3,), stride=(2,))\n  (lin1): Linear(in_features=928, out_features=64, bias=True)\n  (lin2): Linear(in_features=64, out_features=32, bias=True)\n  (act): Softmax(dim=-1)\n)\nModel parameter count: 61549\nTrain dataset: DEAPDataset(32) | Validation dataset: DEAPDataset(160)\nTraining...\n--Finished training--\nTraining time (s): 1.77\nTotal epochs: 38 ; Model picked from epoch 8\nAverage time per epoch: 0.05\n\n--Testing--\nTest loss: 2.58861\nTest acc: 0.944  \nTest F1: 0.944 \nTest precision: 0.944\nTest recall: 0.944\n'
Running: python3 main.py -m CNN -ef wav -ntt 34 -bs 4 -hc 64 -lr 0.009 -dr 0.4 -st -wtr -esp 30 -trd test_2 -tmd best_params_2
b'Train/Val dataset: DEAPDataset(192) | Test dataset: DEAPDataset(1088)\nDevice: cuda\nNumber of classes: 32\nCNN(\n  (cnn1): Conv1d(4, 1, kernel_size=(3,), stride=(2,))\n  (lin1): Linear(in_features=928, out_features=64, bias=True)\n  (lin2): Linear(in_features=64, out_features=32, bias=True)\n  (act): Softmax(dim=-1)\n)\nModel parameter count: 61549\nTrain dataset: DEAPDataset(32) | Validation dataset: DEAPDataset(160)\nTraining...\n--Finished training--\nTraining time (s): 8.39\nTotal epochs: 65 ; Model picked from epoch 35\nAverage time per epoch: 0.13\n\n--Testing--\nTest loss: 2.68494\nTest acc: 0.835  \nTest F1: 0.835 \nTest precision: 0.835\nTest recall: 0.835\n'
Running: python3 main.py -m CNN -ef wav -ntt 34 -bs 16 -hc 64 -lr 0.009 -dr 0.4 -st -wtr -esp 30 -trd test_2 -tmd best_params_2
b'Train/Val dataset: DEAPDataset(192) | Test dataset: DEAPDataset(1088)\nDevice: cuda\nNumber of classes: 32\nCNN(\n  (cnn1): Conv1d(4, 1, kernel_size=(3,), stride=(2,))\n  (lin1): Linear(in_features=928, out_features=64, bias=True)\n  (lin2): Linear(in_features=64, out_features=32, bias=True)\n  (act): Softmax(dim=-1)\n)\nModel parameter count: 61549\nTrain dataset: DEAPDataset(32) | Validation dataset: DEAPDataset(160)\nTraining...\n--Finished training--\nTraining time (s): 2.79\nTotal epochs: 59 ; Model picked from epoch 29\nAverage time per epoch: 0.05\n\n--Testing--\nTest loss: 3.16335\nTest acc: 0.371  \nTest F1: 0.371 \nTest precision: 0.371\nTest recall: 0.371\n'
Running: python3 main.py -m CNN -ef wav -ntt 34 -bs 4 -hc 128 -lr 0.0001 -dr 0 -st -wtr -esp 30 -trd test_2 -tmd best_params_2
b'Train/Val dataset: DEAPDataset(192) | Test dataset: DEAPDataset(1088)\nDevice: cuda\nNumber of classes: 32\nCNN(\n  (cnn1): Conv1d(4, 1, kernel_size=(3,), stride=(2,))\n  (lin1): Linear(in_features=928, out_features=128, bias=True)\n  (lin2): Linear(in_features=128, out_features=32, bias=True)\n  (act): Softmax(dim=-1)\n)\nModel parameter count: 123053\nTrain dataset: DEAPDataset(32) | Validation dataset: DEAPDataset(160)\nTraining...\n--Finished training--\nTraining time (s): 217.30\nTotal epochs: 1749 ; Model picked from epoch 1719\nAverage time per epoch: 0.12\n\n--Testing--\nTest loss: 2.53263\nTest acc: 0.990  \nTest F1: 0.990 \nTest precision: 0.990\nTest recall: 0.990\n'
Running: python3 main.py -m CNN -ef wav -ntt 34 -bs 16 -hc 128 -lr 0.0001 -dr 0 -st -wtr -esp 30 -trd test_2 -tmd best_params_2
b'Train/Val dataset: DEAPDataset(192) | Test dataset: DEAPDataset(1088)\nDevice: cuda\nNumber of classes: 32\nCNN(\n  (cnn1): Conv1d(4, 1, kernel_size=(3,), stride=(2,))\n  (lin1): Linear(in_features=928, out_features=128, bias=True)\n  (lin2): Linear(in_features=128, out_features=32, bias=True)\n  (act): Softmax(dim=-1)\n)\nModel parameter count: 123053\nTrain dataset: DEAPDataset(32) | Validation dataset: DEAPDataset(160)\nTraining...\n--Finished training--\nTraining time (s): 91.98\nTotal epochs: 1878 ; Model picked from epoch 1848\nAverage time per epoch: 0.05\n\n--Testing--\nTest loss: 2.53104\nTest acc: 0.993  \nTest F1: 0.993 \nTest precision: 0.993\nTest recall: 0.993\n'
Running: python3 main.py -m CNN -ef wav -ntt 34 -bs 4 -hc 128 -lr 0.0001 -dr 0.4 -st -wtr -esp 30 -trd test_2 -tmd best_params_2
b'Train/Val dataset: DEAPDataset(192) | Test dataset: DEAPDataset(1088)\nDevice: cuda\nNumber of classes: 32\nCNN(\n  (cnn1): Conv1d(4, 1, kernel_size=(3,), stride=(2,))\n  (lin1): Linear(in_features=928, out_features=128, bias=True)\n  (lin2): Linear(in_features=128, out_features=32, bias=True)\n  (act): Softmax(dim=-1)\n)\nModel parameter count: 123053\nTrain dataset: DEAPDataset(32) | Validation dataset: DEAPDataset(160)\nTraining...\n--Finished training--\nTraining time (s): 59.00\nTotal epochs: 431 ; Model picked from epoch 401\nAverage time per epoch: 0.14\n\n--Testing--\nTest loss: 2.56088\nTest acc: 0.966  \nTest F1: 0.966 \nTest precision: 0.966\nTest recall: 0.966\n'
Running: python3 main.py -m CNN -ef wav -ntt 34 -bs 16 -hc 128 -lr 0.0001 -dr 0.4 -st -wtr -esp 30 -trd test_2 -tmd best_params_2
b'Train/Val dataset: DEAPDataset(192) | Test dataset: DEAPDataset(1088)\nDevice: cuda\nNumber of classes: 32\nCNN(\n  (cnn1): Conv1d(4, 1, kernel_size=(3,), stride=(2,))\n  (lin1): Linear(in_features=928, out_features=128, bias=True)\n  (lin2): Linear(in_features=128, out_features=32, bias=True)\n  (act): Softmax(dim=-1)\n)\nModel parameter count: 123053\nTrain dataset: DEAPDataset(32) | Validation dataset: DEAPDataset(160)\nTraining...\n--Finished training--\nTraining time (s): 51.53\nTotal epochs: 1025 ; Model picked from epoch 995\nAverage time per epoch: 0.05\n\n--Testing--\nTest loss: 2.53775\nTest acc: 0.990  \nTest F1: 0.990 \nTest precision: 0.990\nTest recall: 0.990\n'
Running: python3 main.py -m CNN -ef wav -ntt 34 -bs 4 -hc 128 -lr 0.0045 -dr 0 -st -wtr -esp 30 -trd test_2 -tmd best_params_2
b'Train/Val dataset: DEAPDataset(192) | Test dataset: DEAPDataset(1088)\nDevice: cuda\nNumber of classes: 32\nCNN(\n  (cnn1): Conv1d(4, 1, kernel_size=(3,), stride=(2,))\n  (lin1): Linear(in_features=928, out_features=128, bias=True)\n  (lin2): Linear(in_features=128, out_features=32, bias=True)\n  (act): Softmax(dim=-1)\n)\nModel parameter count: 123053\nTrain dataset: DEAPDataset(32) | Validation dataset: DEAPDataset(160)\nTraining...\n--Finished training--\nTraining time (s): 427.10\nTotal epochs: 3471 ; Model picked from epoch 3441\nAverage time per epoch: 0.12\n\n--Testing--\nTest loss: 2.55057\nTest acc: 0.971  \nTest F1: 0.971 \nTest precision: 0.971\nTest recall: 0.971\n'
Running: python3 main.py -m CNN -ef wav -ntt 34 -bs 16 -hc 128 -lr 0.0045 -dr 0 -st -wtr -esp 30 -trd test_2 -tmd best_params_2
b'Train/Val dataset: DEAPDataset(192) | Test dataset: DEAPDataset(1088)\nDevice: cuda\nNumber of classes: 32\nCNN(\n  (cnn1): Conv1d(4, 1, kernel_size=(3,), stride=(2,))\n  (lin1): Linear(in_features=928, out_features=128, bias=True)\n  (lin2): Linear(in_features=128, out_features=32, bias=True)\n  (act): Softmax(dim=-1)\n)\nModel parameter count: 123053\nTrain dataset: DEAPDataset(32) | Validation dataset: DEAPDataset(160)\nTraining...\n--Finished training--\nTraining time (s): 9.59\nTotal epochs: 193 ; Model picked from epoch 163\nAverage time per epoch: 0.05\n\n--Testing--\nTest loss: 2.99926\nTest acc: 0.541  \nTest F1: 0.541 \nTest precision: 0.541\nTest recall: 0.541\n'
Running: python3 main.py -m CNN -ef wav -ntt 34 -bs 4 -hc 128 -lr 0.0045 -dr 0.4 -st -wtr -esp 30 -trd test_2 -tmd best_params_2
b'Train/Val dataset: DEAPDataset(192) | Test dataset: DEAPDataset(1088)\nDevice: cuda\nNumber of classes: 32\nCNN(\n  (cnn1): Conv1d(4, 1, kernel_size=(3,), stride=(2,))\n  (lin1): Linear(in_features=928, out_features=128, bias=True)\n  (lin2): Linear(in_features=128, out_features=32, bias=True)\n  (act): Softmax(dim=-1)\n)\nModel parameter count: 123053\nTrain dataset: DEAPDataset(32) | Validation dataset: DEAPDataset(160)\nTraining...\n--Finished training--\nTraining time (s): 9.72\nTotal epochs: 70 ; Model picked from epoch 40\nAverage time per epoch: 0.14\n\n--Testing--\nTest loss: 2.53165\nTest acc: 0.990  \nTest F1: 0.990 \nTest precision: 0.990\nTest recall: 0.990\n'
Running: python3 main.py -m CNN -ef wav -ntt 34 -bs 16 -hc 128 -lr 0.0045 -dr 0.4 -st -wtr -esp 30 -trd test_2 -tmd best_params_2
b'Train/Val dataset: DEAPDataset(192) | Test dataset: DEAPDataset(1088)\nDevice: cuda\nNumber of classes: 32\nCNN(\n  (cnn1): Conv1d(4, 1, kernel_size=(3,), stride=(2,))\n  (lin1): Linear(in_features=928, out_features=128, bias=True)\n  (lin2): Linear(in_features=128, out_features=32, bias=True)\n  (act): Softmax(dim=-1)\n)\nModel parameter count: 123053\nTrain dataset: DEAPDataset(32) | Validation dataset: DEAPDataset(160)\nTraining...\n--Finished training--\nTraining time (s): 9.79\nTotal epochs: 198 ; Model picked from epoch 168\nAverage time per epoch: 0.05\n\n--Testing--\nTest loss: 2.55935\nTest acc: 0.964  \nTest F1: 0.964 \nTest precision: 0.964\nTest recall: 0.964\n'
Running: python3 main.py -m CNN -ef wav -ntt 34 -bs 4 -hc 128 -lr 0.009 -dr 0 -st -wtr -esp 30 -trd test_2 -tmd best_params_2
b'Train/Val dataset: DEAPDataset(192) | Test dataset: DEAPDataset(1088)\nDevice: cuda\nNumber of classes: 32\nCNN(\n  (cnn1): Conv1d(4, 1, kernel_size=(3,), stride=(2,))\n  (lin1): Linear(in_features=928, out_features=128, bias=True)\n  (lin2): Linear(in_features=128, out_features=32, bias=True)\n  (act): Softmax(dim=-1)\n)\nModel parameter count: 123053\nTrain dataset: DEAPDataset(32) | Validation dataset: DEAPDataset(160)\nTraining...\n--Finished training--\nTraining time (s): 5.36\nTotal epochs: 39 ; Model picked from epoch 9\nAverage time per epoch: 0.14\n\n--Testing--\nTest loss: 2.91312\nTest acc: 0.609  \nTest F1: 0.609 \nTest precision: 0.609\nTest recall: 0.609\n'
Running: python3 main.py -m CNN -ef wav -ntt 34 -bs 16 -hc 128 -lr 0.009 -dr 0 -st -wtr -esp 30 -trd test_2 -tmd best_params_2
b'Train/Val dataset: DEAPDataset(192) | Test dataset: DEAPDataset(1088)\nDevice: cuda\nNumber of classes: 32\nCNN(\n  (cnn1): Conv1d(4, 1, kernel_size=(3,), stride=(2,))\n  (lin1): Linear(in_features=928, out_features=128, bias=True)\n  (lin2): Linear(in_features=128, out_features=32, bias=True)\n  (act): Softmax(dim=-1)\n)\nModel parameter count: 123053\nTrain dataset: DEAPDataset(32) | Validation dataset: DEAPDataset(160)\nTraining...\n--Finished training--\nTraining time (s): 1.88\nTotal epochs: 38 ; Model picked from epoch 8\nAverage time per epoch: 0.05\n\n--Testing--\nTest loss: 2.98853\nTest acc: 0.535  \nTest F1: 0.535 \nTest precision: 0.535\nTest recall: 0.535\n'
Running: python3 main.py -m CNN -ef wav -ntt 34 -bs 4 -hc 128 -lr 0.009 -dr 0.4 -st -wtr -esp 30 -trd test_2 -tmd best_params_2
b'Train/Val dataset: DEAPDataset(192) | Test dataset: DEAPDataset(1088)\nDevice: cuda\nNumber of classes: 32\nCNN(\n  (cnn1): Conv1d(4, 1, kernel_size=(3,), stride=(2,))\n  (lin1): Linear(in_features=928, out_features=128, bias=True)\n  (lin2): Linear(in_features=128, out_features=32, bias=True)\n  (act): Softmax(dim=-1)\n)\nModel parameter count: 123053\nTrain dataset: DEAPDataset(32) | Validation dataset: DEAPDataset(160)\nTraining...\n--Finished training--\nTraining time (s): 13.02\nTotal epochs: 102 ; Model picked from epoch 72\nAverage time per epoch: 0.13\n\n--Testing--\nTest loss: 2.69888\nTest acc: 0.822  \nTest F1: 0.822 \nTest precision: 0.822\nTest recall: 0.822\n'
Running: python3 main.py -m CNN -ef wav -ntt 34 -bs 16 -hc 128 -lr 0.009 -dr 0.4 -st -wtr -esp 30 -trd test_2 -tmd best_params_2
b'Train/Val dataset: DEAPDataset(192) | Test dataset: DEAPDataset(1088)\nDevice: cuda\nNumber of classes: 32\nCNN(\n  (cnn1): Conv1d(4, 1, kernel_size=(3,), stride=(2,))\n  (lin1): Linear(in_features=928, out_features=128, bias=True)\n  (lin2): Linear(in_features=128, out_features=32, bias=True)\n  (act): Softmax(dim=-1)\n)\nModel parameter count: 123053\nTrain dataset: DEAPDataset(32) | Validation dataset: DEAPDataset(160)\nTraining...\n--Finished training--\nTraining time (s): 3.93\nTotal epochs: 81 ; Model picked from epoch 51\nAverage time per epoch: 0.05\n\n--Testing--\nTest loss: 2.52939\nTest acc: 0.989  \nTest F1: 0.989 \nTest precision: 0.989\nTest recall: 0.989\n'
Running: python3 main.py -m CNN -ef psd -ntt 10 -bs 4 -hc 16 -lr 0.0001 -dr 0 -st -wtr -esp 30 -trd test_2 -tmd best_params_2
b'Train/Val dataset: DEAPDataset(960) | Test dataset: DEAPDataset(320)\nDevice: cuda\nNumber of classes: 32\nCNN(\n  (cnn1): Conv1d(4, 1, kernel_size=(3,), stride=(2,))\n  (lin1): Linear(in_features=928, out_features=16, bias=True)\n  (lin2): Linear(in_features=16, out_features=32, bias=True)\n  (act): Softmax(dim=-1)\n)\nModel parameter count: 15421\nTrain dataset: DEAPDataset(800) | Validation dataset: DEAPDataset(160)\nTraining...\n--Finished training--\nTraining time (s): 284.87\nTotal epochs: 283 ; Model picked from epoch 253\nAverage time per epoch: 1.01\n\n--Testing--\nTest loss: 2.97711\nTest acc: 0.553  \nTest F1: 0.553 \nTest precision: 0.553\nTest recall: 0.553\n'
Running: python3 main.py -m CNN -ef psd -ntt 10 -bs 16 -hc 16 -lr 0.0001 -dr 0 -st -wtr -esp 30 -trd test_2 -tmd best_params_2
b'Train/Val dataset: DEAPDataset(960) | Test dataset: DEAPDataset(320)\nDevice: cuda\nNumber of classes: 32\nCNN(\n  (cnn1): Conv1d(4, 1, kernel_size=(3,), stride=(2,))\n  (lin1): Linear(in_features=928, out_features=16, bias=True)\n  (lin2): Linear(in_features=16, out_features=32, bias=True)\n  (act): Softmax(dim=-1)\n)\nModel parameter count: 15421\nTrain dataset: DEAPDataset(800) | Validation dataset: DEAPDataset(160)\nTraining...\n--Finished training--\nTraining time (s): 139.94\nTotal epochs: 329 ; Model picked from epoch 299\nAverage time per epoch: 0.43\n\n--Testing--\nTest loss: 3.40555\nTest acc: 0.116  \nTest F1: 0.116 \nTest precision: 0.116\nTest recall: 0.116\n'
Running: python3 main.py -m CNN -ef psd -ntt 10 -bs 4 -hc 16 -lr 0.0001 -dr 0.4 -st -wtr -esp 30 -trd test_2 -tmd best_params_2
b'Train/Val dataset: DEAPDataset(960) | Test dataset: DEAPDataset(320)\nDevice: cuda\nNumber of classes: 32\nCNN(\n  (cnn1): Conv1d(4, 1, kernel_size=(3,), stride=(2,))\n  (lin1): Linear(in_features=928, out_features=16, bias=True)\n  (lin2): Linear(in_features=16, out_features=32, bias=True)\n  (act): Softmax(dim=-1)\n)\nModel parameter count: 15421\nTrain dataset: DEAPDataset(800) | Validation dataset: DEAPDataset(160)\nTraining...\n--Finished training--\nTraining time (s): 619.63\nTotal epochs: 534 ; Model picked from epoch 504\nAverage time per epoch: 1.16\n\n--Testing--\nTest loss: 2.67118\nTest acc: 0.875  \nTest F1: 0.875 \nTest precision: 0.875\nTest recall: 0.875\n'
Running: python3 main.py -m CNN -ef psd -ntt 10 -bs 16 -hc 16 -lr 0.0001 -dr 0.4 -st -wtr -esp 30 -trd test_2 -tmd best_params_2
b'Train/Val dataset: DEAPDataset(960) | Test dataset: DEAPDataset(320)\nDevice: cuda\nNumber of classes: 32\nCNN(\n  (cnn1): Conv1d(4, 1, kernel_size=(3,), stride=(2,))\n  (lin1): Linear(in_features=928, out_features=16, bias=True)\n  (lin2): Linear(in_features=16, out_features=32, bias=True)\n  (act): Softmax(dim=-1)\n)\nModel parameter count: 15421\nTrain dataset: DEAPDataset(800) | Validation dataset: DEAPDataset(160)\nTraining...\n--Finished training--\nTraining time (s): 224.22\nTotal epochs: 565 ; Model picked from epoch 535\nAverage time per epoch: 0.40\n\n--Testing--\nTest loss: 3.15560\nTest acc: 0.416  \nTest F1: 0.416 \nTest precision: 0.416\nTest recall: 0.416\n'
Running: python3 main.py -m CNN -ef psd -ntt 10 -bs 4 -hc 16 -lr 0.0045 -dr 0 -st -wtr -esp 30 -trd test_2 -tmd best_params_2
b'Train/Val dataset: DEAPDataset(960) | Test dataset: DEAPDataset(320)\nDevice: cuda\nNumber of classes: 32\nCNN(\n  (cnn1): Conv1d(4, 1, kernel_size=(3,), stride=(2,))\n  (lin1): Linear(in_features=928, out_features=16, bias=True)\n  (lin2): Linear(in_features=16, out_features=32, bias=True)\n  (act): Softmax(dim=-1)\n)\nModel parameter count: 15421\nTrain dataset: DEAPDataset(800) | Validation dataset: DEAPDataset(160)\nTraining...\n--Finished training--\nTraining time (s): 101.67\nTotal epochs: 98 ; Model picked from epoch 68\nAverage time per epoch: 1.04\n\n--Testing--\nTest loss: 2.96260\nTest acc: 0.556  \nTest F1: 0.556 \nTest precision: 0.556\nTest recall: 0.556\n'
Running: python3 main.py -m CNN -ef psd -ntt 10 -bs 16 -hc 16 -lr 0.0045 -dr 0 -st -wtr -esp 30 -trd test_2 -tmd best_params_2
b'Train/Val dataset: DEAPDataset(960) | Test dataset: DEAPDataset(320)\nDevice: cuda\nNumber of classes: 32\nCNN(\n  (cnn1): Conv1d(4, 1, kernel_size=(3,), stride=(2,))\n  (lin1): Linear(in_features=928, out_features=16, bias=True)\n  (lin2): Linear(in_features=16, out_features=32, bias=True)\n  (act): Softmax(dim=-1)\n)\nModel parameter count: 15421\nTrain dataset: DEAPDataset(800) | Validation dataset: DEAPDataset(160)\nTraining...\n--Finished training--\nTraining time (s): 29.77\nTotal epochs: 87 ; Model picked from epoch 57\nAverage time per epoch: 0.34\n\n--Testing--\nTest loss: 2.97739\nTest acc: 0.541  \nTest F1: 0.541 \nTest precision: 0.541\nTest recall: 0.541\n'
Running: python3 main.py -m CNN -ef psd -ntt 10 -bs 4 -hc 16 -lr 0.0045 -dr 0.4 -st -wtr -esp 30 -trd test_2 -tmd best_params_2
b'Train/Val dataset: DEAPDataset(960) | Test dataset: DEAPDataset(320)\nDevice: cuda\nNumber of classes: 32\nCNN(\n  (cnn1): Conv1d(4, 1, kernel_size=(3,), stride=(2,))\n  (lin1): Linear(in_features=928, out_features=16, bias=True)\n  (lin2): Linear(in_features=16, out_features=32, bias=True)\n  (act): Softmax(dim=-1)\n)\nModel parameter count: 15421\nTrain dataset: DEAPDataset(800) | Validation dataset: DEAPDataset(160)\nTraining...\n--Finished training--\nTraining time (s): 77.71\nTotal epochs: 90 ; Model picked from epoch 60\nAverage time per epoch: 0.86\n\n--Testing--\nTest loss: 3.17854\nTest acc: 0.338  \nTest F1: 0.338 \nTest precision: 0.338\nTest recall: 0.338\n'
Running: python3 main.py -m CNN -ef psd -ntt 10 -bs 16 -hc 16 -lr 0.0045 -dr 0.4 -st -wtr -esp 30 -trd test_2 -tmd best_params_2
b'Train/Val dataset: DEAPDataset(960) | Test dataset: DEAPDataset(320)\nDevice: cuda\nNumber of classes: 32\nCNN(\n  (cnn1): Conv1d(4, 1, kernel_size=(3,), stride=(2,))\n  (lin1): Linear(in_features=928, out_features=16, bias=True)\n  (lin2): Linear(in_features=16, out_features=32, bias=True)\n  (act): Softmax(dim=-1)\n)\nModel parameter count: 15421\nTrain dataset: DEAPDataset(800) | Validation dataset: DEAPDataset(160)\nTraining...\n--Finished training--\nTraining time (s): 9.76\nTotal epochs: 33 ; Model picked from epoch 3\nAverage time per epoch: 0.30\n\n--Testing--\nTest loss: 3.46575\nTest acc: 0.031  \nTest F1: 0.031 \nTest precision: 0.031\nTest recall: 0.031\n'
Running: python3 main.py -m CNN -ef psd -ntt 10 -bs 4 -hc 16 -lr 0.009 -dr 0 -st -wtr -esp 30 -trd test_2 -tmd best_params_2
b'Train/Val dataset: DEAPDataset(960) | Test dataset: DEAPDataset(320)\nDevice: cuda\nNumber of classes: 32\nCNN(\n  (cnn1): Conv1d(4, 1, kernel_size=(3,), stride=(2,))\n  (lin1): Linear(in_features=928, out_features=16, bias=True)\n  (lin2): Linear(in_features=16, out_features=32, bias=True)\n  (act): Softmax(dim=-1)\n)\nModel parameter count: 15421\nTrain dataset: DEAPDataset(800) | Validation dataset: DEAPDataset(160)\nTraining...\n--Finished training--\nTraining time (s): 24.60\nTotal epochs: 31 ; Model picked from epoch 1\nAverage time per epoch: 0.79\n\n--Testing--\nTest loss: 3.48679\nTest acc: 0.031  \nTest F1: 0.031 \nTest precision: 0.031\nTest recall: 0.031\n'
Running: python3 main.py -m CNN -ef psd -ntt 10 -bs 16 -hc 16 -lr 0.009 -dr 0 -st -wtr -esp 30 -trd test_2 -tmd best_params_2
b'Train/Val dataset: DEAPDataset(960) | Test dataset: DEAPDataset(320)\nDevice: cuda\nNumber of classes: 32\nCNN(\n  (cnn1): Conv1d(4, 1, kernel_size=(3,), stride=(2,))\n  (lin1): Linear(in_features=928, out_features=16, bias=True)\n  (lin2): Linear(in_features=16, out_features=32, bias=True)\n  (act): Softmax(dim=-1)\n)\nModel parameter count: 15421\nTrain dataset: DEAPDataset(800) | Validation dataset: DEAPDataset(160)\nTraining...\n--Finished training--\nTraining time (s): 9.67\nTotal epochs: 33 ; Model picked from epoch 3\nAverage time per epoch: 0.29\n\n--Testing--\nTest loss: 3.46363\nTest acc: 0.053  \nTest F1: 0.053 \nTest precision: 0.053\nTest recall: 0.053\n'
Running: python3 main.py -m CNN -ef psd -ntt 10 -bs 4 -hc 16 -lr 0.009 -dr 0.4 -st -wtr -esp 30 -trd test_2 -tmd best_params_2
b'Train/Val dataset: DEAPDataset(960) | Test dataset: DEAPDataset(320)\nDevice: cuda\nNumber of classes: 32\nCNN(\n  (cnn1): Conv1d(4, 1, kernel_size=(3,), stride=(2,))\n  (lin1): Linear(in_features=928, out_features=16, bias=True)\n  (lin2): Linear(in_features=16, out_features=32, bias=True)\n  (act): Softmax(dim=-1)\n)\nModel parameter count: 15421\nTrain dataset: DEAPDataset(800) | Validation dataset: DEAPDataset(160)\nTraining...\n--Finished training--\nTraining time (s): 25.64\nTotal epochs: 31 ; Model picked from epoch 1\nAverage time per epoch: 0.83\n\n--Testing--\nTest loss: 3.48524\nTest acc: 0.031  \nTest F1: 0.031 \nTest precision: 0.031\nTest recall: 0.031\n'
Running: python3 main.py -m CNN -ef psd -ntt 10 -bs 16 -hc 16 -lr 0.009 -dr 0.4 -st -wtr -esp 30 -trd test_2 -tmd best_params_2
b'Train/Val dataset: DEAPDataset(960) | Test dataset: DEAPDataset(320)\nDevice: cuda\nNumber of classes: 32\nCNN(\n  (cnn1): Conv1d(4, 1, kernel_size=(3,), stride=(2,))\n  (lin1): Linear(in_features=928, out_features=16, bias=True)\n  (lin2): Linear(in_features=16, out_features=32, bias=True)\n  (act): Softmax(dim=-1)\n)\nModel parameter count: 15421\nTrain dataset: DEAPDataset(800) | Validation dataset: DEAPDataset(160)\nTraining...\n--Finished training--\nTraining time (s): 9.71\nTotal epochs: 32 ; Model picked from epoch 2\nAverage time per epoch: 0.30\n\n--Testing--\nTest loss: 3.48569\nTest acc: 0.031  \nTest F1: 0.031 \nTest precision: 0.031\nTest recall: 0.031\n'
Running: python3 main.py -m CNN -ef psd -ntt 10 -bs 4 -hc 64 -lr 0.0001 -dr 0 -st -wtr -esp 30 -trd test_2 -tmd best_params_2
b'Train/Val dataset: DEAPDataset(960) | Test dataset: DEAPDataset(320)\nDevice: cuda\nNumber of classes: 32\nCNN(\n  (cnn1): Conv1d(4, 1, kernel_size=(3,), stride=(2,))\n  (lin1): Linear(in_features=928, out_features=64, bias=True)\n  (lin2): Linear(in_features=64, out_features=32, bias=True)\n  (act): Softmax(dim=-1)\n)\nModel parameter count: 61549\nTrain dataset: DEAPDataset(800) | Validation dataset: DEAPDataset(160)\nTraining...\n--Finished training--\nTraining time (s): 147.62\nTotal epochs: 173 ; Model picked from epoch 143\nAverage time per epoch: 0.85\n\n--Testing--\nTest loss: 3.10440\nTest acc: 0.441  \nTest F1: 0.441 \nTest precision: 0.441\nTest recall: 0.441\n'
Running: python3 main.py -m CNN -ef psd -ntt 10 -bs 16 -hc 64 -lr 0.0001 -dr 0 -st -wtr -esp 30 -trd test_2 -tmd best_params_2
b'Train/Val dataset: DEAPDataset(960) | Test dataset: DEAPDataset(320)\nDevice: cuda\nNumber of classes: 32\nCNN(\n  (cnn1): Conv1d(4, 1, kernel_size=(3,), stride=(2,))\n  (lin1): Linear(in_features=928, out_features=64, bias=True)\n  (lin2): Linear(in_features=64, out_features=32, bias=True)\n  (act): Softmax(dim=-1)\n)\nModel parameter count: 61549\nTrain dataset: DEAPDataset(800) | Validation dataset: DEAPDataset(160)\nTraining...\n--Finished training--\nTraining time (s): 96.83\nTotal epochs: 330 ; Model picked from epoch 300\nAverage time per epoch: 0.29\n\n--Testing--\nTest loss: 3.11524\nTest acc: 0.425  \nTest F1: 0.425 \nTest precision: 0.425\nTest recall: 0.425\n'
Running: python3 main.py -m CNN -ef psd -ntt 10 -bs 4 -hc 64 -lr 0.0001 -dr 0.4 -st -wtr -esp 30 -trd test_2 -tmd best_params_2
b'Train/Val dataset: DEAPDataset(960) | Test dataset: DEAPDataset(320)\nDevice: cuda\nNumber of classes: 32\nCNN(\n  (cnn1): Conv1d(4, 1, kernel_size=(3,), stride=(2,))\n  (lin1): Linear(in_features=928, out_features=64, bias=True)\n  (lin2): Linear(in_features=64, out_features=32, bias=True)\n  (act): Softmax(dim=-1)\n)\nModel parameter count: 61549\nTrain dataset: DEAPDataset(800) | Validation dataset: DEAPDataset(160)\nTraining...\n--Finished training--\nTraining time (s): 317.34\nTotal epochs: 375 ; Model picked from epoch 345\nAverage time per epoch: 0.85\n\n--Testing--\nTest loss: 2.81115\nTest acc: 0.709  \nTest F1: 0.709 \nTest precision: 0.709\nTest recall: 0.709\n'
Running: python3 main.py -m CNN -ef psd -ntt 10 -bs 16 -hc 64 -lr 0.0001 -dr 0.4 -st -wtr -esp 30 -trd test_2 -tmd best_params_2
b'Train/Val dataset: DEAPDataset(960) | Test dataset: DEAPDataset(320)\nDevice: cuda\nNumber of classes: 32\nCNN(\n  (cnn1): Conv1d(4, 1, kernel_size=(3,), stride=(2,))\n  (lin1): Linear(in_features=928, out_features=64, bias=True)\n  (lin2): Linear(in_features=64, out_features=32, bias=True)\n  (act): Softmax(dim=-1)\n)\nModel parameter count: 61549\nTrain dataset: DEAPDataset(800) | Validation dataset: DEAPDataset(160)\nTraining...\n--Finished training--\nTraining time (s): 100.13\nTotal epochs: 313 ; Model picked from epoch 283\nAverage time per epoch: 0.32\n\n--Testing--\nTest loss: 2.92673\nTest acc: 0.631  \nTest F1: 0.631 \nTest precision: 0.631\nTest recall: 0.631\n'
Running: python3 main.py -m CNN -ef psd -ntt 10 -bs 4 -hc 64 -lr 0.0045 -dr 0 -st -wtr -esp 30 -trd test_2 -tmd best_params_2
b'Train/Val dataset: DEAPDataset(960) | Test dataset: DEAPDataset(320)\nDevice: cuda\nNumber of classes: 32\nCNN(\n  (cnn1): Conv1d(4, 1, kernel_size=(3,), stride=(2,))\n  (lin1): Linear(in_features=928, out_features=64, bias=True)\n  (lin2): Linear(in_features=64, out_features=32, bias=True)\n  (act): Softmax(dim=-1)\n)\nModel parameter count: 61549\nTrain dataset: DEAPDataset(800) | Validation dataset: DEAPDataset(160)\nTraining...\n--Finished training--\nTraining time (s): 28.68\nTotal epochs: 31 ; Model picked from epoch 1\nAverage time per epoch: 0.93\n\n--Testing--\nTest loss: 3.48619\nTest acc: 0.031  \nTest F1: 0.031 \nTest precision: 0.031\nTest recall: 0.031\n'
Running: python3 main.py -m CNN -ef psd -ntt 10 -bs 16 -hc 64 -lr 0.0045 -dr 0 -st -wtr -esp 30 -trd test_2 -tmd best_params_2
b'Train/Val dataset: DEAPDataset(960) | Test dataset: DEAPDataset(320)\nDevice: cuda\nNumber of classes: 32\nCNN(\n  (cnn1): Conv1d(4, 1, kernel_size=(3,), stride=(2,))\n  (lin1): Linear(in_features=928, out_features=64, bias=True)\n  (lin2): Linear(in_features=64, out_features=32, bias=True)\n  (act): Softmax(dim=-1)\n)\nModel parameter count: 61549\nTrain dataset: DEAPDataset(800) | Validation dataset: DEAPDataset(160)\nTraining...\n--Finished training--\nTraining time (s): 9.74\nTotal epochs: 31 ; Model picked from epoch 1\nAverage time per epoch: 0.31\n\n--Testing--\nTest loss: 3.47963\nTest acc: 0.031  \nTest F1: 0.031 \nTest precision: 0.031\nTest recall: 0.031\n'
Running: python3 main.py -m CNN -ef psd -ntt 10 -bs 4 -hc 64 -lr 0.0045 -dr 0.4 -st -wtr -esp 30 -trd test_2 -tmd best_params_2
b'Train/Val dataset: DEAPDataset(960) | Test dataset: DEAPDataset(320)\nDevice: cuda\nNumber of classes: 32\nCNN(\n  (cnn1): Conv1d(4, 1, kernel_size=(3,), stride=(2,))\n  (lin1): Linear(in_features=928, out_features=64, bias=True)\n  (lin2): Linear(in_features=64, out_features=32, bias=True)\n  (act): Softmax(dim=-1)\n)\nModel parameter count: 61549\nTrain dataset: DEAPDataset(800) | Validation dataset: DEAPDataset(160)\nTraining...\n--Finished training--\nTraining time (s): 30.61\nTotal epochs: 32 ; Model picked from epoch 2\nAverage time per epoch: 0.96\n\n--Testing--\nTest loss: 3.40890\nTest acc: 0.103  \nTest F1: 0.103 \nTest precision: 0.103\nTest recall: 0.103\n'
Running: python3 main.py -m CNN -ef psd -ntt 10 -bs 16 -hc 64 -lr 0.0045 -dr 0.4 -st -wtr -esp 30 -trd test_2 -tmd best_params_2
b'Train/Val dataset: DEAPDataset(960) | Test dataset: DEAPDataset(320)\nDevice: cuda\nNumber of classes: 32\nCNN(\n  (cnn1): Conv1d(4, 1, kernel_size=(3,), stride=(2,))\n  (lin1): Linear(in_features=928, out_features=64, bias=True)\n  (lin2): Linear(in_features=64, out_features=32, bias=True)\n  (act): Softmax(dim=-1)\n)\nModel parameter count: 61549\nTrain dataset: DEAPDataset(800) | Validation dataset: DEAPDataset(160)\nTraining...\n--Finished training--\nTraining time (s): 32.78\nTotal epochs: 102 ; Model picked from epoch 72\nAverage time per epoch: 0.32\n\n--Testing--\nTest loss: 3.14220\nTest acc: 0.375  \nTest F1: 0.375 \nTest precision: 0.375\nTest recall: 0.375\n'
Running: python3 main.py -m CNN -ef psd -ntt 10 -bs 4 -hc 64 -lr 0.009 -dr 0 -st -wtr -esp 30 -trd test_2 -tmd best_params_2
b'Train/Val dataset: DEAPDataset(960) | Test dataset: DEAPDataset(320)\nDevice: cuda\nNumber of classes: 32\nCNN(\n  (cnn1): Conv1d(4, 1, kernel_size=(3,), stride=(2,))\n  (lin1): Linear(in_features=928, out_features=64, bias=True)\n  (lin2): Linear(in_features=64, out_features=32, bias=True)\n  (act): Softmax(dim=-1)\n)\nModel parameter count: 61549\nTrain dataset: DEAPDataset(800) | Validation dataset: DEAPDataset(160)\nTraining...\n--Finished training--\nTraining time (s): 28.26\nTotal epochs: 31 ; Model picked from epoch 1\nAverage time per epoch: 0.91\n\n--Testing--\nTest loss: 3.48679\nTest acc: 0.031  \nTest F1: 0.031 \nTest precision: 0.031\nTest recall: 0.031\n'
Running: python3 main.py -m CNN -ef psd -ntt 10 -bs 16 -hc 64 -lr 0.009 -dr 0 -st -wtr -esp 30 -trd test_2 -tmd best_params_2
b'Train/Val dataset: DEAPDataset(960) | Test dataset: DEAPDataset(320)\nDevice: cuda\nNumber of classes: 32\nCNN(\n  (cnn1): Conv1d(4, 1, kernel_size=(3,), stride=(2,))\n  (lin1): Linear(in_features=928, out_features=64, bias=True)\n  (lin2): Linear(in_features=64, out_features=32, bias=True)\n  (act): Softmax(dim=-1)\n)\nModel parameter count: 61549\nTrain dataset: DEAPDataset(800) | Validation dataset: DEAPDataset(160)\nTraining...\n--Finished training--\nTraining time (s): 9.52\nTotal epochs: 31 ; Model picked from epoch 1\nAverage time per epoch: 0.31\n\n--Testing--\nTest loss: 3.48679\nTest acc: 0.031  \nTest F1: 0.031 \nTest precision: 0.031\nTest recall: 0.031\n'
Running: python3 main.py -m CNN -ef psd -ntt 10 -bs 4 -hc 64 -lr 0.009 -dr 0.4 -st -wtr -esp 30 -trd test_2 -tmd best_params_2
b'Train/Val dataset: DEAPDataset(960) | Test dataset: DEAPDataset(320)\nDevice: cuda\nNumber of classes: 32\nCNN(\n  (cnn1): Conv1d(4, 1, kernel_size=(3,), stride=(2,))\n  (lin1): Linear(in_features=928, out_features=64, bias=True)\n  (lin2): Linear(in_features=64, out_features=32, bias=True)\n  (act): Softmax(dim=-1)\n)\nModel parameter count: 61549\nTrain dataset: DEAPDataset(800) | Validation dataset: DEAPDataset(160)\nTraining...\n--Finished training--\nTraining time (s): 29.49\nTotal epochs: 31 ; Model picked from epoch 1\nAverage time per epoch: 0.95\n\n--Testing--\nTest loss: 3.48679\nTest acc: 0.031  \nTest F1: 0.031 \nTest precision: 0.031\nTest recall: 0.031\n'
Running: python3 main.py -m CNN -ef psd -ntt 10 -bs 16 -hc 64 -lr 0.009 -dr 0.4 -st -wtr -esp 30 -trd test_2 -tmd best_params_2
b'Train/Val dataset: DEAPDataset(960) | Test dataset: DEAPDataset(320)\nDevice: cuda\nNumber of classes: 32\nCNN(\n  (cnn1): Conv1d(4, 1, kernel_size=(3,), stride=(2,))\n  (lin1): Linear(in_features=928, out_features=64, bias=True)\n  (lin2): Linear(in_features=64, out_features=32, bias=True)\n  (act): Softmax(dim=-1)\n)\nModel parameter count: 61549\nTrain dataset: DEAPDataset(800) | Validation dataset: DEAPDataset(160)\nTraining...\n--Finished training--\nTraining time (s): 10.19\nTotal epochs: 32 ; Model picked from epoch 2\nAverage time per epoch: 0.32\n\n--Testing--\nTest loss: 3.47279\nTest acc: 0.044  \nTest F1: 0.044 \nTest precision: 0.044\nTest recall: 0.044\n'
Running: python3 main.py -m CNN -ef psd -ntt 10 -bs 4 -hc 128 -lr 0.0001 -dr 0 -st -wtr -esp 30 -trd test_2 -tmd best_params_2
b'Train/Val dataset: DEAPDataset(960) | Test dataset: DEAPDataset(320)\nDevice: cuda\nNumber of classes: 32\nCNN(\n  (cnn1): Conv1d(4, 1, kernel_size=(3,), stride=(2,))\n  (lin1): Linear(in_features=928, out_features=128, bias=True)\n  (lin2): Linear(in_features=128, out_features=32, bias=True)\n  (act): Softmax(dim=-1)\n)\nModel parameter count: 123053\nTrain dataset: DEAPDataset(800) | Validation dataset: DEAPDataset(160)\nTraining...\n--Finished training--\nTraining time (s): 96.10\nTotal epochs: 106 ; Model picked from epoch 76\nAverage time per epoch: 0.91\n\n--Testing--\nTest loss: 2.79405\nTest acc: 0.753  \nTest F1: 0.753 \nTest precision: 0.753\nTest recall: 0.753\n'
Running: python3 main.py -m CNN -ef psd -ntt 10 -bs 16 -hc 128 -lr 0.0001 -dr 0 -st -wtr -esp 30 -trd test_2 -tmd best_params_2
b'Train/Val dataset: DEAPDataset(960) | Test dataset: DEAPDataset(320)\nDevice: cuda\nNumber of classes: 32\nCNN(\n  (cnn1): Conv1d(4, 1, kernel_size=(3,), stride=(2,))\n  (lin1): Linear(in_features=928, out_features=128, bias=True)\n  (lin2): Linear(in_features=128, out_features=32, bias=True)\n  (act): Softmax(dim=-1)\n)\nModel parameter count: 123053\nTrain dataset: DEAPDataset(800) | Validation dataset: DEAPDataset(160)\nTraining...\n--Finished training--\nTraining time (s): 44.48\nTotal epochs: 148 ; Model picked from epoch 118\nAverage time per epoch: 0.30\n\n--Testing--\nTest loss: 3.03055\nTest acc: 0.544  \nTest F1: 0.544 \nTest precision: 0.544\nTest recall: 0.544\n'
Running: python3 main.py -m CNN -ef psd -ntt 10 -bs 4 -hc 128 -lr 0.0001 -dr 0.4 -st -wtr -esp 30 -trd test_2 -tmd best_params_2
b'Train/Val dataset: DEAPDataset(960) | Test dataset: DEAPDataset(320)\nDevice: cuda\nNumber of classes: 32\nCNN(\n  (cnn1): Conv1d(4, 1, kernel_size=(3,), stride=(2,))\n  (lin1): Linear(in_features=928, out_features=128, bias=True)\n  (lin2): Linear(in_features=128, out_features=32, bias=True)\n  (act): Softmax(dim=-1)\n)\nModel parameter count: 123053\nTrain dataset: DEAPDataset(800) | Validation dataset: DEAPDataset(160)\nTraining...\n--Finished training--\nTraining time (s): 183.58\nTotal epochs: 194 ; Model picked from epoch 164\nAverage time per epoch: 0.95\n\n--Testing--\nTest loss: 2.61394\nTest acc: 0.916  \nTest F1: 0.916 \nTest precision: 0.916\nTest recall: 0.916\n'
Running: python3 main.py -m CNN -ef psd -ntt 10 -bs 16 -hc 128 -lr 0.0001 -dr 0.4 -st -wtr -esp 30 -trd test_2 -tmd best_params_2
b'Train/Val dataset: DEAPDataset(960) | Test dataset: DEAPDataset(320)\nDevice: cuda\nNumber of classes: 32\nCNN(\n  (cnn1): Conv1d(4, 1, kernel_size=(3,), stride=(2,))\n  (lin1): Linear(in_features=928, out_features=128, bias=True)\n  (lin2): Linear(in_features=128, out_features=32, bias=True)\n  (act): Softmax(dim=-1)\n)\nModel parameter count: 123053\nTrain dataset: DEAPDataset(800) | Validation dataset: DEAPDataset(160)\nTraining...\n--Finished training--\nTraining time (s): 107.16\nTotal epochs: 347 ; Model picked from epoch 317\nAverage time per epoch: 0.31\n\n--Testing--\nTest loss: 2.81499\nTest acc: 0.738  \nTest F1: 0.738 \nTest precision: 0.738\nTest recall: 0.738\n'
Running: python3 main.py -m CNN -ef psd -ntt 10 -bs 4 -hc 128 -lr 0.0045 -dr 0 -st -wtr -esp 30 -trd test_2 -tmd best_params_2
b'Train/Val dataset: DEAPDataset(960) | Test dataset: DEAPDataset(320)\nDevice: cuda\nNumber of classes: 32\nCNN(\n  (cnn1): Conv1d(4, 1, kernel_size=(3,), stride=(2,))\n  (lin1): Linear(in_features=928, out_features=128, bias=True)\n  (lin2): Linear(in_features=128, out_features=32, bias=True)\n  (act): Softmax(dim=-1)\n)\nModel parameter count: 123053\nTrain dataset: DEAPDataset(800) | Validation dataset: DEAPDataset(160)\nTraining...\n--Finished training--\nTraining time (s): 29.01\nTotal epochs: 31 ; Model picked from epoch 1\nAverage time per epoch: 0.94\n\n--Testing--\nTest loss: 3.48679\nTest acc: 0.031  \nTest F1: 0.031 \nTest precision: 0.031\nTest recall: 0.031\n'
Running: python3 main.py -m CNN -ef psd -ntt 10 -bs 16 -hc 128 -lr 0.0045 -dr 0 -st -wtr -esp 30 -trd test_2 -tmd best_params_2
b'Train/Val dataset: DEAPDataset(960) | Test dataset: DEAPDataset(320)\nDevice: cuda\nNumber of classes: 32\nCNN(\n  (cnn1): Conv1d(4, 1, kernel_size=(3,), stride=(2,))\n  (lin1): Linear(in_features=928, out_features=128, bias=True)\n  (lin2): Linear(in_features=128, out_features=32, bias=True)\n  (act): Softmax(dim=-1)\n)\nModel parameter count: 123053\nTrain dataset: DEAPDataset(800) | Validation dataset: DEAPDataset(160)\nTraining...\n--Finished training--\nTraining time (s): 27.76\nTotal epochs: 90 ; Model picked from epoch 60\nAverage time per epoch: 0.31\n\n--Testing--\nTest loss: 3.10245\nTest acc: 0.412  \nTest F1: 0.412 \nTest precision: 0.412\nTest recall: 0.412\n'
Running: python3 main.py -m CNN -ef psd -ntt 10 -bs 4 -hc 128 -lr 0.0045 -dr 0.4 -st -wtr -esp 30 -trd test_2 -tmd best_params_2
b'Train/Val dataset: DEAPDataset(960) | Test dataset: DEAPDataset(320)\nDevice: cuda\nNumber of classes: 32\nCNN(\n  (cnn1): Conv1d(4, 1, kernel_size=(3,), stride=(2,))\n  (lin1): Linear(in_features=928, out_features=128, bias=True)\n  (lin2): Linear(in_features=128, out_features=32, bias=True)\n  (act): Softmax(dim=-1)\n)\nModel parameter count: 123053\nTrain dataset: DEAPDataset(800) | Validation dataset: DEAPDataset(160)\nTraining...\n--Finished training--\nTraining time (s): 28.10\nTotal epochs: 32 ; Model picked from epoch 2\nAverage time per epoch: 0.88\n\n--Testing--\nTest loss: 3.38436\nTest acc: 0.131  \nTest F1: 0.131 \nTest precision: 0.131\nTest recall: 0.131\n'
Running: python3 main.py -m CNN -ef psd -ntt 10 -bs 16 -hc 128 -lr 0.0045 -dr 0.4 -st -wtr -esp 30 -trd test_2 -tmd best_params_2
b'Train/Val dataset: DEAPDataset(960) | Test dataset: DEAPDataset(320)\nDevice: cuda\nNumber of classes: 32\nCNN(\n  (cnn1): Conv1d(4, 1, kernel_size=(3,), stride=(2,))\n  (lin1): Linear(in_features=928, out_features=128, bias=True)\n  (lin2): Linear(in_features=128, out_features=32, bias=True)\n  (act): Softmax(dim=-1)\n)\nModel parameter count: 123053\nTrain dataset: DEAPDataset(800) | Validation dataset: DEAPDataset(160)\nTraining...\n--Finished training--\nTraining time (s): 9.14\nTotal epochs: 31 ; Model picked from epoch 1\nAverage time per epoch: 0.29\n\n--Testing--\nTest loss: 3.48679\nTest acc: 0.031  \nTest F1: 0.031 \nTest precision: 0.031\nTest recall: 0.031\n'
Running: python3 main.py -m CNN -ef psd -ntt 10 -bs 4 -hc 128 -lr 0.009 -dr 0 -st -wtr -esp 30 -trd test_2 -tmd best_params_2
b'Train/Val dataset: DEAPDataset(960) | Test dataset: DEAPDataset(320)\nDevice: cuda\nNumber of classes: 32\nCNN(\n  (cnn1): Conv1d(4, 1, kernel_size=(3,), stride=(2,))\n  (lin1): Linear(in_features=928, out_features=128, bias=True)\n  (lin2): Linear(in_features=128, out_features=32, bias=True)\n  (act): Softmax(dim=-1)\n)\nModel parameter count: 123053\nTrain dataset: DEAPDataset(800) | Validation dataset: DEAPDataset(160)\nTraining...\n--Finished training--\nTraining time (s): 26.40\nTotal epochs: 31 ; Model picked from epoch 1\nAverage time per epoch: 0.85\n\n--Testing--\nTest loss: 3.48679\nTest acc: 0.031  \nTest F1: 0.031 \nTest precision: 0.031\nTest recall: 0.031\n'
Running: python3 main.py -m CNN -ef psd -ntt 10 -bs 16 -hc 128 -lr 0.009 -dr 0 -st -wtr -esp 30 -trd test_2 -tmd best_params_2
b'Train/Val dataset: DEAPDataset(960) | Test dataset: DEAPDataset(320)\nDevice: cuda\nNumber of classes: 32\nCNN(\n  (cnn1): Conv1d(4, 1, kernel_size=(3,), stride=(2,))\n  (lin1): Linear(in_features=928, out_features=128, bias=True)\n  (lin2): Linear(in_features=128, out_features=32, bias=True)\n  (act): Softmax(dim=-1)\n)\nModel parameter count: 123053\nTrain dataset: DEAPDataset(800) | Validation dataset: DEAPDataset(160)\nTraining...\n--Finished training--\nTraining time (s): 9.55\nTotal epochs: 31 ; Model picked from epoch 1\nAverage time per epoch: 0.31\n\n--Testing--\nTest loss: 3.47930\nTest acc: 0.037  \nTest F1: 0.037 \nTest precision: 0.037\nTest recall: 0.037\n'
Running: python3 main.py -m CNN -ef psd -ntt 10 -bs 4 -hc 128 -lr 0.009 -dr 0.4 -st -wtr -esp 30 -trd test_2 -tmd best_params_2
b'Train/Val dataset: DEAPDataset(960) | Test dataset: DEAPDataset(320)\nDevice: cuda\nNumber of classes: 32\nCNN(\n  (cnn1): Conv1d(4, 1, kernel_size=(3,), stride=(2,))\n  (lin1): Linear(in_features=928, out_features=128, bias=True)\n  (lin2): Linear(in_features=128, out_features=32, bias=True)\n  (act): Softmax(dim=-1)\n)\nModel parameter count: 123053\nTrain dataset: DEAPDataset(800) | Validation dataset: DEAPDataset(160)\nTraining...\n--Finished training--\nTraining time (s): 30.04\nTotal epochs: 31 ; Model picked from epoch 1\nAverage time per epoch: 0.97\n\n--Testing--\nTest loss: 3.48665\nTest acc: 0.031  \nTest F1: 0.031 \nTest precision: 0.031\nTest recall: 0.031\n'
Running: python3 main.py -m CNN -ef psd -ntt 10 -bs 16 -hc 128 -lr 0.009 -dr 0.4 -st -wtr -esp 30 -trd test_2 -tmd best_params_2
b'Train/Val dataset: DEAPDataset(960) | Test dataset: DEAPDataset(320)\nDevice: cuda\nNumber of classes: 32\nCNN(\n  (cnn1): Conv1d(4, 1, kernel_size=(3,), stride=(2,))\n  (lin1): Linear(in_features=928, out_features=128, bias=True)\n  (lin2): Linear(in_features=128, out_features=32, bias=True)\n  (act): Softmax(dim=-1)\n)\nModel parameter count: 123053\nTrain dataset: DEAPDataset(800) | Validation dataset: DEAPDataset(160)\nTraining...\n--Finished training--\nTraining time (s): 9.82\nTotal epochs: 31 ; Model picked from epoch 1\nAverage time per epoch: 0.32\n\n--Testing--\nTest loss: 3.48679\nTest acc: 0.031  \nTest F1: 0.031 \nTest precision: 0.031\nTest recall: 0.031\n'
Running: python3 main.py -m CNN -ef psd -ntt 30 -bs 4 -hc 16 -lr 0.0001 -dr 0 -st -wtr -esp 30 -trd test_2 -tmd best_params_2
b'Train/Val dataset: DEAPDataset(320) | Test dataset: DEAPDataset(960)\nDevice: cuda\nNumber of classes: 32\nCNN(\n  (cnn1): Conv1d(4, 1, kernel_size=(3,), stride=(2,))\n  (lin1): Linear(in_features=928, out_features=16, bias=True)\n  (lin2): Linear(in_features=16, out_features=32, bias=True)\n  (act): Softmax(dim=-1)\n)\nModel parameter count: 15421\nTrain dataset: DEAPDataset(160) | Validation dataset: DEAPDataset(160)\nTraining...\n--Finished training--\nTraining time (s): 6.25\nTotal epochs: 31 ; Model picked from epoch 1\nAverage time per epoch: 0.20\n\n--Testing--\nTest loss: 3.46578\nTest acc: 0.031  \nTest F1: 0.031 \nTest precision: 0.031\nTest recall: 0.031\n'
Running: python3 main.py -m CNN -ef psd -ntt 30 -bs 16 -hc 16 -lr 0.0001 -dr 0 -st -wtr -esp 30 -trd test_2 -tmd best_params_2
b'Train/Val dataset: DEAPDataset(320) | Test dataset: DEAPDataset(960)\nDevice: cuda\nNumber of classes: 32\nCNN(\n  (cnn1): Conv1d(4, 1, kernel_size=(3,), stride=(2,))\n  (lin1): Linear(in_features=928, out_features=16, bias=True)\n  (lin2): Linear(in_features=16, out_features=32, bias=True)\n  (act): Softmax(dim=-1)\n)\nModel parameter count: 15421\nTrain dataset: DEAPDataset(160) | Validation dataset: DEAPDataset(160)\nTraining...\n--Finished training--\nTraining time (s): 2.75\nTotal epochs: 31 ; Model picked from epoch 1\nAverage time per epoch: 0.09\n\n--Testing--\nTest loss: 3.46579\nTest acc: 0.034  \nTest F1: 0.034 \nTest precision: 0.034\nTest recall: 0.034\n'
Running: python3 main.py -m CNN -ef psd -ntt 30 -bs 4 -hc 16 -lr 0.0001 -dr 0.4 -st -wtr -esp 30 -trd test_2 -tmd best_params_2
b'Train/Val dataset: DEAPDataset(320) | Test dataset: DEAPDataset(960)\nDevice: cuda\nNumber of classes: 32\nCNN(\n  (cnn1): Conv1d(4, 1, kernel_size=(3,), stride=(2,))\n  (lin1): Linear(in_features=928, out_features=16, bias=True)\n  (lin2): Linear(in_features=16, out_features=32, bias=True)\n  (act): Softmax(dim=-1)\n)\nModel parameter count: 15421\nTrain dataset: DEAPDataset(160) | Validation dataset: DEAPDataset(160)\nTraining...\n--Finished training--\nTraining time (s): 144.55\nTotal epochs: 567 ; Model picked from epoch 537\nAverage time per epoch: 0.25\n\n--Testing--\nTest loss: 3.28330\nTest acc: 0.257  \nTest F1: 0.257 \nTest precision: 0.257\nTest recall: 0.257\n'
Running: python3 main.py -m CNN -ef psd -ntt 30 -bs 16 -hc 16 -lr 0.0001 -dr 0.4 -st -wtr -esp 30 -trd test_2 -tmd best_params_2
b'Train/Val dataset: DEAPDataset(320) | Test dataset: DEAPDataset(960)\nDevice: cuda\nNumber of classes: 32\nCNN(\n  (cnn1): Conv1d(4, 1, kernel_size=(3,), stride=(2,))\n  (lin1): Linear(in_features=928, out_features=16, bias=True)\n  (lin2): Linear(in_features=16, out_features=32, bias=True)\n  (act): Softmax(dim=-1)\n)\nModel parameter count: 15421\nTrain dataset: DEAPDataset(160) | Validation dataset: DEAPDataset(160)\nTraining...\n--Finished training--\nTraining time (s): 33.77\nTotal epochs: 362 ; Model picked from epoch 332\nAverage time per epoch: 0.09\n\n--Testing--\nTest loss: 3.45297\nTest acc: 0.065  \nTest F1: 0.065 \nTest precision: 0.065\nTest recall: 0.065\n'
Running: python3 main.py -m CNN -ef psd -ntt 30 -bs 4 -hc 16 -lr 0.0045 -dr 0 -st -wtr -esp 30 -trd test_2 -tmd best_params_2
b'Train/Val dataset: DEAPDataset(320) | Test dataset: DEAPDataset(960)\nDevice: cuda\nNumber of classes: 32\nCNN(\n  (cnn1): Conv1d(4, 1, kernel_size=(3,), stride=(2,))\n  (lin1): Linear(in_features=928, out_features=16, bias=True)\n  (lin2): Linear(in_features=16, out_features=32, bias=True)\n  (act): Softmax(dim=-1)\n)\nModel parameter count: 15421\nTrain dataset: DEAPDataset(160) | Validation dataset: DEAPDataset(160)\nTraining...\n--Finished training--\nTraining time (s): 22.60\nTotal epochs: 96 ; Model picked from epoch 66\nAverage time per epoch: 0.24\n\n--Testing--\nTest loss: 3.29349\nTest acc: 0.224  \nTest F1: 0.224 \nTest precision: 0.224\nTest recall: 0.224\n'
Running: python3 main.py -m CNN -ef psd -ntt 30 -bs 16 -hc 16 -lr 0.0045 -dr 0 -st -wtr -esp 30 -trd test_2 -tmd best_params_2
b'Train/Val dataset: DEAPDataset(320) | Test dataset: DEAPDataset(960)\nDevice: cuda\nNumber of classes: 32\nCNN(\n  (cnn1): Conv1d(4, 1, kernel_size=(3,), stride=(2,))\n  (lin1): Linear(in_features=928, out_features=16, bias=True)\n  (lin2): Linear(in_features=16, out_features=32, bias=True)\n  (act): Softmax(dim=-1)\n)\nModel parameter count: 15421\nTrain dataset: DEAPDataset(160) | Validation dataset: DEAPDataset(160)\nTraining...\n--Finished training--\nTraining time (s): 13.33\nTotal epochs: 150 ; Model picked from epoch 120\nAverage time per epoch: 0.09\n\n--Testing--\nTest loss: 3.27138\nTest acc: 0.247  \nTest F1: 0.247 \nTest precision: 0.247\nTest recall: 0.247\n'
Running: python3 main.py -m CNN -ef psd -ntt 30 -bs 4 -hc 16 -lr 0.0045 -dr 0.4 -st -wtr -esp 30 -trd test_2 -tmd best_params_2
b'Train/Val dataset: DEAPDataset(320) | Test dataset: DEAPDataset(960)\nDevice: cuda\nNumber of classes: 32\nCNN(\n  (cnn1): Conv1d(4, 1, kernel_size=(3,), stride=(2,))\n  (lin1): Linear(in_features=928, out_features=16, bias=True)\n  (lin2): Linear(in_features=16, out_features=32, bias=True)\n  (act): Softmax(dim=-1)\n)\nModel parameter count: 15421\nTrain dataset: DEAPDataset(160) | Validation dataset: DEAPDataset(160)\nTraining...\n--Finished training--\nTraining time (s): 12.43\nTotal epochs: 55 ; Model picked from epoch 25\nAverage time per epoch: 0.23\n\n--Testing--\nTest loss: 3.39446\nTest acc: 0.119  \nTest F1: 0.119 \nTest precision: 0.119\nTest recall: 0.119\n'
Running: python3 main.py -m CNN -ef psd -ntt 30 -bs 16 -hc 16 -lr 0.0045 -dr 0.4 -st -wtr -esp 30 -trd test_2 -tmd best_params_2
b'Train/Val dataset: DEAPDataset(320) | Test dataset: DEAPDataset(960)\nDevice: cuda\nNumber of classes: 32\nCNN(\n  (cnn1): Conv1d(4, 1, kernel_size=(3,), stride=(2,))\n  (lin1): Linear(in_features=928, out_features=16, bias=True)\n  (lin2): Linear(in_features=16, out_features=32, bias=True)\n  (act): Softmax(dim=-1)\n)\nModel parameter count: 15421\nTrain dataset: DEAPDataset(160) | Validation dataset: DEAPDataset(160)\nTraining...\n--Finished training--\nTraining time (s): 7.84\nTotal epochs: 82 ; Model picked from epoch 52\nAverage time per epoch: 0.10\n\n--Testing--\nTest loss: 3.24065\nTest acc: 0.276  \nTest F1: 0.276 \nTest precision: 0.276\nTest recall: 0.276\n'
Running: python3 main.py -m CNN -ef psd -ntt 30 -bs 4 -hc 16 -lr 0.009 -dr 0 -st -wtr -esp 30 -trd test_2 -tmd best_params_2
b'Train/Val dataset: DEAPDataset(320) | Test dataset: DEAPDataset(960)\nDevice: cuda\nNumber of classes: 32\nCNN(\n  (cnn1): Conv1d(4, 1, kernel_size=(3,), stride=(2,))\n  (lin1): Linear(in_features=928, out_features=16, bias=True)\n  (lin2): Linear(in_features=16, out_features=32, bias=True)\n  (act): Softmax(dim=-1)\n)\nModel parameter count: 15421\nTrain dataset: DEAPDataset(160) | Validation dataset: DEAPDataset(160)\nTraining...\n--Finished training--\nTraining time (s): 8.79\nTotal epochs: 32 ; Model picked from epoch 2\nAverage time per epoch: 0.27\n\n--Testing--\nTest loss: 3.47204\nTest acc: 0.043  \nTest F1: 0.043 \nTest precision: 0.043\nTest recall: 0.043\n'
Running: python3 main.py -m CNN -ef psd -ntt 30 -bs 16 -hc 16 -lr 0.009 -dr 0 -st -wtr -esp 30 -trd test_2 -tmd best_params_2
b'Train/Val dataset: DEAPDataset(320) | Test dataset: DEAPDataset(960)\nDevice: cuda\nNumber of classes: 32\nCNN(\n  (cnn1): Conv1d(4, 1, kernel_size=(3,), stride=(2,))\n  (lin1): Linear(in_features=928, out_features=16, bias=True)\n  (lin2): Linear(in_features=16, out_features=32, bias=True)\n  (act): Softmax(dim=-1)\n)\nModel parameter count: 15421\nTrain dataset: DEAPDataset(160) | Validation dataset: DEAPDataset(160)\nTraining...\n--Finished training--\nTraining time (s): 5.23\nTotal epochs: 56 ; Model picked from epoch 26\nAverage time per epoch: 0.09\n\n--Testing--\nTest loss: 3.32359\nTest acc: 0.193  \nTest F1: 0.193 \nTest precision: 0.193\nTest recall: 0.193\n'
Running: python3 main.py -m CNN -ef psd -ntt 30 -bs 4 -hc 16 -lr 0.009 -dr 0.4 -st -wtr -esp 30 -trd test_2 -tmd best_params_2
b'Train/Val dataset: DEAPDataset(320) | Test dataset: DEAPDataset(960)\nDevice: cuda\nNumber of classes: 32\nCNN(\n  (cnn1): Conv1d(4, 1, kernel_size=(3,), stride=(2,))\n  (lin1): Linear(in_features=928, out_features=16, bias=True)\n  (lin2): Linear(in_features=16, out_features=32, bias=True)\n  (act): Softmax(dim=-1)\n)\nModel parameter count: 15421\nTrain dataset: DEAPDataset(160) | Validation dataset: DEAPDataset(160)\nTraining...\n--Finished training--\nTraining time (s): 15.67\nTotal epochs: 56 ; Model picked from epoch 26\nAverage time per epoch: 0.28\n\n--Testing--\nTest loss: 3.46262\nTest acc: 0.055  \nTest F1: 0.055 \nTest precision: 0.055\nTest recall: 0.055\n'
Running: python3 main.py -m CNN -ef psd -ntt 30 -bs 16 -hc 16 -lr 0.009 -dr 0.4 -st -wtr -esp 30 -trd test_2 -tmd best_params_2
b'Train/Val dataset: DEAPDataset(320) | Test dataset: DEAPDataset(960)\nDevice: cuda\nNumber of classes: 32\nCNN(\n  (cnn1): Conv1d(4, 1, kernel_size=(3,), stride=(2,))\n  (lin1): Linear(in_features=928, out_features=16, bias=True)\n  (lin2): Linear(in_features=16, out_features=32, bias=True)\n  (act): Softmax(dim=-1)\n)\nModel parameter count: 15421\nTrain dataset: DEAPDataset(160) | Validation dataset: DEAPDataset(160)\nTraining...\n--Finished training--\nTraining time (s): 4.63\nTotal epochs: 48 ; Model picked from epoch 18\nAverage time per epoch: 0.10\n\n--Testing--\nTest loss: 3.40998\nTest acc: 0.096  \nTest F1: 0.096 \nTest precision: 0.096\nTest recall: 0.096\n'
Running: python3 main.py -m CNN -ef psd -ntt 30 -bs 4 -hc 64 -lr 0.0001 -dr 0 -st -wtr -esp 30 -trd test_2 -tmd best_params_2
b'Train/Val dataset: DEAPDataset(320) | Test dataset: DEAPDataset(960)\nDevice: cuda\nNumber of classes: 32\nCNN(\n  (cnn1): Conv1d(4, 1, kernel_size=(3,), stride=(2,))\n  (lin1): Linear(in_features=928, out_features=64, bias=True)\n  (lin2): Linear(in_features=64, out_features=32, bias=True)\n  (act): Softmax(dim=-1)\n)\nModel parameter count: 61549\nTrain dataset: DEAPDataset(160) | Validation dataset: DEAPDataset(160)\nTraining...\n--Finished training--\nTraining time (s): 184.18\nTotal epochs: 661 ; Model picked from epoch 631\nAverage time per epoch: 0.28\n\n--Testing--\nTest loss: 3.14876\nTest acc: 0.401  \nTest F1: 0.401 \nTest precision: 0.401\nTest recall: 0.401\n'
Running: python3 main.py -m CNN -ef psd -ntt 30 -bs 16 -hc 64 -lr 0.0001 -dr 0 -st -wtr -esp 30 -trd test_2 -tmd best_params_2
b'Train/Val dataset: DEAPDataset(320) | Test dataset: DEAPDataset(960)\nDevice: cuda\nNumber of classes: 32\nCNN(\n  (cnn1): Conv1d(4, 1, kernel_size=(3,), stride=(2,))\n  (lin1): Linear(in_features=928, out_features=64, bias=True)\n  (lin2): Linear(in_features=64, out_features=32, bias=True)\n  (act): Softmax(dim=-1)\n)\nModel parameter count: 61549\nTrain dataset: DEAPDataset(160) | Validation dataset: DEAPDataset(160)\nTraining...\n--Finished training--\nTraining time (s): 22.63\nTotal epochs: 240 ; Model picked from epoch 210\nAverage time per epoch: 0.09\n\n--Testing--\nTest loss: 3.43952\nTest acc: 0.083  \nTest F1: 0.083 \nTest precision: 0.083\nTest recall: 0.083\n'
Running: python3 main.py -m CNN -ef psd -ntt 30 -bs 4 -hc 64 -lr 0.0001 -dr 0.4 -st -wtr -esp 30 -trd test_2 -tmd best_params_2
b'Train/Val dataset: DEAPDataset(320) | Test dataset: DEAPDataset(960)\nDevice: cuda\nNumber of classes: 32\nCNN(\n  (cnn1): Conv1d(4, 1, kernel_size=(3,), stride=(2,))\n  (lin1): Linear(in_features=928, out_features=64, bias=True)\n  (lin2): Linear(in_features=64, out_features=32, bias=True)\n  (act): Softmax(dim=-1)\n)\nModel parameter count: 61549\nTrain dataset: DEAPDataset(160) | Validation dataset: DEAPDataset(160)\nTraining...\n--Finished training--\nTraining time (s): 85.78\nTotal epochs: 303 ; Model picked from epoch 273\nAverage time per epoch: 0.28\n\n--Testing--\nTest loss: 3.09016\nTest acc: 0.487  \nTest F1: 0.487 \nTest precision: 0.487\nTest recall: 0.487\n'
Running: python3 main.py -m CNN -ef psd -ntt 30 -bs 16 -hc 64 -lr 0.0001 -dr 0.4 -st -wtr -esp 30 -trd test_2 -tmd best_params_2
b'Train/Val dataset: DEAPDataset(320) | Test dataset: DEAPDataset(960)\nDevice: cuda\nNumber of classes: 32\nCNN(\n  (cnn1): Conv1d(4, 1, kernel_size=(3,), stride=(2,))\n  (lin1): Linear(in_features=928, out_features=64, bias=True)\n  (lin2): Linear(in_features=64, out_features=32, bias=True)\n  (act): Softmax(dim=-1)\n)\nModel parameter count: 61549\nTrain dataset: DEAPDataset(160) | Validation dataset: DEAPDataset(160)\nTraining...\n--Finished training--\nTraining time (s): 44.59\nTotal epochs: 494 ; Model picked from epoch 464\nAverage time per epoch: 0.09\n\n--Testing--\nTest loss: 3.38204\nTest acc: 0.167  \nTest F1: 0.167 \nTest precision: 0.167\nTest recall: 0.167\n'
Running: python3 main.py -m CNN -ef psd -ntt 30 -bs 4 -hc 64 -lr 0.0045 -dr 0 -st -wtr -esp 30 -trd test_2 -tmd best_params_2
b'Train/Val dataset: DEAPDataset(320) | Test dataset: DEAPDataset(960)\nDevice: cuda\nNumber of classes: 32\nCNN(\n  (cnn1): Conv1d(4, 1, kernel_size=(3,), stride=(2,))\n  (lin1): Linear(in_features=928, out_features=64, bias=True)\n  (lin2): Linear(in_features=64, out_features=32, bias=True)\n  (act): Softmax(dim=-1)\n)\nModel parameter count: 61549\nTrain dataset: DEAPDataset(160) | Validation dataset: DEAPDataset(160)\nTraining...\n--Finished training--\nTraining time (s): 11.43\nTotal epochs: 41 ; Model picked from epoch 11\nAverage time per epoch: 0.28\n\n--Testing--\nTest loss: 3.35125\nTest acc: 0.161  \nTest F1: 0.161 \nTest precision: 0.161\nTest recall: 0.161\n'
Running: python3 main.py -m CNN -ef psd -ntt 30 -bs 16 -hc 64 -lr 0.0045 -dr 0 -st -wtr -esp 30 -trd test_2 -tmd best_params_2
b'Train/Val dataset: DEAPDataset(320) | Test dataset: DEAPDataset(960)\nDevice: cuda\nNumber of classes: 32\nCNN(\n  (cnn1): Conv1d(4, 1, kernel_size=(3,), stride=(2,))\n  (lin1): Linear(in_features=928, out_features=64, bias=True)\n  (lin2): Linear(in_features=64, out_features=32, bias=True)\n  (act): Softmax(dim=-1)\n)\nModel parameter count: 61549\nTrain dataset: DEAPDataset(160) | Validation dataset: DEAPDataset(160)\nTraining...\n--Finished training--\nTraining time (s): 5.13\nTotal epochs: 60 ; Model picked from epoch 30\nAverage time per epoch: 0.09\n\n--Testing--\nTest loss: 3.37509\nTest acc: 0.140  \nTest F1: 0.140 \nTest precision: 0.140\nTest recall: 0.140\n'
Running: python3 main.py -m CNN -ef psd -ntt 30 -bs 4 -hc 64 -lr 0.0045 -dr 0.4 -st -wtr -esp 30 -trd test_2 -tmd best_params_2
b'Train/Val dataset: DEAPDataset(320) | Test dataset: DEAPDataset(960)\nDevice: cuda\nNumber of classes: 32\nCNN(\n  (cnn1): Conv1d(4, 1, kernel_size=(3,), stride=(2,))\n  (lin1): Linear(in_features=928, out_features=64, bias=True)\n  (lin2): Linear(in_features=64, out_features=32, bias=True)\n  (act): Softmax(dim=-1)\n)\nModel parameter count: 61549\nTrain dataset: DEAPDataset(160) | Validation dataset: DEAPDataset(160)\nTraining...\n--Finished training--\nTraining time (s): 7.36\nTotal epochs: 33 ; Model picked from epoch 3\nAverage time per epoch: 0.22\n\n--Testing--\nTest loss: 3.46023\nTest acc: 0.056  \nTest F1: 0.056 \nTest precision: 0.056\nTest recall: 0.056\n'
Running: python3 main.py -m CNN -ef psd -ntt 30 -bs 16 -hc 64 -lr 0.0045 -dr 0.4 -st -wtr -esp 30 -trd test_2 -tmd best_params_2
b'Train/Val dataset: DEAPDataset(320) | Test dataset: DEAPDataset(960)\nDevice: cuda\nNumber of classes: 32\nCNN(\n  (cnn1): Conv1d(4, 1, kernel_size=(3,), stride=(2,))\n  (lin1): Linear(in_features=928, out_features=64, bias=True)\n  (lin2): Linear(in_features=64, out_features=32, bias=True)\n  (act): Softmax(dim=-1)\n)\nModel parameter count: 61549\nTrain dataset: DEAPDataset(160) | Validation dataset: DEAPDataset(160)\nTraining...\n--Finished training--\nTraining time (s): 10.80\nTotal epochs: 111 ; Model picked from epoch 81\nAverage time per epoch: 0.10\n\n--Testing--\nTest loss: 3.16000\nTest acc: 0.360  \nTest F1: 0.360 \nTest precision: 0.360\nTest recall: 0.360\n'
Running: python3 main.py -m CNN -ef psd -ntt 30 -bs 4 -hc 64 -lr 0.009 -dr 0 -st -wtr -esp 30 -trd test_2 -tmd best_params_2
b'Train/Val dataset: DEAPDataset(320) | Test dataset: DEAPDataset(960)\nDevice: cuda\nNumber of classes: 32\nCNN(\n  (cnn1): Conv1d(4, 1, kernel_size=(3,), stride=(2,))\n  (lin1): Linear(in_features=928, out_features=64, bias=True)\n  (lin2): Linear(in_features=64, out_features=32, bias=True)\n  (act): Softmax(dim=-1)\n)\nModel parameter count: 61549\nTrain dataset: DEAPDataset(160) | Validation dataset: DEAPDataset(160)\nTraining...\n--Finished training--\nTraining time (s): 8.77\nTotal epochs: 31 ; Model picked from epoch 1\nAverage time per epoch: 0.28\n\n--Testing--\nTest loss: 3.46295\nTest acc: 0.054  \nTest F1: 0.054 \nTest precision: 0.054\nTest recall: 0.054\n'
Running: python3 main.py -m CNN -ef psd -ntt 30 -bs 16 -hc 64 -lr 0.009 -dr 0 -st -wtr -esp 30 -trd test_2 -tmd best_params_2
b'Train/Val dataset: DEAPDataset(320) | Test dataset: DEAPDataset(960)\nDevice: cuda\nNumber of classes: 32\nCNN(\n  (cnn1): Conv1d(4, 1, kernel_size=(3,), stride=(2,))\n  (lin1): Linear(in_features=928, out_features=64, bias=True)\n  (lin2): Linear(in_features=64, out_features=32, bias=True)\n  (act): Softmax(dim=-1)\n)\nModel parameter count: 61549\nTrain dataset: DEAPDataset(160) | Validation dataset: DEAPDataset(160)\nTraining...\n--Finished training--\nTraining time (s): 6.36\nTotal epochs: 66 ; Model picked from epoch 36\nAverage time per epoch: 0.10\n\n--Testing--\nTest loss: 3.35845\nTest acc: 0.160  \nTest F1: 0.160 \nTest precision: 0.160\nTest recall: 0.160\n'
Running: python3 main.py -m CNN -ef psd -ntt 30 -bs 4 -hc 64 -lr 0.009 -dr 0.4 -st -wtr -esp 30 -trd test_2 -tmd best_params_2
b'Train/Val dataset: DEAPDataset(320) | Test dataset: DEAPDataset(960)\nDevice: cuda\nNumber of classes: 32\nCNN(\n  (cnn1): Conv1d(4, 1, kernel_size=(3,), stride=(2,))\n  (lin1): Linear(in_features=928, out_features=64, bias=True)\n  (lin2): Linear(in_features=64, out_features=32, bias=True)\n  (act): Softmax(dim=-1)\n)\nModel parameter count: 61549\nTrain dataset: DEAPDataset(160) | Validation dataset: DEAPDataset(160)\nTraining...\n--Finished training--\nTraining time (s): 10.85\nTotal epochs: 38 ; Model picked from epoch 8\nAverage time per epoch: 0.29\n\n--Testing--\nTest loss: 3.44098\nTest acc: 0.076  \nTest F1: 0.076 \nTest precision: 0.076\nTest recall: 0.076\n'
Running: python3 main.py -m CNN -ef psd -ntt 30 -bs 16 -hc 64 -lr 0.009 -dr 0.4 -st -wtr -esp 30 -trd test_2 -tmd best_params_2
b'Train/Val dataset: DEAPDataset(320) | Test dataset: DEAPDataset(960)\nDevice: cuda\nNumber of classes: 32\nCNN(\n  (cnn1): Conv1d(4, 1, kernel_size=(3,), stride=(2,))\n  (lin1): Linear(in_features=928, out_features=64, bias=True)\n  (lin2): Linear(in_features=64, out_features=32, bias=True)\n  (act): Softmax(dim=-1)\n)\nModel parameter count: 61549\nTrain dataset: DEAPDataset(160) | Validation dataset: DEAPDataset(160)\nTraining...\n--Finished training--\nTraining time (s): 3.78\nTotal epochs: 39 ; Model picked from epoch 9\nAverage time per epoch: 0.10\n\n--Testing--\nTest loss: 3.43150\nTest acc: 0.085  \nTest F1: 0.085 \nTest precision: 0.085\nTest recall: 0.085\n'
Running: python3 main.py -m CNN -ef psd -ntt 30 -bs 4 -hc 128 -lr 0.0001 -dr 0 -st -wtr -esp 30 -trd test_2 -tmd best_params_2
b'Train/Val dataset: DEAPDataset(320) | Test dataset: DEAPDataset(960)\nDevice: cuda\nNumber of classes: 32\nCNN(\n  (cnn1): Conv1d(4, 1, kernel_size=(3,), stride=(2,))\n  (lin1): Linear(in_features=928, out_features=128, bias=True)\n  (lin2): Linear(in_features=128, out_features=32, bias=True)\n  (act): Softmax(dim=-1)\n)\nModel parameter count: 123053\nTrain dataset: DEAPDataset(160) | Validation dataset: DEAPDataset(160)\nTraining...\n--Finished training--\nTraining time (s): 116.88\nTotal epochs: 409 ; Model picked from epoch 379\nAverage time per epoch: 0.29\n\n--Testing--\nTest loss: 3.25195\nTest acc: 0.286  \nTest F1: 0.286 \nTest precision: 0.286\nTest recall: 0.286\n'
Running: python3 main.py -m CNN -ef psd -ntt 30 -bs 16 -hc 128 -lr 0.0001 -dr 0 -st -wtr -esp 30 -trd test_2 -tmd best_params_2
b'Train/Val dataset: DEAPDataset(320) | Test dataset: DEAPDataset(960)\nDevice: cuda\nNumber of classes: 32\nCNN(\n  (cnn1): Conv1d(4, 1, kernel_size=(3,), stride=(2,))\n  (lin1): Linear(in_features=928, out_features=128, bias=True)\n  (lin2): Linear(in_features=128, out_features=32, bias=True)\n  (act): Softmax(dim=-1)\n)\nModel parameter count: 123053\nTrain dataset: DEAPDataset(160) | Validation dataset: DEAPDataset(160)\nTraining...\n--Finished training--\nTraining time (s): 163.94\nTotal epochs: 1786 ; Model picked from epoch 1756\nAverage time per epoch: 0.09\n\n--Testing--\nTest loss: 3.21327\nTest acc: 0.312  \nTest F1: 0.312 \nTest precision: 0.312\nTest recall: 0.312\n'
Running: python3 main.py -m CNN -ef psd -ntt 30 -bs 4 -hc 128 -lr 0.0001 -dr 0.4 -st -wtr -esp 30 -trd test_2 -tmd best_params_2
b'Train/Val dataset: DEAPDataset(320) | Test dataset: DEAPDataset(960)\nDevice: cuda\nNumber of classes: 32\nCNN(\n  (cnn1): Conv1d(4, 1, kernel_size=(3,), stride=(2,))\n  (lin1): Linear(in_features=928, out_features=128, bias=True)\n  (lin2): Linear(in_features=128, out_features=32, bias=True)\n  (act): Softmax(dim=-1)\n)\nModel parameter count: 123053\nTrain dataset: DEAPDataset(160) | Validation dataset: DEAPDataset(160)\nTraining...\n--Finished training--\nTraining time (s): 88.06\nTotal epochs: 328 ; Model picked from epoch 298\nAverage time per epoch: 0.27\n\n--Testing--\nTest loss: 3.21700\nTest acc: 0.329  \nTest F1: 0.329 \nTest precision: 0.329\nTest recall: 0.329\n'
Running: python3 main.py -m CNN -ef psd -ntt 30 -bs 16 -hc 128 -lr 0.0001 -dr 0.4 -st -wtr -esp 30 -trd test_2 -tmd best_params_2
b'Train/Val dataset: DEAPDataset(320) | Test dataset: DEAPDataset(960)\nDevice: cuda\nNumber of classes: 32\nCNN(\n  (cnn1): Conv1d(4, 1, kernel_size=(3,), stride=(2,))\n  (lin1): Linear(in_features=928, out_features=128, bias=True)\n  (lin2): Linear(in_features=128, out_features=32, bias=True)\n  (act): Softmax(dim=-1)\n)\nModel parameter count: 123053\nTrain dataset: DEAPDataset(160) | Validation dataset: DEAPDataset(160)\nTraining...\n--Finished training--\nTraining time (s): 35.60\nTotal epochs: 410 ; Model picked from epoch 380\nAverage time per epoch: 0.09\n\n--Testing--\nTest loss: 3.41047\nTest acc: 0.116  \nTest F1: 0.116 \nTest precision: 0.116\nTest recall: 0.116\n'
Running: python3 main.py -m CNN -ef psd -ntt 30 -bs 4 -hc 128 -lr 0.0045 -dr 0 -st -wtr -esp 30 -trd test_2 -tmd best_params_2
b'Train/Val dataset: DEAPDataset(320) | Test dataset: DEAPDataset(960)\nDevice: cuda\nNumber of classes: 32\nCNN(\n  (cnn1): Conv1d(4, 1, kernel_size=(3,), stride=(2,))\n  (lin1): Linear(in_features=928, out_features=128, bias=True)\n  (lin2): Linear(in_features=128, out_features=32, bias=True)\n  (act): Softmax(dim=-1)\n)\nModel parameter count: 123053\nTrain dataset: DEAPDataset(160) | Validation dataset: DEAPDataset(160)\nTraining...\n--Finished training--\nTraining time (s): 10.56\nTotal epochs: 39 ; Model picked from epoch 9\nAverage time per epoch: 0.27\n\n--Testing--\nTest loss: 3.41924\nTest acc: 0.096  \nTest F1: 0.096 \nTest precision: 0.096\nTest recall: 0.096\n'
Running: python3 main.py -m CNN -ef psd -ntt 30 -bs 16 -hc 128 -lr 0.0045 -dr 0 -st -wtr -esp 30 -trd test_2 -tmd best_params_2
b'Train/Val dataset: DEAPDataset(320) | Test dataset: DEAPDataset(960)\nDevice: cuda\nNumber of classes: 32\nCNN(\n  (cnn1): Conv1d(4, 1, kernel_size=(3,), stride=(2,))\n  (lin1): Linear(in_features=928, out_features=128, bias=True)\n  (lin2): Linear(in_features=128, out_features=32, bias=True)\n  (act): Softmax(dim=-1)\n)\nModel parameter count: 123053\nTrain dataset: DEAPDataset(160) | Validation dataset: DEAPDataset(160)\nTraining...\n--Finished training--\nTraining time (s): 7.98\nTotal epochs: 90 ; Model picked from epoch 60\nAverage time per epoch: 0.09\n\n--Testing--\nTest loss: 3.19825\nTest acc: 0.321  \nTest F1: 0.321 \nTest precision: 0.321\nTest recall: 0.321\n'
Running: python3 main.py -m CNN -ef psd -ntt 30 -bs 4 -hc 128 -lr 0.0045 -dr 0.4 -st -wtr -esp 30 -trd test_2 -tmd best_params_2
b'Train/Val dataset: DEAPDataset(320) | Test dataset: DEAPDataset(960)\nDevice: cuda\nNumber of classes: 32\nCNN(\n  (cnn1): Conv1d(4, 1, kernel_size=(3,), stride=(2,))\n  (lin1): Linear(in_features=928, out_features=128, bias=True)\n  (lin2): Linear(in_features=128, out_features=32, bias=True)\n  (act): Softmax(dim=-1)\n)\nModel parameter count: 123053\nTrain dataset: DEAPDataset(160) | Validation dataset: DEAPDataset(160)\nTraining...\n--Finished training--\nTraining time (s): 9.32\nTotal epochs: 36 ; Model picked from epoch 6\nAverage time per epoch: 0.26\n\n--Testing--\nTest loss: 3.46300\nTest acc: 0.055  \nTest F1: 0.055 \nTest precision: 0.055\nTest recall: 0.055\n'
Running: python3 main.py -m CNN -ef psd -ntt 30 -bs 16 -hc 128 -lr 0.0045 -dr 0.4 -st -wtr -esp 30 -trd test_2 -tmd best_params_2
b'Train/Val dataset: DEAPDataset(320) | Test dataset: DEAPDataset(960)\nDevice: cuda\nNumber of classes: 32\nCNN(\n  (cnn1): Conv1d(4, 1, kernel_size=(3,), stride=(2,))\n  (lin1): Linear(in_features=928, out_features=128, bias=True)\n  (lin2): Linear(in_features=128, out_features=32, bias=True)\n  (act): Softmax(dim=-1)\n)\nModel parameter count: 123053\nTrain dataset: DEAPDataset(160) | Validation dataset: DEAPDataset(160)\nTraining...\n--Finished training--\nTraining time (s): 4.23\nTotal epochs: 45 ; Model picked from epoch 15\nAverage time per epoch: 0.09\n\n--Testing--\nTest loss: 3.45489\nTest acc: 0.058  \nTest F1: 0.058 \nTest precision: 0.058\nTest recall: 0.058\n'
Running: python3 main.py -m CNN -ef psd -ntt 30 -bs 4 -hc 128 -lr 0.009 -dr 0 -st -wtr -esp 30 -trd test_2 -tmd best_params_2
b'Train/Val dataset: DEAPDataset(320) | Test dataset: DEAPDataset(960)\nDevice: cuda\nNumber of classes: 32\nCNN(\n  (cnn1): Conv1d(4, 1, kernel_size=(3,), stride=(2,))\n  (lin1): Linear(in_features=928, out_features=128, bias=True)\n  (lin2): Linear(in_features=128, out_features=32, bias=True)\n  (act): Softmax(dim=-1)\n)\nModel parameter count: 123053\nTrain dataset: DEAPDataset(160) | Validation dataset: DEAPDataset(160)\nTraining...\n--Finished training--\nTraining time (s): 6.00\nTotal epochs: 31 ; Model picked from epoch 1\nAverage time per epoch: 0.19\n\n--Testing--\nTest loss: 3.48679\nTest acc: 0.031  \nTest F1: 0.031 \nTest precision: 0.031\nTest recall: 0.031\n'
Running: python3 main.py -m CNN -ef psd -ntt 30 -bs 16 -hc 128 -lr 0.009 -dr 0 -st -wtr -esp 30 -trd test_2 -tmd best_params_2
b'Train/Val dataset: DEAPDataset(320) | Test dataset: DEAPDataset(960)\nDevice: cuda\nNumber of classes: 32\nCNN(\n  (cnn1): Conv1d(4, 1, kernel_size=(3,), stride=(2,))\n  (lin1): Linear(in_features=928, out_features=128, bias=True)\n  (lin2): Linear(in_features=128, out_features=32, bias=True)\n  (act): Softmax(dim=-1)\n)\nModel parameter count: 123053\nTrain dataset: DEAPDataset(160) | Validation dataset: DEAPDataset(160)\nTraining...\n--Finished training--\nTraining time (s): 2.90\nTotal epochs: 31 ; Model picked from epoch 1\nAverage time per epoch: 0.09\n\n--Testing--\nTest loss: 3.48679\nTest acc: 0.031  \nTest F1: 0.031 \nTest precision: 0.031\nTest recall: 0.031\n'
Running: python3 main.py -m CNN -ef psd -ntt 30 -bs 4 -hc 128 -lr 0.009 -dr 0.4 -st -wtr -esp 30 -trd test_2 -tmd best_params_2
b'Train/Val dataset: DEAPDataset(320) | Test dataset: DEAPDataset(960)\nDevice: cuda\nNumber of classes: 32\nCNN(\n  (cnn1): Conv1d(4, 1, kernel_size=(3,), stride=(2,))\n  (lin1): Linear(in_features=928, out_features=128, bias=True)\n  (lin2): Linear(in_features=128, out_features=32, bias=True)\n  (act): Softmax(dim=-1)\n)\nModel parameter count: 123053\nTrain dataset: DEAPDataset(160) | Validation dataset: DEAPDataset(160)\nTraining...\n--Finished training--\nTraining time (s): 8.77\nTotal epochs: 31 ; Model picked from epoch 1\nAverage time per epoch: 0.28\n\n--Testing--\nTest loss: 3.48629\nTest acc: 0.031  \nTest F1: 0.031 \nTest precision: 0.031\nTest recall: 0.031\n'
Running: python3 main.py -m CNN -ef psd -ntt 30 -bs 16 -hc 128 -lr 0.009 -dr 0.4 -st -wtr -esp 30 -trd test_2 -tmd best_params_2
b'Train/Val dataset: DEAPDataset(320) | Test dataset: DEAPDataset(960)\nDevice: cuda\nNumber of classes: 32\nCNN(\n  (cnn1): Conv1d(4, 1, kernel_size=(3,), stride=(2,))\n  (lin1): Linear(in_features=928, out_features=128, bias=True)\n  (lin2): Linear(in_features=128, out_features=32, bias=True)\n  (act): Softmax(dim=-1)\n)\nModel parameter count: 123053\nTrain dataset: DEAPDataset(160) | Validation dataset: DEAPDataset(160)\nTraining...\n--Finished training--\nTraining time (s): 4.58\nTotal epochs: 65 ; Model picked from epoch 35\nAverage time per epoch: 0.07\n\n--Testing--\nTest loss: 3.33248\nTest acc: 0.183  \nTest F1: 0.183 \nTest precision: 0.183\nTest recall: 0.183\n'
Running: python3 main.py -m CNN -ef psd -ntt 34 -bs 4 -hc 16 -lr 0.0001 -dr 0 -st -wtr -esp 30 -trd test_2 -tmd best_params_2
b'Train/Val dataset: DEAPDataset(192) | Test dataset: DEAPDataset(1088)\nDevice: cuda\nNumber of classes: 32\nCNN(\n  (cnn1): Conv1d(4, 1, kernel_size=(3,), stride=(2,))\n  (lin1): Linear(in_features=928, out_features=16, bias=True)\n  (lin2): Linear(in_features=16, out_features=32, bias=True)\n  (act): Softmax(dim=-1)\n)\nModel parameter count: 15421\nTrain dataset: DEAPDataset(32) | Validation dataset: DEAPDataset(160)\nTraining...\n--Finished training--\nTraining time (s): 56.95\nTotal epochs: 377 ; Model picked from epoch 347\nAverage time per epoch: 0.15\n\n--Testing--\nTest loss: 3.40136\nTest acc: 0.152  \nTest F1: 0.152 \nTest precision: 0.152\nTest recall: 0.152\n'
Running: python3 main.py -m CNN -ef psd -ntt 34 -bs 16 -hc 16 -lr 0.0001 -dr 0 -st -wtr -esp 30 -trd test_2 -tmd best_params_2
b'Train/Val dataset: DEAPDataset(192) | Test dataset: DEAPDataset(1088)\nDevice: cuda\nNumber of classes: 32\nCNN(\n  (cnn1): Conv1d(4, 1, kernel_size=(3,), stride=(2,))\n  (lin1): Linear(in_features=928, out_features=16, bias=True)\n  (lin2): Linear(in_features=16, out_features=32, bias=True)\n  (act): Softmax(dim=-1)\n)\nModel parameter count: 15421\nTrain dataset: DEAPDataset(32) | Validation dataset: DEAPDataset(160)\nTraining...\n--Finished training--\nTraining time (s): 27.80\nTotal epochs: 472 ; Model picked from epoch 442\nAverage time per epoch: 0.06\n\n--Testing--\nTest loss: 3.40053\nTest acc: 0.168  \nTest F1: 0.168 \nTest precision: 0.168\nTest recall: 0.168\n'
Running: python3 main.py -m CNN -ef psd -ntt 34 -bs 4 -hc 16 -lr 0.0001 -dr 0.4 -st -wtr -esp 30 -trd test_2 -tmd best_params_2
b'Train/Val dataset: DEAPDataset(192) | Test dataset: DEAPDataset(1088)\nDevice: cuda\nNumber of classes: 32\nCNN(\n  (cnn1): Conv1d(4, 1, kernel_size=(3,), stride=(2,))\n  (lin1): Linear(in_features=928, out_features=16, bias=True)\n  (lin2): Linear(in_features=16, out_features=32, bias=True)\n  (act): Softmax(dim=-1)\n)\nModel parameter count: 15421\nTrain dataset: DEAPDataset(32) | Validation dataset: DEAPDataset(160)\nTraining...\n--Finished training--\nTraining time (s): 10.83\nTotal epochs: 62 ; Model picked from epoch 32\nAverage time per epoch: 0.17\n\n--Testing--\nTest loss: 3.46580\nTest acc: 0.043  \nTest F1: 0.043 \nTest precision: 0.043\nTest recall: 0.043\n'
Running: python3 main.py -m CNN -ef psd -ntt 34 -bs 16 -hc 16 -lr 0.0001 -dr 0.4 -st -wtr -esp 30 -trd test_2 -tmd best_params_2
b'Train/Val dataset: DEAPDataset(192) | Test dataset: DEAPDataset(1088)\nDevice: cuda\nNumber of classes: 32\nCNN(\n  (cnn1): Conv1d(4, 1, kernel_size=(3,), stride=(2,))\n  (lin1): Linear(in_features=928, out_features=16, bias=True)\n  (lin2): Linear(in_features=16, out_features=32, bias=True)\n  (act): Softmax(dim=-1)\n)\nModel parameter count: 15421\nTrain dataset: DEAPDataset(32) | Validation dataset: DEAPDataset(160)\nTraining...\n--Finished training--\nTraining time (s): 40.33\nTotal epochs: 672 ; Model picked from epoch 642\nAverage time per epoch: 0.06\n\n--Testing--\nTest loss: 3.45581\nTest acc: 0.065  \nTest F1: 0.065 \nTest precision: 0.065\nTest recall: 0.065\n'
Running: python3 main.py -m CNN -ef psd -ntt 34 -bs 4 -hc 16 -lr 0.0045 -dr 0 -st -wtr -esp 30 -trd test_2 -tmd best_params_2
b'Train/Val dataset: DEAPDataset(192) | Test dataset: DEAPDataset(1088)\nDevice: cuda\nNumber of classes: 32\nCNN(\n  (cnn1): Conv1d(4, 1, kernel_size=(3,), stride=(2,))\n  (lin1): Linear(in_features=928, out_features=16, bias=True)\n  (lin2): Linear(in_features=16, out_features=32, bias=True)\n  (act): Softmax(dim=-1)\n)\nModel parameter count: 15421\nTrain dataset: DEAPDataset(32) | Validation dataset: DEAPDataset(160)\nTraining...\n--Finished training--\nTraining time (s): 32.08\nTotal epochs: 185 ; Model picked from epoch 155\nAverage time per epoch: 0.17\n\n--Testing--\nTest loss: 3.44574\nTest acc: 0.064  \nTest F1: 0.064 \nTest precision: 0.064\nTest recall: 0.064\n'
Running: python3 main.py -m CNN -ef psd -ntt 34 -bs 16 -hc 16 -lr 0.0045 -dr 0 -st -wtr -esp 30 -trd test_2 -tmd best_params_2
…
b'Train/Val dataset: DEAPDataset(320) | Test dataset: DEAPDataset(960)\nDevice: cuda\nNumber of classes: 32\nGatedGraphConvCNN(\n  (gconv): GatedGraphConv(64, num_layers=2)\n  (cnn1): Conv1d(4, 1, kernel_size=(3,), stride=(2,))\n  (lin1): Linear(in_features=992, out_features=64, bias=True)\n  (lin2): Linear(in_features=64, out_features=32, bias=True)\n  (act): Softmax(dim=-1)\n)\nModel parameter count: 98797\nTrain dataset: DEAPDataset(160) | Validation dataset: DEAPDataset(160)\nTraining...\n--Finished training--\nTraining time (s): 38.67\nTotal epochs: 238 ; Model picked from epoch 208\nAverage time per epoch: 0.16\n\n--Testing--\nTest loss: 3.25126\nTest acc: 0.269  \nTest F1: 0.269 \nTest precision: 0.269\nTest recall: 0.269\n'
Running: python3 main.py -m GatedGraphConvCNN -ef psd -ntt 30 -bs 4 -hc 64 -lr 0.0045 -dr 0 -st -wtr -esp 30 -trd test_2 -tmd best_params_2
b'Train/Val dataset: DEAPDataset(320) | Test dataset: DEAPDataset(960)\nDevice: cuda\nNumber of classes: 32\nGatedGraphConvCNN(\n  (gconv): GatedGraphConv(64, num_layers=2)\n  (cnn1): Conv1d(4, 1, kernel_size=(3,), stride=(2,))\n  (lin1): Linear(in_features=992, out_features=64, bias=True)\n  (lin2): Linear(in_features=64, out_features=32, bias=True)\n  (act): Softmax(dim=-1)\n)\nModel parameter count: 98797\nTrain dataset: DEAPDataset(160) | Validation dataset: DEAPDataset(160)\nTraining...\n--Finished training--\nTraining time (s): 13.07\nTotal epochs: 31 ; Model picked from epoch 1\nAverage time per epoch: 0.42\n\n--Testing--\nTest loss: 3.48679\nTest acc: 0.031  \nTest F1: 0.031 \nTest precision: 0.031\nTest recall: 0.031\n'
Running: python3 main.py -m GatedGraphConvCNN -ef psd -ntt 30 -bs 16 -hc 64 -lr 0.0045 -dr 0 -st -wtr -esp 30 -trd test_2 -tmd best_params_2
b'Train/Val dataset: DEAPDataset(320) | Test dataset: DEAPDataset(960)\nDevice: cuda\nNumber of classes: 32\nGatedGraphConvCNN(\n  (gconv): GatedGraphConv(64, num_layers=2)\n  (cnn1): Conv1d(4, 1, kernel_size=(3,), stride=(2,))\n  (lin1): Linear(in_features=992, out_features=64, bias=True)\n  (lin2): Linear(in_features=64, out_features=32, bias=True)\n  (act): Softmax(dim=-1)\n)\nModel parameter count: 98797\nTrain dataset: DEAPDataset(160) | Validation dataset: DEAPDataset(160)\nTraining...\n--Finished training--\nTraining time (s): 4.97\nTotal epochs: 31 ; Model picked from epoch 1\nAverage time per epoch: 0.16\n\n--Testing--\nTest loss: 3.48679\nTest acc: 0.031  \nTest F1: 0.031 \nTest precision: 0.031\nTest recall: 0.031\n'
Running: python3 main.py -m GatedGraphConvCNN -ef psd -ntt 30 -bs 4 -hc 64 -lr 0.0045 -dr 0.4 -st -wtr -esp 30 -trd test_2 -tmd best_params_2
b'Train/Val dataset: DEAPDataset(320) | Test dataset: DEAPDataset(960)\nDevice: cuda\nNumber of classes: 32\nGatedGraphConvCNN(\n  (gconv): GatedGraphConv(64, num_layers=2)\n  (cnn1): Conv1d(4, 1, kernel_size=(3,), stride=(2,))\n  (lin1): Linear(in_features=992, out_features=64, bias=True)\n  (lin2): Linear(in_features=64, out_features=32, bias=True)\n  (act): Softmax(dim=-1)\n)\nModel parameter count: 98797\nTrain dataset: DEAPDataset(160) | Validation dataset: DEAPDataset(160)\nTraining...\n--Finished training--\nTraining time (s): 13.11\nTotal epochs: 31 ; Model picked from epoch 1\nAverage time per epoch: 0.42\n\n--Testing--\nTest loss: 3.48572\nTest acc: 0.032  \nTest F1: 0.032 \nTest precision: 0.032\nTest recall: 0.032\n'
Running: python3 main.py -m GatedGraphConvCNN -ef psd -ntt 30 -bs 16 -hc 64 -lr 0.0045 -dr 0.4 -st -wtr -esp 30 -trd test_2 -tmd best_params_2
b'Train/Val dataset: DEAPDataset(320) | Test dataset: DEAPDataset(960)\nDevice: cuda\nNumber of classes: 32\nGatedGraphConvCNN(\n  (gconv): GatedGraphConv(64, num_layers=2)\n  (cnn1): Conv1d(4, 1, kernel_size=(3,), stride=(2,))\n  (lin1): Linear(in_features=992, out_features=64, bias=True)\n  (lin2): Linear(in_features=64, out_features=32, bias=True)\n  (act): Softmax(dim=-1)\n)\nModel parameter count: 98797\nTrain dataset: DEAPDataset(160) | Validation dataset: DEAPDataset(160)\nTraining...\n--Finished training--\nTraining time (s): 5.52\nTotal epochs: 33 ; Model picked from epoch 3\nAverage time per epoch: 0.17\n\n--Testing--\nTest loss: 3.47379\nTest acc: 0.044  \nTest F1: 0.044 \nTest precision: 0.044\nTest recall: 0.044\n'
Running: python3 main.py -m GatedGraphConvCNN -ef psd -ntt 30 -bs 4 -hc 64 -lr 0.009 -dr 0 -st -wtr -esp 30 -trd test_2 -tmd best_params_2
b'Train/Val dataset: DEAPDataset(320) | Test dataset: DEAPDataset(960)\nDevice: cuda\nNumber of classes: 32\nGatedGraphConvCNN(\n  (gconv): GatedGraphConv(64, num_layers=2)\n  (cnn1): Conv1d(4, 1, kernel_size=(3,), stride=(2,))\n  (lin1): Linear(in_features=992, out_features=64, bias=True)\n  (lin2): Linear(in_features=64, out_features=32, bias=True)\n  (act): Softmax(dim=-1)\n)\nModel parameter count: 98797\nTrain dataset: DEAPDataset(160) | Validation dataset: DEAPDataset(160)\nTraining...\n--Finished training--\nTraining time (s): 13.05\nTotal epochs: 31 ; Model picked from epoch 1\nAverage time per epoch: 0.42\n\n--Testing--\nTest loss: 3.48679\nTest acc: 0.031  \nTest F1: 0.031 \nTest precision: 0.031\nTest recall: 0.031\n'
Running: python3 main.py -m GatedGraphConvCNN -ef psd -ntt 30 -bs 16 -hc 64 -lr 0.009 -dr 0 -st -wtr -esp 30 -trd test_2 -tmd best_params_2
b'Train/Val dataset: DEAPDataset(320) | Test dataset: DEAPDataset(960)\nDevice: cuda\nNumber of classes: 32\nGatedGraphConvCNN(\n  (gconv): GatedGraphConv(64, num_layers=2)\n  (cnn1): Conv1d(4, 1, kernel_size=(3,), stride=(2,))\n  (lin1): Linear(in_features=992, out_features=64, bias=True)\n  (lin2): Linear(in_features=64, out_features=32, bias=True)\n  (act): Softmax(dim=-1)\n)\nModel parameter count: 98797\nTrain dataset: DEAPDataset(160) | Validation dataset: DEAPDataset(160)\nTraining...\n--Finished training--\nTraining time (s): 5.15\nTotal epochs: 31 ; Model picked from epoch 1\nAverage time per epoch: 0.17\n\n--Testing--\nTest loss: 3.48679\nTest acc: 0.031  \nTest F1: 0.031 \nTest precision: 0.031\nTest recall: 0.031\n'
Running: python3 main.py -m GatedGraphConvCNN -ef psd -ntt 30 -bs 4 -hc 64 -lr 0.009 -dr 0.4 -st -wtr -esp 30 -trd test_2 -tmd best_params_2
b'Train/Val dataset: DEAPDataset(320) | Test dataset: DEAPDataset(960)\nDevice: cuda\nNumber of classes: 32\nGatedGraphConvCNN(\n  (gconv): GatedGraphConv(64, num_layers=2)\n  (cnn1): Conv1d(4, 1, kernel_size=(3,), stride=(2,))\n  (lin1): Linear(in_features=992, out_features=64, bias=True)\n  (lin2): Linear(in_features=64, out_features=32, bias=True)\n  (act): Softmax(dim=-1)\n)\nModel parameter count: 98797\nTrain dataset: DEAPDataset(160) | Validation dataset: DEAPDataset(160)\nTraining...\n--Finished training--\nTraining time (s): 13.37\nTotal epochs: 31 ; Model picked from epoch 1\nAverage time per epoch: 0.43\n\n--Testing--\nTest loss: 3.48679\nTest acc: 0.031  \nTest F1: 0.031 \nTest precision: 0.031\nTest recall: 0.031\n'
Running: python3 main.py -m GatedGraphConvCNN -ef psd -ntt 30 -bs 16 -hc 64 -lr 0.009 -dr 0.4 -st -wtr -esp 30 -trd test_2 -tmd best_params_2
b'Train/Val dataset: DEAPDataset(320) | Test dataset: DEAPDataset(960)\nDevice: cuda\nNumber of classes: 32\nGatedGraphConvCNN(\n  (gconv): GatedGraphConv(64, num_layers=2)\n  (cnn1): Conv1d(4, 1, kernel_size=(3,), stride=(2,))\n  (lin1): Linear(in_features=992, out_features=64, bias=True)\n  (lin2): Linear(in_features=64, out_features=32, bias=True)\n  (act): Softmax(dim=-1)\n)\nModel parameter count: 98797\nTrain dataset: DEAPDataset(160) | Validation dataset: DEAPDataset(160)\nTraining...\n--Finished training--\nTraining time (s): 5.10\nTotal epochs: 31 ; Model picked from epoch 1\nAverage time per epoch: 0.16\n\n--Testing--\nTest loss: 3.48679\nTest acc: 0.031  \nTest F1: 0.031 \nTest precision: 0.031\nTest recall: 0.031\n'
Running: python3 main.py -m GatedGraphConvCNN -ef psd -ntt 30 -bs 4 -hc 128 -lr 0.0001 -dr 0 -st -wtr -esp 30 -trd test_2 -tmd best_params_2
b'Train/Val dataset: DEAPDataset(320) | Test dataset: DEAPDataset(960)\nDevice: cuda\nNumber of classes: 32\nGatedGraphConvCNN(\n  (gconv): GatedGraphConv(128, num_layers=2)\n  (cnn1): Conv1d(4, 1, kernel_size=(3,), stride=(2,))\n  (lin1): Linear(in_features=2016, out_features=128, bias=True)\n  (lin2): Linear(in_features=128, out_features=32, bias=True)\n  (act): Softmax(dim=-1)\n)\nModel parameter count: 394157\nTrain dataset: DEAPDataset(160) | Validation dataset: DEAPDataset(160)\nTraining...\n--Finished training--\nTraining time (s): 16.13\nTotal epochs: 35 ; Model picked from epoch 5\nAverage time per epoch: 0.46\n\n--Testing--\nTest loss: 3.39922\nTest acc: 0.121  \nTest F1: 0.121 \nTest precision: 0.121\nTest recall: 0.121\n'
Running: python3 main.py -m GatedGraphConvCNN -ef psd -ntt 30 -bs 16 -hc 128 -lr 0.0001 -dr 0 -st -wtr -esp 30 -trd test_2 -tmd best_params_2
b'Train/Val dataset: DEAPDataset(320) | Test dataset: DEAPDataset(960)\nDevice: cuda\nNumber of classes: 32\nGatedGraphConvCNN(\n  (gconv): GatedGraphConv(128, num_layers=2)\n  (cnn1): Conv1d(4, 1, kernel_size=(3,), stride=(2,))\n  (lin1): Linear(in_features=2016, out_features=128, bias=True)\n  (lin2): Linear(in_features=128, out_features=32, bias=True)\n  (act): Softmax(dim=-1)\n)\nModel parameter count: 394157\nTrain dataset: DEAPDataset(160) | Validation dataset: DEAPDataset(160)\nTraining...\n--Finished training--\nTraining time (s): 25.87\nTotal epochs: 137 ; Model picked from epoch 107\nAverage time per epoch: 0.19\n\n--Testing--\nTest loss: 3.31175\nTest acc: 0.206  \nTest F1: 0.206 \nTest precision: 0.206\nTest recall: 0.206\n'
Running: python3 main.py -m GatedGraphConvCNN -ef psd -ntt 30 -bs 4 -hc 128 -lr 0.0001 -dr 0.4 -st -wtr -esp 30 -trd test_2 -tmd best_params_2
b'Train/Val dataset: DEAPDataset(320) | Test dataset: DEAPDataset(960)\nDevice: cuda\nNumber of classes: 32\nGatedGraphConvCNN(\n  (gconv): GatedGraphConv(128, num_layers=2)\n  (cnn1): Conv1d(4, 1, kernel_size=(3,), stride=(2,))\n  (lin1): Linear(in_features=2016, out_features=128, bias=True)\n  (lin2): Linear(in_features=128, out_features=32, bias=True)\n  (act): Softmax(dim=-1)\n)\nModel parameter count: 394157\nTrain dataset: DEAPDataset(160) | Validation dataset: DEAPDataset(160)\nTraining...\n--Finished training--\nTraining time (s): 101.52\nTotal epochs: 180 ; Model picked from epoch 150\nAverage time per epoch: 0.56\n\n--Testing--\nTest loss: 2.85819\nTest acc: 0.660  \nTest F1: 0.660 \nTest precision: 0.660\nTest recall: 0.660\n'
Running: python3 main.py -m GatedGraphConvCNN -ef psd -ntt 30 -bs 16 -hc 128 -lr 0.0001 -dr 0.4 -st -wtr -esp 30 -trd test_2 -tmd best_params_2
b'Train/Val dataset: DEAPDataset(320) | Test dataset: DEAPDataset(960)\nDevice: cuda\nNumber of classes: 32\nGatedGraphConvCNN(\n  (gconv): GatedGraphConv(128, num_layers=2)\n  (cnn1): Conv1d(4, 1, kernel_size=(3,), stride=(2,))\n  (lin1): Linear(in_features=2016, out_features=128, bias=True)\n  (lin2): Linear(in_features=128, out_features=32, bias=True)\n  (act): Softmax(dim=-1)\n)\nModel parameter count: 394157\nTrain dataset: DEAPDataset(160) | Validation dataset: DEAPDataset(160)\nTraining...\n--Finished training--\nTraining time (s): 52.06\nTotal epochs: 220 ; Model picked from epoch 190\nAverage time per epoch: 0.24\n\n--Testing--\nTest loss: 3.15393\nTest acc: 0.367  \nTest F1: 0.367 \nTest precision: 0.367\nTest recall: 0.367\n'
Running: python3 main.py -m GatedGraphConvCNN -ef psd -ntt 30 -bs 4 -hc 128 -lr 0.0045 -dr 0 -st -wtr -esp 30 -trd test_2 -tmd best_params_2
b'Train/Val dataset: DEAPDataset(320) | Test dataset: DEAPDataset(960)\nDevice: cuda\nNumber of classes: 32\nGatedGraphConvCNN(\n  (gconv): GatedGraphConv(128, num_layers=2)\n  (cnn1): Conv1d(4, 1, kernel_size=(3,), stride=(2,))\n  (lin1): Linear(in_features=2016, out_features=128, bias=True)\n  (lin2): Linear(in_features=128, out_features=32, bias=True)\n  (act): Softmax(dim=-1)\n)\nModel parameter count: 394157\nTrain dataset: DEAPDataset(160) | Validation dataset: DEAPDataset(160)\nTraining...\n--Finished training--\nTraining time (s): 17.79\nTotal epochs: 31 ; Model picked from epoch 1\nAverage time per epoch: 0.57\n\n--Testing--\nTest loss: 3.48679\nTest acc: 0.031  \nTest F1: 0.031 \nTest precision: 0.031\nTest recall: 0.031\n'
Running: python3 main.py -m GatedGraphConvCNN -ef psd -ntt 30 -bs 16 -hc 128 -lr 0.0045 -dr 0 -st -wtr -esp 30 -trd test_2 -tmd best_params_2
b'Train/Val dataset: DEAPDataset(320) | Test dataset: DEAPDataset(960)\nDevice: cuda\nNumber of classes: 32\nGatedGraphConvCNN(\n  (gconv): GatedGraphConv(128, num_layers=2)\n  (cnn1): Conv1d(4, 1, kernel_size=(3,), stride=(2,))\n  (lin1): Linear(in_features=2016, out_features=128, bias=True)\n  (lin2): Linear(in_features=128, out_features=32, bias=True)\n  (act): Softmax(dim=-1)\n)\nModel parameter count: 394157\nTrain dataset: DEAPDataset(160) | Validation dataset: DEAPDataset(160)\nTraining...\n--Finished training--\nTraining time (s): 13.97\nTotal epochs: 59 ; Model picked from epoch 29\nAverage time per epoch: 0.24\n\n--Testing--\nTest loss: 3.28239\nTest acc: 0.233  \nTest F1: 0.233 \nTest precision: 0.233\nTest recall: 0.233\n'
Running: python3 main.py -m GatedGraphConvCNN -ef psd -ntt 30 -bs 4 -hc 128 -lr 0.0045 -dr 0.4 -st -wtr -esp 30 -trd test_2 -tmd best_params_2
b'Train/Val dataset: DEAPDataset(320) | Test dataset: DEAPDataset(960)\nDevice: cuda\nNumber of classes: 32\nGatedGraphConvCNN(\n  (gconv): GatedGraphConv(128, num_layers=2)\n  (cnn1): Conv1d(4, 1, kernel_size=(3,), stride=(2,))\n  (lin1): Linear(in_features=2016, out_features=128, bias=True)\n  (lin2): Linear(in_features=128, out_features=32, bias=True)\n  (act): Softmax(dim=-1)\n)\nModel parameter count: 394157\nTrain dataset: DEAPDataset(160) | Validation dataset: DEAPDataset(160)\nTraining...\n--Finished training--\nTraining time (s): 23.02\nTotal epochs: 40 ; Model picked from epoch 10\nAverage time per epoch: 0.58\n\n--Testing--\nTest loss: 3.48678\nTest acc: 0.031  \nTest F1: 0.031 \nTest precision: 0.031\nTest recall: 0.031\n'
Running: python3 main.py -m GatedGraphConvCNN -ef psd -ntt 30 -bs 16 -hc 128 -lr 0.0045 -dr 0.4 -st -wtr -esp 30 -trd test_2 -tmd best_params_2
b'Train/Val dataset: DEAPDataset(320) | Test dataset: DEAPDataset(960)\nDevice: cuda\nNumber of classes: 32\nGatedGraphConvCNN(\n  (gconv): GatedGraphConv(128, num_layers=2)\n  (cnn1): Conv1d(4, 1, kernel_size=(3,), stride=(2,))\n  (lin1): Linear(in_features=2016, out_features=128, bias=True)\n  (lin2): Linear(in_features=128, out_features=32, bias=True)\n  (act): Softmax(dim=-1)\n)\nModel parameter count: 394157\nTrain dataset: DEAPDataset(160) | Validation dataset: DEAPDataset(160)\nTraining...\n--Finished training--\nTraining time (s): 10.09\nTotal epochs: 62 ; Model picked from epoch 32\nAverage time per epoch: 0.16\n\n--Testing--\nTest loss: 3.46383\nTest acc: 0.054  \nTest F1: 0.054 \nTest precision: 0.054\nTest recall: 0.054\n'
Running: python3 main.py -m GatedGraphConvCNN -ef psd -ntt 30 -bs 4 -hc 128 -lr 0.009 -dr 0 -st -wtr -esp 30 -trd test_2 -tmd best_params_2
b'Train/Val dataset: DEAPDataset(320) | Test dataset: DEAPDataset(960)\nDevice: cuda\nNumber of classes: 32\nGatedGraphConvCNN(\n  (gconv): GatedGraphConv(128, num_layers=2)\n  (cnn1): Conv1d(4, 1, kernel_size=(3,), stride=(2,))\n  (lin1): Linear(in_features=2016, out_features=128, bias=True)\n  (lin2): Linear(in_features=128, out_features=32, bias=True)\n  (act): Softmax(dim=-1)\n)\nModel parameter count: 394157\nTrain dataset: DEAPDataset(160) | Validation dataset: DEAPDataset(160)\nTraining...\n--Finished training--\nTraining time (s): 14.25\nTotal epochs: 31 ; Model picked from epoch 1\nAverage time per epoch: 0.46\n\n--Testing--\nTest loss: 3.48676\nTest acc: 0.031  \nTest F1: 0.031 \nTest precision: 0.031\nTest recall: 0.031\n'
Running: python3 main.py -m GatedGraphConvCNN -ef psd -ntt 30 -bs 16 -hc 128 -lr 0.009 -dr 0 -st -wtr -esp 30 -trd test_2 -tmd best_params_2
b'Train/Val dataset: DEAPDataset(320) | Test dataset: DEAPDataset(960)\nDevice: cuda\nNumber of classes: 32\nGatedGraphConvCNN(\n  (gconv): GatedGraphConv(128, num_layers=2)\n  (cnn1): Conv1d(4, 1, kernel_size=(3,), stride=(2,))\n  (lin1): Linear(in_features=2016, out_features=128, bias=True)\n  (lin2): Linear(in_features=128, out_features=32, bias=True)\n  (act): Softmax(dim=-1)\n)\nModel parameter count: 394157\nTrain dataset: DEAPDataset(160) | Validation dataset: DEAPDataset(160)\nTraining...\n--Finished training--\nTraining time (s): 6.47\nTotal epochs: 31 ; Model picked from epoch 1\nAverage time per epoch: 0.21\n\n--Testing--\nTest loss: 3.48679\nTest acc: 0.031  \nTest F1: 0.031 \nTest precision: 0.031\nTest recall: 0.031\n'
Running: python3 main.py -m GatedGraphConvCNN -ef psd -ntt 30 -bs 4 -hc 128 -lr 0.009 -dr 0.4 -st -wtr -esp 30 -trd test_2 -tmd best_params_2
b'Train/Val dataset: DEAPDataset(320) | Test dataset: DEAPDataset(960)\nDevice: cuda\nNumber of classes: 32\nGatedGraphConvCNN(\n  (gconv): GatedGraphConv(128, num_layers=2)\n  (cnn1): Conv1d(4, 1, kernel_size=(3,), stride=(2,))\n  (lin1): Linear(in_features=2016, out_features=128, bias=True)\n  (lin2): Linear(in_features=128, out_features=32, bias=True)\n  (act): Softmax(dim=-1)\n)\nModel parameter count: 394157\nTrain dataset: DEAPDataset(160) | Validation dataset: DEAPDataset(160)\nTraining...\n--Finished training--\nTraining time (s): 19.77\nTotal epochs: 41 ; Model picked from epoch 11\nAverage time per epoch: 0.48\n\n--Testing--\nTest loss: 3.28028\nTest acc: 0.240  \nTest F1: 0.240 \nTest precision: 0.240\nTest recall: 0.240\n'
Running: python3 main.py -m GatedGraphConvCNN -ef psd -ntt 30 -bs 16 -hc 128 -lr 0.009 -dr 0.4 -st -wtr -esp 30 -trd test_2 -tmd best_params_2
b'Train/Val dataset: DEAPDataset(320) | Test dataset: DEAPDataset(960)\nDevice: cuda\nNumber of classes: 32\nGatedGraphConvCNN(\n  (gconv): GatedGraphConv(128, num_layers=2)\n  (cnn1): Conv1d(4, 1, kernel_size=(3,), stride=(2,))\n  (lin1): Linear(in_features=2016, out_features=128, bias=True)\n  (lin2): Linear(in_features=128, out_features=32, bias=True)\n  (act): Softmax(dim=-1)\n)\nModel parameter count: 394157\nTrain dataset: DEAPDataset(160) | Validation dataset: DEAPDataset(160)\nTraining...\n--Finished training--\nTraining time (s): 6.71\nTotal epochs: 32 ; Model picked from epoch 2\nAverage time per epoch: 0.21\n\n--Testing--\nTest loss: 3.48679\nTest acc: 0.031  \nTest F1: 0.031 \nTest precision: 0.031\nTest recall: 0.031\n'
Running: python3 main.py -m GatedGraphConvCNN -ef psd -ntt 34 -bs 4 -hc 16 -lr 0.0001 -dr 0 -st -wtr -esp 30 -trd test_2 -tmd best_params_2
b'Train/Val dataset: DEAPDataset(192) | Test dataset: DEAPDataset(1088)\nDevice: cuda\nNumber of classes: 32\nGatedGraphConvCNN(\n  (gconv): GatedGraphConv(60, num_layers=2)\n  (cnn1): Conv1d(4, 1, kernel_size=(3,), stride=(2,))\n  (lin1): Linear(in_features=928, out_features=16, bias=True)\n  (lin2): Linear(in_features=16, out_features=32, bias=True)\n  (act): Softmax(dim=-1)\n)\nModel parameter count: 44581\nTrain dataset: DEAPDataset(32) | Validation dataset: DEAPDataset(160)\nTraining...\n--Finished training--\nTraining time (s): 16.57\nTotal epochs: 81 ; Model picked from epoch 51\nAverage time per epoch: 0.20\n\n--Testing--\nTest loss: 3.45912\nTest acc: 0.061  \nTest F1: 0.061 \nTest precision: 0.061\nTest recall: 0.061\n'
Running: python3 main.py -m GatedGraphConvCNN -ef psd -ntt 34 -bs 16 -hc 16 -lr 0.0001 -dr 0 -st -wtr -esp 30 -trd test_2 -tmd best_params_2
b'Train/Val dataset: DEAPDataset(192) | Test dataset: DEAPDataset(1088)\nDevice: cuda\nNumber of classes: 32\nGatedGraphConvCNN(\n  (gconv): GatedGraphConv(60, num_layers=2)\n  (cnn1): Conv1d(4, 1, kernel_size=(3,), stride=(2,))\n  (lin1): Linear(in_features=928, out_features=16, bias=True)\n  (lin2): Linear(in_features=16, out_features=32, bias=True)\n  (act): Softmax(dim=-1)\n)\nModel parameter count: 44581\nTrain dataset: DEAPDataset(32) | Validation dataset: DEAPDataset(160)\nTraining...\n--Finished training--\nTraining time (s): 3.13\nTotal epochs: 41 ; Model picked from epoch 11\nAverage time per epoch: 0.08\n\n--Testing--\nTest loss: 3.47023\nTest acc: 0.037  \nTest F1: 0.037 \nTest precision: 0.037\nTest recall: 0.037\n'
Running: python3 main.py -m GatedGraphConvCNN -ef psd -ntt 34 -bs 4 -hc 16 -lr 0.0001 -dr 0.4 -st -wtr -esp 30 -trd test_2 -tmd best_params_2
b'Train/Val dataset: DEAPDataset(192) | Test dataset: DEAPDataset(1088)\nDevice: cuda\nNumber of classes: 32\nGatedGraphConvCNN(\n  (gconv): GatedGraphConv(60, num_layers=2)\n  (cnn1): Conv1d(4, 1, kernel_size=(3,), stride=(2,))\n  (lin1): Linear(in_features=928, out_features=16, bias=True)\n  (lin2): Linear(in_features=16, out_features=32, bias=True)\n  (act): Softmax(dim=-1)\n)\nModel parameter count: 44581\nTrain dataset: DEAPDataset(32) | Validation dataset: DEAPDataset(160)\nTraining...\n--Finished training--\nTraining time (s): 8.46\nTotal epochs: 41 ; Model picked from epoch 11\nAverage time per epoch: 0.21\n\n--Testing--\nTest loss: 3.47015\nTest acc: 0.051  \nTest F1: 0.051 \nTest precision: 0.051\nTest recall: 0.051\n'
Running: python3 main.py -m GatedGraphConvCNN -ef psd -ntt 34 -bs 16 -hc 16 -lr 0.0001 -dr 0.4 -st -wtr -esp 30 -trd test_2 -tmd best_params_2
b'Train/Val dataset: DEAPDataset(192) | Test dataset: DEAPDataset(1088)\nDevice: cuda\nNumber of classes: 32\nGatedGraphConvCNN(\n  (gconv): GatedGraphConv(60, num_layers=2)\n  (cnn1): Conv1d(4, 1, kernel_size=(3,), stride=(2,))\n  (lin1): Linear(in_features=928, out_features=16, bias=True)\n  (lin2): Linear(in_features=16, out_features=32, bias=True)\n  (act): Softmax(dim=-1)\n)\nModel parameter count: 44581\nTrain dataset: DEAPDataset(32) | Validation dataset: DEAPDataset(160)\nTraining...\n--Finished training--\nTraining time (s): 8.25\nTotal epochs: 106 ; Model picked from epoch 76\nAverage time per epoch: 0.08\n\n--Testing--\nTest loss: 3.44173\nTest acc: 0.081  \nTest F1: 0.081 \nTest precision: 0.081\nTest recall: 0.081\n'
Running: python3 main.py -m GatedGraphConvCNN -ef psd -ntt 34 -bs 4 -hc 16 -lr 0.0045 -dr 0 -st -wtr -esp 30 -trd test_2 -tmd best_params_2
b'Train/Val dataset: DEAPDataset(192) | Test dataset: DEAPDataset(1088)\nDevice: cuda\nNumber of classes: 32\nGatedGraphConvCNN(\n  (gconv): GatedGraphConv(60, num_layers=2)\n  (cnn1): Conv1d(4, 1, kernel_size=(3,), stride=(2,))\n  (lin1): Linear(in_features=928, out_features=16, bias=True)\n  (lin2): Linear(in_features=16, out_features=32, bias=True)\n  (act): Softmax(dim=-1)\n)\nModel parameter count: 44581\nTrain dataset: DEAPDataset(32) | Validation dataset: DEAPDataset(160)\nTraining...\n--Finished training--\nTraining time (s): 6.33\nTotal epochs: 31 ; Model picked from epoch 1\nAverage time per epoch: 0.20\n\n--Testing--\nTest loss: 3.48571\nTest acc: 0.032  \nTest F1: 0.032 \nTest precision: 0.032\nTest recall: 0.032\n'
Running: python3 main.py -m GatedGraphConvCNN -ef psd -ntt 34 -bs 16 -hc 16 -lr 0.0045 -dr 0 -st -wtr -esp 30 -trd test_2 -tmd best_params_2
b'Train/Val dataset: DEAPDataset(192) | Test dataset: DEAPDataset(1088)\nDevice: cuda\nNumber of classes: 32\nGatedGraphConvCNN(\n  (gconv): GatedGraphConv(60, num_layers=2)\n  (cnn1): Conv1d(4, 1, kernel_size=(3,), stride=(2,))\n  (lin1): Linear(in_features=928, out_features=16, bias=True)\n  (lin2): Linear(in_features=16, out_features=32, bias=True)\n  (act): Softmax(dim=-1)\n)\nModel parameter count: 44581\nTrain dataset: DEAPDataset(32) | Validation dataset: DEAPDataset(160)\nTraining...\n--Finished training--\nTraining time (s): 6.35\nTotal epochs: 82 ; Model picked from epoch 52\nAverage time per epoch: 0.08\n\n--Testing--\nTest loss: 3.36822\nTest acc: 0.158  \nTest F1: 0.158 \nTest precision: 0.158\nTest recall: 0.158\n'
Running: python3 main.py -m GatedGraphConvCNN -ef psd -ntt 34 -bs 4 -hc 16 -lr 0.0045 -dr 0.4 -st -wtr -esp 30 -trd test_2 -tmd best_params_2
b'Train/Val dataset: DEAPDataset(192) | Test dataset: DEAPDataset(1088)\nDevice: cuda\nNumber of classes: 32\nGatedGraphConvCNN(\n  (gconv): GatedGraphConv(60, num_layers=2)\n  (cnn1): Conv1d(4, 1, kernel_size=(3,), stride=(2,))\n  (lin1): Linear(in_features=928, out_features=16, bias=True)\n  (lin2): Linear(in_features=16, out_features=32, bias=True)\n  (act): Softmax(dim=-1)\n)\nModel parameter count: 44581\nTrain dataset: DEAPDataset(32) | Validation dataset: DEAPDataset(160)\nTraining...\n--Finished training--\nTraining time (s): 11.25\nTotal epochs: 55 ; Model picked from epoch 25\nAverage time per epoch: 0.20\n\n--Testing--\nTest loss: 3.46559\nTest acc: 0.052  \nTest F1: 0.052 \nTest precision: 0.052\nTest recall: 0.052\n'
Running: python3 main.py -m GatedGraphConvCNN -ef psd -ntt 34 -bs 16 -hc 16 -lr 0.0045 -dr 0.4 -st -wtr -esp 30 -trd test_2 -tmd best_params_2
b'Train/Val dataset: DEAPDataset(192) | Test dataset: DEAPDataset(1088)\nDevice: cuda\nNumber of classes: 32\nGatedGraphConvCNN(\n  (gconv): GatedGraphConv(60, num_layers=2)\n  (cnn1): Conv1d(4, 1, kernel_size=(3,), stride=(2,))\n  (lin1): Linear(in_features=928, out_features=16, bias=True)\n  (lin2): Linear(in_features=16, out_features=32, bias=True)\n  (act): Softmax(dim=-1)\n)\nModel parameter count: 44581\nTrain dataset: DEAPDataset(32) | Validation dataset: DEAPDataset(160)\nTraining...\n--Finished training--\nTraining time (s): 2.52\nTotal epochs: 34 ; Model picked from epoch 4\nAverage time per epoch: 0.07\n\n--Testing--\nTest loss: 3.45717\nTest acc: 0.062  \nTest F1: 0.062 \nTest precision: 0.062\nTest recall: 0.062\n'
Running: python3 main.py -m GatedGraphConvCNN -ef psd -ntt 34 -bs 4 -hc 16 -lr 0.009 -dr 0 -st -wtr -esp 30 -trd test_2 -tmd best_params_2
b'Train/Val dataset: DEAPDataset(192) | Test dataset: DEAPDataset(1088)\nDevice: cuda\nNumber of classes: 32\nGatedGraphConvCNN(\n  (gconv): GatedGraphConv(60, num_layers=2)\n  (cnn1): Conv1d(4, 1, kernel_size=(3,), stride=(2,))\n  (lin1): Linear(in_features=928, out_features=16, bias=True)\n  (lin2): Linear(in_features=16, out_features=32, bias=True)\n  (act): Softmax(dim=-1)\n)\nModel parameter count: 44581\nTrain dataset: DEAPDataset(32) | Validation dataset: DEAPDataset(160)\nTraining...\n--Finished training--\nTraining time (s): 7.60\nTotal epochs: 32 ; Model picked from epoch 2\nAverage time per epoch: 0.24\n\n--Testing--\nTest loss: 3.46380\nTest acc: 0.056  \nTest F1: 0.056 \nTest precision: 0.056\nTest recall: 0.056\n'
Running: python3 main.py -m GatedGraphConvCNN -ef psd -ntt 34 -bs 16 -hc 16 -lr 0.009 -dr 0 -st -wtr -esp 30 -trd test_2 -tmd best_params_2
b'Train/Val dataset: DEAPDataset(192) | Test dataset: DEAPDataset(1088)\nDevice: cuda\nNumber of classes: 32\nGatedGraphConvCNN(\n  (gconv): GatedGraphConv(60, num_layers=2)\n  (cnn1): Conv1d(4, 1, kernel_size=(3,), stride=(2,))\n  (lin1): Linear(in_features=928, out_features=16, bias=True)\n  (lin2): Linear(in_features=16, out_features=32, bias=True)\n  (act): Softmax(dim=-1)\n)\nModel parameter count: 44581\nTrain dataset: DEAPDataset(32) | Validation dataset: DEAPDataset(160)\nTraining...\n--Finished training--\nTraining time (s): 3.26\nTotal epochs: 32 ; Model picked from epoch 2\nAverage time per epoch: 0.10\n\n--Testing--\nTest loss: 3.48587\nTest acc: 0.032  \nTest F1: 0.032 \nTest precision: 0.032\nTest recall: 0.032\n'
Running: python3 main.py -m GatedGraphConvCNN -ef psd -ntt 34 -bs 4 -hc 16 -lr 0.009 -dr 0.4 -st -wtr -esp 30 -trd test_2 -tmd best_params_2
b'Train/Val dataset: DEAPDataset(192) | Test dataset: DEAPDataset(1088)\nDevice: cuda\nNumber of classes: 32\nGatedGraphConvCNN(\n  (gconv): GatedGraphConv(60, num_layers=2)\n  (cnn1): Conv1d(4, 1, kernel_size=(3,), stride=(2,))\n  (lin1): Linear(in_features=928, out_features=16, bias=True)\n  (lin2): Linear(in_features=16, out_features=32, bias=True)\n  (act): Softmax(dim=-1)\n)\nModel parameter count: 44581\nTrain dataset: DEAPDataset(32) | Validation dataset: DEAPDataset(160)\nTraining...\n--Finished training--\nTraining time (s): 8.52\nTotal epochs: 31 ; Model picked from epoch 1\nAverage time per epoch: 0.27\n\n--Testing--\nTest loss: 3.48678\nTest acc: 0.031  \nTest F1: 0.031 \nTest precision: 0.031\nTest recall: 0.031\n'
Running: python3 main.py -m GatedGraphConvCNN -ef psd -ntt 34 -bs 16 -hc 16 -lr 0.009 -dr 0.4 -st -wtr -esp 30 -trd test_2 -tmd best_params_2
b'Train/Val dataset: DEAPDataset(192) | Test dataset: DEAPDataset(1088)\nDevice: cuda\nNumber of classes: 32\nGatedGraphConvCNN(\n  (gconv): GatedGraphConv(60, num_layers=2)\n  (cnn1): Conv1d(4, 1, kernel_size=(3,), stride=(2,))\n  (lin1): Linear(in_features=928, out_features=16, bias=True)\n  (lin2): Linear(in_features=16, out_features=32, bias=True)\n  (act): Softmax(dim=-1)\n)\nModel parameter count: 44581\nTrain dataset: DEAPDataset(32) | Validation dataset: DEAPDataset(160)\nTraining...\n--Finished training--\nTraining time (s): 8.44\nTotal epochs: 82 ; Model picked from epoch 52\nAverage time per epoch: 0.10\n\n--Testing--\nTest loss: 3.40583\nTest acc: 0.117  \nTest F1: 0.117 \nTest precision: 0.117\nTest recall: 0.117\n'
Running: python3 main.py -m GatedGraphConvCNN -ef psd -ntt 34 -bs 4 -hc 64 -lr 0.0001 -dr 0 -st -wtr -esp 30 -trd test_2 -tmd best_params_2
b'Train/Val dataset: DEAPDataset(192) | Test dataset: DEAPDataset(1088)\nDevice: cuda\nNumber of classes: 32\nGatedGraphConvCNN(\n  (gconv): GatedGraphConv(64, num_layers=2)\n  (cnn1): Conv1d(4, 1, kernel_size=(3,), stride=(2,))\n  (lin1): Linear(in_features=992, out_features=64, bias=True)\n  (lin2): Linear(in_features=64, out_features=32, bias=True)\n  (act): Softmax(dim=-1)\n)\nModel parameter count: 98797\nTrain dataset: DEAPDataset(32) | Validation dataset: DEAPDataset(160)\nTraining...\n--Finished training--\nTraining time (s): 20.21\nTotal epochs: 73 ; Model picked from epoch 43\nAverage time per epoch: 0.28\n\n--Testing--\nTest loss: 3.41868\nTest acc: 0.102  \nTest F1: 0.102 \nTest precision: 0.102\nTest recall: 0.102\n'
Running: python3 main.py -m GatedGraphConvCNN -ef psd -ntt 34 -bs 16 -hc 64 -lr 0.0001 -dr 0 -st -wtr -esp 30 -trd test_2 -tmd best_params_2
b'Train/Val dataset: DEAPDataset(192) | Test dataset: DEAPDataset(1088)\nDevice: cuda\nNumber of classes: 32\nGatedGraphConvCNN(\n  (gconv): GatedGraphConv(64, num_layers=2)\n  (cnn1): Conv1d(4, 1, kernel_size=(3,), stride=(2,))\n  (lin1): Linear(in_features=992, out_features=64, bias=True)\n  (lin2): Linear(in_features=64, out_features=32, bias=True)\n  (act): Softmax(dim=-1)\n)\nModel parameter count: 98797\nTrain dataset: DEAPDataset(32) | Validation dataset: DEAPDataset(160)\nTraining...\n--Finished training--\nTraining time (s): 2.66\nTotal epochs: 63 ; Model picked from epoch 33\nAverage time per epoch: 0.04\n\n--Testing--\nTest loss: 3.47015\nTest acc: 0.052  \nTest F1: 0.052 \nTest precision: 0.052\nTest recall: 0.052\n'
Running: python3 main.py -m GatedGraphConvCNN -ef psd -ntt 34 -bs 4 -hc 64 -lr 0.0001 -dr 0.4 -st -wtr -esp 30 -trd test_2 -tmd best_params_2
b'Train/Val dataset: DEAPDataset(192) | Test dataset: DEAPDataset(1088)\nDevice: cuda\nNumber of classes: 32\nGatedGraphConvCNN(\n  (gconv): GatedGraphConv(64, num_layers=2)\n  (cnn1): Conv1d(4, 1, kernel_size=(3,), stride=(2,))\n  (lin1): Linear(in_features=992, out_features=64, bias=True)\n  (lin2): Linear(in_features=64, out_features=32, bias=True)\n  (act): Softmax(dim=-1)\n)\nModel parameter count: 98797\nTrain dataset: DEAPDataset(32) | Validation dataset: DEAPDataset(160)\nTraining...\n--Finished training--\nTraining time (s): 38.65\nTotal epochs: 184 ; Model picked from epoch 154\nAverage time per epoch: 0.21\n\n--Testing--\nTest loss: 3.44827\nTest acc: 0.087  \nTest F1: 0.087 \nTest precision: 0.087\nTest recall: 0.087\n'
Running: python3 main.py -m GatedGraphConvCNN -ef psd -ntt 34 -bs 16 -hc 64 -lr 0.0001 -dr 0.4 -st -wtr -esp 30 -trd test_2 -tmd best_params_2
b'Train/Val dataset: DEAPDataset(192) | Test dataset: DEAPDataset(1088)\nDevice: cuda\nNumber of classes: 32\nGatedGraphConvCNN(\n  (gconv): GatedGraphConv(64, num_layers=2)\n  (cnn1): Conv1d(4, 1, kernel_size=(3,), stride=(2,))\n  (lin1): Linear(in_features=992, out_features=64, bias=True)\n  (lin2): Linear(in_features=64, out_features=32, bias=True)\n  (act): Softmax(dim=-1)\n)\nModel parameter count: 98797\nTrain dataset: DEAPDataset(32) | Validation dataset: DEAPDataset(160)\nTraining...\n--Finished training--\nTraining time (s): 14.85\nTotal epochs: 140 ; Model picked from epoch 110\nAverage time per epoch: 0.11\n\n--Testing--\nTest loss: 3.42937\nTest acc: 0.101  \nTest F1: 0.101 \nTest precision: 0.101\nTest recall: 0.101\n'
Running: python3 main.py -m GatedGraphConvCNN -ef psd -ntt 34 -bs 4 -hc 64 -lr 0.0045 -dr 0 -st -wtr -esp 30 -trd test_2 -tmd best_params_2
b'Train/Val dataset: DEAPDataset(192) | Test dataset: DEAPDataset(1088)\nDevice: cuda\nNumber of classes: 32\nGatedGraphConvCNN(\n  (gconv): GatedGraphConv(64, num_layers=2)\n  (cnn1): Conv1d(4, 1, kernel_size=(3,), stride=(2,))\n  (lin1): Linear(in_features=992, out_features=64, bias=True)\n  (lin2): Linear(in_features=64, out_features=32, bias=True)\n  (act): Softmax(dim=-1)\n)\nModel parameter count: 98797\nTrain dataset: DEAPDataset(32) | Validation dataset: DEAPDataset(160)\nTraining...\n--Finished training--\nTraining time (s): 3.72\nTotal epochs: 31 ; Model picked from epoch 1\nAverage time per epoch: 0.12\n\n--Testing--\nTest loss: 3.47943\nTest acc: 0.039  \nTest F1: 0.039 \nTest precision: 0.039\nTest recall: 0.039\n'
Running: python3 main.py -m GatedGraphConvCNN -ef psd -ntt 34 -bs 16 -hc 64 -lr 0.0045 -dr 0 -st -wtr -esp 30 -trd test_2 -tmd best_params_2
b'Train/Val dataset: DEAPDataset(192) | Test dataset: DEAPDataset(1088)\nDevice: cuda\nNumber of classes: 32\nGatedGraphConvCNN(\n  (gconv): GatedGraphConv(64, num_layers=2)\n  (cnn1): Conv1d(4, 1, kernel_size=(3,), stride=(2,))\n  (lin1): Linear(in_features=992, out_features=64, bias=True)\n  (lin2): Linear(in_features=64, out_features=32, bias=True)\n  (act): Softmax(dim=-1)\n)\nModel parameter count: 98797\nTrain dataset: DEAPDataset(32) | Validation dataset: DEAPDataset(160)\nTraining...\n--Finished training--\nTraining time (s): 4.48\nTotal epochs: 57 ; Model picked from epoch 27\nAverage time per epoch: 0.08\n\n--Testing--\nTest loss: 3.40595\nTest acc: 0.110  \nTest F1: 0.110 \nTest precision: 0.110\nTest recall: 0.110\n'
Running: python3 main.py -m GatedGraphConvCNN -ef psd -ntt 34 -bs 4 -hc 64 -lr 0.0045 -dr 0.4 -st -wtr -esp 30 -trd test_2 -tmd best_params_2
b'Train/Val dataset: DEAPDataset(192) | Test dataset: DEAPDataset(1088)\nDevice: cuda\nNumber of classes: 32\nGatedGraphConvCNN(\n  (gconv): GatedGraphConv(64, num_layers=2)\n  (cnn1): Conv1d(4, 1, kernel_size=(3,), stride=(2,))\n  (lin1): Linear(in_features=992, out_features=64, bias=True)\n  (lin2): Linear(in_features=64, out_features=32, bias=True)\n  (act): Softmax(dim=-1)\n)\nModel parameter count: 98797\nTrain dataset: DEAPDataset(32) | Validation dataset: DEAPDataset(160)\nTraining...\n--Finished training--\nTraining time (s): 6.69\nTotal epochs: 32 ; Model picked from epoch 2\nAverage time per epoch: 0.21\n\n--Testing--\nTest loss: 3.48677\nTest acc: 0.031  \nTest F1: 0.031 \nTest precision: 0.031\nTest recall: 0.031\n'
Running: python3 main.py -m GatedGraphConvCNN -ef psd -ntt 34 -bs 16 -hc 64 -lr 0.0045 -dr 0.4 -st -wtr -esp 30 -trd test_2 -tmd best_params_2
b'Train/Val dataset: DEAPDataset(192) | Test dataset: DEAPDataset(1088)\nDevice: cuda\nNumber of classes: 32\nGatedGraphConvCNN(\n  (gconv): GatedGraphConv(64, num_layers=2)\n  (cnn1): Conv1d(4, 1, kernel_size=(3,), stride=(2,))\n  (lin1): Linear(in_features=992, out_features=64, bias=True)\n  (lin2): Linear(in_features=64, out_features=32, bias=True)\n  (act): Softmax(dim=-1)\n)\nModel parameter count: 98797\nTrain dataset: DEAPDataset(32) | Validation dataset: DEAPDataset(160)\nTraining...\n--Finished training--\nTraining time (s): 7.89\nTotal epochs: 101 ; Model picked from epoch 71\nAverage time per epoch: 0.08\n\n--Testing--\nTest loss: 3.44545\nTest acc: 0.074  \nTest F1: 0.074 \nTest precision: 0.074\nTest recall: 0.074\n'
Running: python3 main.py -m GatedGraphConvCNN -ef psd -ntt 34 -bs 4 -hc 64 -lr 0.009 -dr 0 -st -wtr -esp 30 -trd test_2 -tmd best_params_2
b'Train/Val dataset: DEAPDataset(192) | Test dataset: DEAPDataset(1088)\nDevice: cuda\nNumber of classes: 32\nGatedGraphConvCNN(\n  (gconv): GatedGraphConv(64, num_layers=2)\n  (cnn1): Conv1d(4, 1, kernel_size=(3,), stride=(2,))\n  (lin1): Linear(in_features=992, out_features=64, bias=True)\n  (lin2): Linear(in_features=64, out_features=32, bias=True)\n  (act): Softmax(dim=-1)\n)\nModel parameter count: 98797\nTrain dataset: DEAPDataset(32) | Validation dataset: DEAPDataset(160)\nTraining...\n--Finished training--\nTraining time (s): 8.25\nTotal epochs: 40 ; Model picked from epoch 10\nAverage time per epoch: 0.21\n\n--Testing--\nTest loss: 3.46575\nTest acc: 0.031  \nTest F1: 0.031 \nTest precision: 0.031\nTest recall: 0.031\n'
Running: python3 main.py -m GatedGraphConvCNN -ef psd -ntt 34 -bs 16 -hc 64 -lr 0.009 -dr 0 -st -wtr -esp 30 -trd test_2 -tmd best_params_2
b'Train/Val dataset: DEAPDataset(192) | Test dataset: DEAPDataset(1088)\nDevice: cuda\nNumber of classes: 32\nGatedGraphConvCNN(\n  (gconv): GatedGraphConv(64, num_layers=2)\n  (cnn1): Conv1d(4, 1, kernel_size=(3,), stride=(2,))\n  (lin1): Linear(in_features=992, out_features=64, bias=True)\n  (lin2): Linear(in_features=64, out_features=32, bias=True)\n  (act): Softmax(dim=-1)\n)\nModel parameter count: 98797\nTrain dataset: DEAPDataset(32) | Validation dataset: DEAPDataset(160)\nTraining...\n--Finished training--\nTraining time (s): 7.51\nTotal epochs: 97 ; Model picked from epoch 67\nAverage time per epoch: 0.08\n\n--Testing--\nTest loss: 3.44499\nTest acc: 0.073  \nTest F1: 0.073 \nTest precision: 0.073\nTest recall: 0.073\n'
Running: python3 main.py -m GatedGraphConvCNN -ef psd -ntt 34 -bs 4 -hc 64 -lr 0.009 -dr 0.4 -st -wtr -esp 30 -trd test_2 -tmd best_params_2
b'Train/Val dataset: DEAPDataset(192) | Test dataset: DEAPDataset(1088)\nDevice: cuda\nNumber of classes: 32\nGatedGraphConvCNN(\n  (gconv): GatedGraphConv(64, num_layers=2)\n  (cnn1): Conv1d(4, 1, kernel_size=(3,), stride=(2,))\n  (lin1): Linear(in_features=992, out_features=64, bias=True)\n  (lin2): Linear(in_features=64, out_features=32, bias=True)\n  (act): Softmax(dim=-1)\n)\nModel parameter count: 98797\nTrain dataset: DEAPDataset(32) | Validation dataset: DEAPDataset(160)\nTraining...\n--Finished training--\nTraining time (s): 6.20\nTotal epochs: 31 ; Model picked from epoch 1\nAverage time per epoch: 0.20\n\n--Testing--\nTest loss: 3.48679\nTest acc: 0.031  \nTest F1: 0.031 \nTest precision: 0.031\nTest recall: 0.031\n'
Running: python3 main.py -m GatedGraphConvCNN -ef psd -ntt 34 -bs 16 -hc 64 -lr 0.009 -dr 0.4 -st -wtr -esp 30 -trd test_2 -tmd best_params_2
b'Train/Val dataset: DEAPDataset(192) | Test dataset: DEAPDataset(1088)\nDevice: cuda\nNumber of classes: 32\nGatedGraphConvCNN(\n  (gconv): GatedGraphConv(64, num_layers=2)\n  (cnn1): Conv1d(4, 1, kernel_size=(3,), stride=(2,))\n  (lin1): Linear(in_features=992, out_features=64, bias=True)\n  (lin2): Linear(in_features=64, out_features=32, bias=True)\n  (act): Softmax(dim=-1)\n)\nModel parameter count: 98797\nTrain dataset: DEAPDataset(32) | Validation dataset: DEAPDataset(160)\nTraining...\n--Finished training--\nTraining time (s): 2.16\nTotal epochs: 31 ; Model picked from epoch 1\nAverage time per epoch: 0.07\n\n--Testing--\nTest loss: 3.48679\nTest acc: 0.031  \nTest F1: 0.031 \nTest precision: 0.031\nTest recall: 0.031\n'
Running: python3 main.py -m GatedGraphConvCNN -ef psd -ntt 34 -bs 4 -hc 128 -lr 0.0001 -dr 0 -st -wtr -esp 30 -trd test_2 -tmd best_params_2
b'Train/Val dataset: DEAPDataset(192) | Test dataset: DEAPDataset(1088)\nDevice: cuda\nNumber of classes: 32\nGatedGraphConvCNN(\n  (gconv): GatedGraphConv(128, num_layers=2)\n  (cnn1): Conv1d(4, 1, kernel_size=(3,), stride=(2,))\n  (lin1): Linear(in_features=2016, out_features=128, bias=True)\n  (lin2): Linear(in_features=128, out_features=32, bias=True)\n  (act): Softmax(dim=-1)\n)\nModel parameter count: 394157\nTrain dataset: DEAPDataset(32) | Validation dataset: DEAPDataset(160)\nTraining...\n--Finished training--\nTraining time (s): 23.94\nTotal epochs: 104 ; Model picked from epoch 74\nAverage time per epoch: 0.23\n\n--Testing--\nTest loss: 3.40831\nTest acc: 0.114  \nTest F1: 0.114 \nTest precision: 0.114\nTest recall: 0.114\n'
Running: python3 main.py -m GatedGraphConvCNN -ef psd -ntt 34 -bs 16 -hc 128 -lr 0.0001 -dr 0 -st -wtr -esp 30 -trd test_2 -tmd best_params_2
b'Train/Val dataset: DEAPDataset(192) | Test dataset: DEAPDataset(1088)\nDevice: cuda\nNumber of classes: 32\nGatedGraphConvCNN(\n  (gconv): GatedGraphConv(128, num_layers=2)\n  (cnn1): Conv1d(4, 1, kernel_size=(3,), stride=(2,))\n  (lin1): Linear(in_features=2016, out_features=128, bias=True)\n  (lin2): Linear(in_features=128, out_features=32, bias=True)\n  (act): Softmax(dim=-1)\n)\nModel parameter count: 394157\nTrain dataset: DEAPDataset(32) | Validation dataset: DEAPDataset(160)\nTraining...\n--Finished training--\nTraining time (s): 5.09\nTotal epochs: 49 ; Model picked from epoch 19\nAverage time per epoch: 0.10\n\n--Testing--\nTest loss: 3.44077\nTest acc: 0.076  \nTest F1: 0.076 \nTest precision: 0.076\nTest recall: 0.076\n'
Running: python3 main.py -m GatedGraphConvCNN -ef psd -ntt 34 -bs 4 -hc 128 -lr 0.0001 -dr 0.4 -st -wtr -esp 30 -trd test_2 -tmd best_params_2
b'Train/Val dataset: DEAPDataset(192) | Test dataset: DEAPDataset(1088)\nDevice: cuda\nNumber of classes: 32\nGatedGraphConvCNN(\n  (gconv): GatedGraphConv(128, num_layers=2)\n  (cnn1): Conv1d(4, 1, kernel_size=(3,), stride=(2,))\n  (lin1): Linear(in_features=2016, out_features=128, bias=True)\n  (lin2): Linear(in_features=128, out_features=32, bias=True)\n  (act): Softmax(dim=-1)\n)\nModel parameter count: 394157\nTrain dataset: DEAPDataset(32) | Validation dataset: DEAPDataset(160)\nTraining...\n--Finished training--\nTraining time (s): 14.14\nTotal epochs: 62 ; Model picked from epoch 32\nAverage time per epoch: 0.23\n\n--Testing--\nTest loss: 3.39330\nTest acc: 0.130  \nTest F1: 0.130 \nTest precision: 0.130\nTest recall: 0.130\n'
Running: python3 main.py -m GatedGraphConvCNN -ef psd -ntt 34 -bs 16 -hc 128 -lr 0.0001 -dr 0.4 -st -wtr -esp 30 -trd test_2 -tmd best_params_2
b'Train/Val dataset: DEAPDataset(192) | Test dataset: DEAPDataset(1088)\nDevice: cuda\nNumber of classes: 32\nGatedGraphConvCNN(\n  (gconv): GatedGraphConv(128, num_layers=2)\n  (cnn1): Conv1d(4, 1, kernel_size=(3,), stride=(2,))\n  (lin1): Linear(in_features=2016, out_features=128, bias=True)\n  (lin2): Linear(in_features=128, out_features=32, bias=True)\n  (act): Softmax(dim=-1)\n)\nModel parameter count: 394157\nTrain dataset: DEAPDataset(32) | Validation dataset: DEAPDataset(160)\nTraining...\n--Finished training--\nTraining time (s): 13.20\nTotal epochs: 137 ; Model picked from epoch 107\nAverage time per epoch: 0.10\n\n--Testing--\nTest loss: 3.39237\nTest acc: 0.131  \nTest F1: 0.131 \nTest precision: 0.131\nTest recall: 0.131\n'
Running: python3 main.py -m GatedGraphConvCNN -ef psd -ntt 34 -bs 4 -hc 128 -lr 0.0045 -dr 0 -st -wtr -esp 30 -trd test_2 -tmd best_params_2
b'Train/Val dataset: DEAPDataset(192) | Test dataset: DEAPDataset(1088)\nDevice: cuda\nNumber of classes: 32\nGatedGraphConvCNN(\n  (gconv): GatedGraphConv(128, num_layers=2)\n  (cnn1): Conv1d(4, 1, kernel_size=(3,), stride=(2,))\n  (lin1): Linear(in_features=2016, out_features=128, bias=True)\n  (lin2): Linear(in_features=128, out_features=32, bias=True)\n  (act): Softmax(dim=-1)\n)\nModel parameter count: 394157\nTrain dataset: DEAPDataset(32) | Validation dataset: DEAPDataset(160)\nTraining...\n--Finished training--\nTraining time (s): 10.57\nTotal epochs: 36 ; Model picked from epoch 6\nAverage time per epoch: 0.29\n\n--Testing--\nTest loss: 3.44853\nTest acc: 0.071  \nTest F1: 0.071 \nTest precision: 0.071\nTest recall: 0.071\n'
Running: python3 main.py -m GatedGraphConvCNN -ef psd -ntt 34 -bs 16 -hc 128 -lr 0.0045 -dr 0 -st -wtr -esp 30 -trd test_2 -tmd best_params_2
b'Train/Val dataset: DEAPDataset(192) | Test dataset: DEAPDataset(1088)\nDevice: cuda\nNumber of classes: 32\nGatedGraphConvCNN(\n  (gconv): GatedGraphConv(128, num_layers=2)\n  (cnn1): Conv1d(4, 1, kernel_size=(3,), stride=(2,))\n  (lin1): Linear(in_features=2016, out_features=128, bias=True)\n  (lin2): Linear(in_features=128, out_features=32, bias=True)\n  (act): Softmax(dim=-1)\n)\nModel parameter count: 394157\nTrain dataset: DEAPDataset(32) | Validation dataset: DEAPDataset(160)\nTraining...\n--Finished training--\nTraining time (s): 2.40\nTotal epochs: 31 ; Model picked from epoch 1\nAverage time per epoch: 0.08\n\n--Testing--\nTest loss: 3.48678\nTest acc: 0.031  \nTest F1: 0.031 \nTest precision: 0.031\nTest recall: 0.031\n'
Running: python3 main.py -m GatedGraphConvCNN -ef psd -ntt 34 -bs 4 -hc 128 -lr 0.0045 -dr 0.4 -st -wtr -esp 30 -trd test_2 -tmd best_params_2
b'Train/Val dataset: DEAPDataset(192) | Test dataset: DEAPDataset(1088)\nDevice: cuda\nNumber of classes: 32\nGatedGraphConvCNN(\n  (gconv): GatedGraphConv(128, num_layers=2)\n  (cnn1): Conv1d(4, 1, kernel_size=(3,), stride=(2,))\n  (lin1): Linear(in_features=2016, out_features=128, bias=True)\n  (lin2): Linear(in_features=128, out_features=32, bias=True)\n  (act): Softmax(dim=-1)\n)\nModel parameter count: 394157\nTrain dataset: DEAPDataset(32) | Validation dataset: DEAPDataset(160)\nTraining...\n--Finished training--\nTraining time (s): 7.03\nTotal epochs: 31 ; Model picked from epoch 1\nAverage time per epoch: 0.23\n\n--Testing--\nTest loss: 3.48679\nTest acc: 0.031  \nTest F1: 0.031 \nTest precision: 0.031\nTest recall: 0.031\n'
Running: python3 main.py -m GatedGraphConvCNN -ef psd -ntt 34 -bs 16 -hc 128 -lr 0.0045 -dr 0.4 -st -wtr -esp 30 -trd test_2 -tmd best_params_2
b'Train/Val dataset: DEAPDataset(192) | Test dataset: DEAPDataset(1088)\nDevice: cuda\nNumber of classes: 32\nGatedGraphConvCNN(\n  (gconv): GatedGraphConv(128, num_layers=2)\n  (cnn1): Conv1d(4, 1, kernel_size=(3,), stride=(2,))\n  (lin1): Linear(in_features=2016, out_features=128, bias=True)\n  (lin2): Linear(in_features=128, out_features=32, bias=True)\n  (act): Softmax(dim=-1)\n)\nModel parameter count: 394157\nTrain dataset: DEAPDataset(32) | Validation dataset: DEAPDataset(160)\nTraining...\n--Finished training--\nTraining time (s): 3.02\nTotal epochs: 31 ; Model picked from epoch 1\nAverage time per epoch: 0.10\n\n--Testing--\nTest loss: 3.47545\nTest acc: 0.047  \nTest F1: 0.047 \nTest precision: 0.047\nTest recall: 0.047\n'
Running: python3 main.py -m GatedGraphConvCNN -ef psd -ntt 34 -bs 4 -hc 128 -lr 0.009 -dr 0 -st -wtr -esp 30 -trd test_2 -tmd best_params_2
b'Train/Val dataset: DEAPDataset(192) | Test dataset: DEAPDataset(1088)\nDevice: cuda\nNumber of classes: 32\nGatedGraphConvCNN(\n  (gconv): GatedGraphConv(128, num_layers=2)\n  (cnn1): Conv1d(4, 1, kernel_size=(3,), stride=(2,))\n  (lin1): Linear(in_features=2016, out_features=128, bias=True)\n  (lin2): Linear(in_features=128, out_features=32, bias=True)\n  (act): Softmax(dim=-1)\n)\nModel parameter count: 394157\nTrain dataset: DEAPDataset(32) | Validation dataset: DEAPDataset(160)\nTraining...\n--Finished training--\nTraining time (s): 6.84\nTotal epochs: 31 ; Model picked from epoch 1\nAverage time per epoch: 0.22\n\n--Testing--\nTest loss: 3.48679\nTest acc: 0.031  \nTest F1: 0.031 \nTest precision: 0.031\nTest recall: 0.031\n'
Running: python3 main.py -m GatedGraphConvCNN -ef psd -ntt 34 -bs 16 -hc 128 -lr 0.009 -dr 0 -st -wtr -esp 30 -trd test_2 -tmd best_params_2
b'Train/Val dataset: DEAPDataset(192) | Test dataset: DEAPDataset(1088)\nDevice: cuda\nNumber of classes: 32\nGatedGraphConvCNN(\n  (gconv): GatedGraphConv(128, num_layers=2)\n  (cnn1): Conv1d(4, 1, kernel_size=(3,), stride=(2,))\n  (lin1): Linear(in_features=2016, out_features=128, bias=True)\n  (lin2): Linear(in_features=128, out_features=32, bias=True)\n  (act): Softmax(dim=-1)\n)\nModel parameter count: 394157\nTrain dataset: DEAPDataset(32) | Validation dataset: DEAPDataset(160)\nTraining...\n--Finished training--\nTraining time (s): 3.24\nTotal epochs: 32 ; Model picked from epoch 2\nAverage time per epoch: 0.10\n\n--Testing--\nTest loss: 3.46244\nTest acc: 0.058  \nTest F1: 0.058 \nTest precision: 0.058\nTest recall: 0.058\n'
Running: python3 main.py -m GatedGraphConvCNN -ef psd -ntt 34 -bs 4 -hc 128 -lr 0.009 -dr 0.4 -st -wtr -esp 30 -trd test_2 -tmd best_params_2
b'Train/Val dataset: DEAPDataset(192) | Test dataset: DEAPDataset(1088)\nDevice: cuda\nNumber of classes: 32\nGatedGraphConvCNN(\n  (gconv): GatedGraphConv(128, num_layers=2)\n  (cnn1): Conv1d(4, 1, kernel_size=(3,), stride=(2,))\n  (lin1): Linear(in_features=2016, out_features=128, bias=True)\n  (lin2): Linear(in_features=128, out_features=32, bias=True)\n  (act): Softmax(dim=-1)\n)\nModel parameter count: 394157\nTrain dataset: DEAPDataset(32) | Validation dataset: DEAPDataset(160)\nTraining...\n--Finished training--\nTraining time (s): 4.55\nTotal epochs: 31 ; Model picked from epoch 1\nAverage time per epoch: 0.15\n\n--Testing--\nTest loss: 3.48679\nTest acc: 0.031  \nTest F1: 0.031 \nTest precision: 0.031\nTest recall: 0.031\n'
Running: python3 main.py -m GatedGraphConvCNN -ef psd -ntt 34 -bs 16 -hc 128 -lr 0.009 -dr 0.4 -st -wtr -esp 30 -trd test_2 -tmd best_params_2
b'Train/Val dataset: DEAPDataset(192) | Test dataset: DEAPDataset(1088)\nDevice: cuda\nNumber of classes: 32\nGatedGraphConvCNN(\n  (gconv): GatedGraphConv(128, num_layers=2)\n  (cnn1): Conv1d(4, 1, kernel_size=(3,), stride=(2,))\n  (lin1): Linear(in_features=2016, out_features=128, bias=True)\n  (lin2): Linear(in_features=128, out_features=32, bias=True)\n  (act): Softmax(dim=-1)\n)\nModel parameter count: 394157\nTrain dataset: DEAPDataset(32) | Validation dataset: DEAPDataset(160)\nTraining...\n--Finished training--\nTraining time (s): 3.44\nTotal epochs: 31 ; Model picked from epoch 1\nAverage time per epoch: 0.11\n\n--Testing--\nTest loss: 3.47777\nTest acc: 0.040  \nTest F1: 0.040 \nTest precision: 0.040\nTest recall: 0.040\n'
…
